dqn_cartpole.pth (torch, 21457 bytes, 6 tensors)

fc1.weight f4 [64, 4]
00000000: 9bb0 ddbe 9197 cc3e 0cf5 1840 ad3c 1d3f
00000010: 712c 92be 0e20 78bf df0a 4a3e 040b 3cbf
00000020: 875d 553e 3bd2 61bc 3628 9fbe 582f 173e
00000030: 3d53 c4be 69e4 7e3e 391c ca3e 6c5e 363e
00000040: 07c4 c93e d3fb 0dbf c447 57bf 5442 9bbe
00000050: 3a48 7a3a 5911 29bd 3785 ae3c 5e7c 833e
00000060: 11ad 80bd 5f3f 16bf 607a 28c0 9331 32bf
00000070: 251b 1a3f cc03 a4bd ea6d 58bf b689 40be
00000080: 913e cebe 0c85 d33e 19b8 3940 b11e 483f
00000090: 2c3c 013e 90dc 92be ac39 54bf 9137 27be
000000a0: 9878 f23c eaa2 703e caa7 babe c8f6 033f
000000b0: 5940 67bc 6dae f53e 03d8 923f e2bf 2f3d
000000c0: c412 4f3f fc32 733e 978b 1640 6028 2a3f
000000d0: a765 673e 8fea dbbe c799 eebe e028 22be
000000e0: c722 07be b930 5f3e c040 3240 c18b 1a3f
000000f0: 9b0f 413f d2da 40bf ff6f 02c0 101f 57bf
00000100: 62ae bf3e 3adb a9be d4c5 12c0 7879 19bf
00000110: 910c 69bf ec3e f5be bda2 a23f 371d cc3e
00000120: 005e d2bb 40ac 413c c454 a9be 00ab cb3b
00000130: 4627 d5be 86de f0be 0b77 963f c3f4 253f
00000140: 999f dd3e 2031 823e 4118 a8bd 521f f63b
00000150: 8047 d1bd e06e 363e 6c53 523e 5851 0f3e
00000160: 0b21 0dbd 7996 433f 7d11 1740 1886 373f
00000170: d7f8 d6bc bd2f 003e 50bc 883d bff5 873e
00000180: fbed e6be eddb ec3e 55a9 ebbe 1cb4 b93e
00000190: e347 ffbe 4dc2 023f 0da6 1e40 ac23 473f
000001a0: c9df e33e 0b8d 0fbf ec8f bbbf b432 ba3d
000001b0: 9227 ec3e 4b15 57be 2ae7 8a3e b0b3 abbe
000001c0: 5699 a23e 0dd6 8abe a405 923e 580b 8fbe
000001d0: 819d c33d d0a5 d3be 6262 0ac0 8df0 17bf
000001e0: 7dd3 023d 0b63 17be d60f 98be 5166 7b3e
000001f0: e8fe 7d3d 422d 4fbe 9274 a9bf 40c0 373e
00000200: 9d64 ab3e b25e 183f a486 a8bd 28dc 843e
00000210: b27a b93f 5c81 fcbd 224d 0cc0 cf77 f2be
00000220: 902c 873f 44ae 9abe 3fd7 9abf 0cc3 93be
00000230: 9e6f 793d 8457 0a3d 78e3 8f3d d11e 0a3e
00000240: 0988 c0be 4c31 ce3e 07c8 6140 fdc2 613f
00000250: cb87 ac3d 133a 963e f2c4 643d 8f02 a6be
00000260: ea7f 1d3f ba9a 10bf 3c5d 9bbf 580d 00be
00000270: 9662 2a3f be92 0f3f 071d 3e3e 32df c93e
00000280: 1543 a4be ee68 d63e 5255 e93e e227 3bbe
00000290: cb77 8abe bf75 2a3f 96f5 8f3f 84f4 06bf
000002a0: c71a 733d 40a6 b83d 3782 6b3c 063a 8dbd
000002b0: eb44 c5bd b86a 123f 799d d53e 70b9 14bf
000002c0: 0fd6 503f ce90 f1bd 932f 16c0 141e 9bbe
000002d0: 14b6 35bd 0162 7e3e f7c8 b03e cde4 8dbd
000002e0: c89b 3e3f 4b6a 203f 0268 8c3e 29a5 883e
000002f0: 75d1 7e3f 11a8 d23d 9209 afbf f8de bdbe
00000300: 7c0d 2b3f 6c58 24bf 56b5 cfbf a2f3 4abf
00000310: 9596 c4bd 3275 73bd 4ec7 fa3c 2b67 06be
00000320: 5e46 733e 5982 023f 347b f4bd db27 9cbe
00000330: f1cd 90be 2131 4f3e 688c 4ebe 79da dc3e
00000340: d632 bb3e bc01 c93e 6d73 cdbf 3ce8 0cbf
00000350: 7c5c b13e 27e8 94be 60ac 37c0 2a39 25bf
00000360: 5685 663e 24a6 6ebd 91f7 2ebf 65b9 75be
00000370: 77a7 773f 2e18 ec3e f370 de3f 6eff d53e
00000380: 71b5 33be 9928 41be e4c5 323e e554 92be
00000390: 0d35 ac3e 95a2 c3be 6ead 40c0 184e 40bf
000003a0: 1681 7abd 0d44 cbbe f8b5 56bd aa24 33be
000003b0: 8d56 003d 5109 aebd 001e 3fc0 ca21 d3be
000003c0: 8ede 7f3f 1bd0 013e b9e4 09bf bbd4 c6be
000003d0: 2bfe 1bbf 9cf5 c5bd d711 f63f bac2 d83e
000003e0: 20d6 3ebe c979 833d 0f95 1ec0 b751 dbbe
000003f0: c28b 3cbe 2af9 af3e e6d7 063f e35b d53e
-0.43298802 0.39959386 2.3899565 0.6142071 -0.2854953 -0.9692391 0.1973071 -0.7345431
0.20836459 -0.013783033 -0.31085366 0.14764154 -0.38344756 0.24891819 0.39474657 0.17809457
0.3940737 -0.5546238 -0.8409388 -0.30324042 0.0009547506 -0.04127631 0.021303756 0.25680822
-0.0628301 -0.58690447 -2.6324692 -0.69606894 0.6019767 -0.08008537 -0.84542716 -0.18802533
-0.4028211 0.41312444 2.9018614 0.7817183 0.1262061 -0.286839 -0.829005 -0.1632979
0.02959852 0.23499647 -0.36456138 0.51548433 -0.014114463 0.4798464 1.1472172 0.042907603
0.8088801 0.23749918 2.35227 0.6646786 0.22597371 -0.42952392 -0.46601698 -0.15835905
-0.1319686 0.2179593 2.785202 0.603695 0.7541444 -0.75333893 -2.0380857 -0.8403177
0.3743773 -0.3317507 -2.2933245 -0.5995097 -0.910348 -0.47899568 1.2705914 0.3986604
-0.006419897 0.011820853 -0.33072484 0.006215453 -0.41631526 -0.47044772 1.1755079 0.648266
0.43285826 0.25428104 -0.08207751 0.007511058 -0.10218716 0.17815733 0.20539635 0.13995874
-0.03445534 0.7640148 2.3604424 0.71688986 -0.026241703 0.1251821 0.06676543 0.26554677
-0.4510344 0.4626154 -0.46027628 0.36270225 -0.49859533 0.5107773 2.478885 0.77788806
0.44506672 -0.5607459 -1.4653296 0.09091702 0.4612394 -0.21004216 0.2712949 -0.33535528
0.3175761 -0.27116433 0.28519928 -0.27938342 0.09551526 -0.41337442 -2.1622548 -0.59351426
0.031939972 -0.14783876 -0.29699582 0.2455075 0.062010676 -0.20232108 -1.32387 0.17944431
0.334752 0.59519494 -0.08228806 0.25949216 1.4490569 -0.12329361 -2.1922078 -0.47357032
1.0560474 -0.3021108 -1.2096938 -0.28859746 0.060897462 0.033774868 0.07025808 0.13488318
-0.37603787 0.40271986 3.5278337 0.88188154 0.08424338 0.29341182 0.055851884 -0.32423827
0.61523306 -0.56486094 -1.2137828 -0.1250509 0.6655668 0.56083286 0.1856576 0.39428097
-0.3208243 0.4187693 0.45572907 -0.18276933 -0.2704452 0.66585916 1.1246822 -0.5271685
0.05935171 0.09016085 0.014374307 -0.06895833 -0.09632286 0.5719409 0.41721705 -0.58095455
0.8157663 -0.117951974 -2.3466537 -0.30296385 -0.044363096 0.24842073 0.34528324 -0.06928406
0.74456453 0.6266219 0.27423102 0.26688507 0.99538356 0.102859624 -1.3674796 -0.37084174
0.6681745 -0.6419742 -1.6227214 -0.79278004 -0.09599034 -0.059437938 0.030612614 -0.13125293
0.23757312 0.50980145 -0.11937562 -0.30499157 -0.2828212 0.20233585 -0.20170748 0.4313543
0.36562222 0.39259136 -1.605085 -0.5504186 0.34640872 -0.29083368 -2.869896 -0.6454035
0.22511801 -0.058263913 -0.68346506 -0.23996504 0.96739906 0.46112198 1.7378219 0.4179644
-0.17549683 -0.18863143 0.17458302 -0.28580394 0.33634225 -0.38209978 -3.0105853 -0.7511916
-0.061158262 -0.39700356 -0.052419633 -0.17494455 0.03133254 -0.08497871 -2.986206 -0.41236717
0.99948967 0.12677042 -0.5386463 -0.38834175 -0.60934705 -0.09665987 1.9224194 0.42336065
-0.1863637 0.06419713 -2.4778478 -0.4283578 -0.18412688 0.34369785 0.52673185 0.41671667

fc1.bias f4 [64]
00000000: 4ee6 02bf 487b 90be b0a1 333f c581 1d3f
00000010: 8817 163f 8772 203f 4ab6 333f 298e 353f
00000020: a03f 2cbf bf0b 033f 1c3f 613f 072e e03e
00000030: 1ee3 93be 9a34 523f 37d5 f1be 8bc3 23bf
00000040: ef58 f3be 5fc9 6fbe a0b9 67be acef d9be
00000050: b725 203f 9003 b5be 85eb 08bf 9ada 603f
00000060: 6ad7 cdbe b1a4 2ebf 34a0 2c3e 9d56 433f
00000070: f0b7 173f fd1d e1be b255 323f 610e 0b3f
00000080: 57ec fe3e be72 323f 2f75 6fbe 2c09 093f
00000090: 2008 063f 2909 1d3f 3de8 0f3f 0b54 2e3f
000000a0: 8d59 0f3e 344b 6b3e dc41 2f3f 71e4 ec3e
000000b0: 44bb 063f b526 3f3f 602f 0b3f 3a2e 8abf
000000c0: 3603 40be b7c9 193f 7441 0c3f fbec 6e3f
000000d0: 09a4 63be 0716 00bf 8519 6b3f 26c0 fdbe
000000e0: 3438 5b3f 74f2 dcbe eb08 653f 874b 0ebf
000000f0: 98cb 3ebf 3483 08bf 96f7 cdbe 6120 413f
-0.5113267 -0.28219056 0.7016859 0.6152614 0.58629656 0.62674755 0.70200026 0.70920044
-0.67284584 0.511898 0.8798692 0.43785116 -0.28884214 0.82111514 -0.47232983 -0.6397025
-0.47528788 -0.2341666 -0.22629404 -0.42565668 0.6255755 -0.3535428 -0.53484374 0.8783356
-0.4020341 -0.6822005 0.16857988 0.76304036 0.5926504 -0.43968192 0.6966201 0.54318815
0.49789688 0.6970633 -0.23384546 0.5352962 0.5235615 0.613421 0.5621374 0.6809699
0.13999005 0.22977906 0.6845987 0.46268037 0.52629495 0.7466844 0.54369164 -1.0795357
-0.18751225 0.6007342 0.54787374 0.93330353 -0.22230543 -0.5003361 0.91835815 -0.4956066
0.85632634 -0.43153727 0.8946673 -0.55583996 -0.7452941 -0.533252 -0.40227956 0.7544003

fc2.weight f4 [64, 64]
00000000: 99bb a4bf ea5b 963f 0373 f73e 67e8 ce3e
00000010: 9399 933e 0150 943e 78d5 3abf 84a7 6a3e
00000020: b11f 04c0 d30c a93e 24eb e13e b383 393e
00000030: 264e adbe 084b d93e c268 98bf f843 0bc0
00000040: 79a8 f8bf e061 023e 9a5e ddbd 052b 6d3c
00000050: 14b1 a03e 60f1 393c b31b c3bf a614 cb3e
00000060: abb6 e33c e7b1 e9bf 94f5 d03e b6de a93e
00000070: 3836 9e3e 79a6 82bf e461 e83e b7d6 f13e
00000080: 4e60 9e3e 9d40 97be 189f 22bf cc10 8e3e
00000090: 55ec 13be ef13 103e 73a2 bf3e 4547 ce3e
000000a0: 0158 18bd 2ff4 153e 9712 943e 3bad 923d
000000b0: 370b 2cbf 2149 5c3e 3817 c43e 9f44 9fbf
000000c0: 8f2e c13e 49eb a43e 0513 683e f8e7 d03e
000000d0: 03ce cbbe c99b 8bbf d890 363e 3606 4ebf
000000e0: 4d0b 7d3e 51e2 06bf 5ef2 ae3e da10 0ec0
000000f0: c685 1dbf 746e debe 769e 61bf 215b 763e
00000100: 8eb2 97bd 587f c33d 3720 6dbd cac1 02bd
00000110: c836 fd3b 2722 20be 4a51 8abd 4b90 32bd
00000120: 8a79 bcbd 5c93 bebc 4565 b0bd 44d1 55bd
00000130: 3495 c7bc c84b de3b 28d7 473d a08e 9cbd
00000140: 38a6 58bd d2da 263d e4ff 5a3d 7d4b 0dbd
00000150: 0083 b9bd 9a87 afbd 421c ca3d 6a94 fabd
00000160: 4829 f43c 2266 d8bc 442e 2b3c deff 82bd
00000170: b488 f9bd d8f1 f0bd a458 96bd 4bf2 2e3d
00000180: 4032 943b 5c86 37bd bcff 20bd 9e17 563d
00000190: f41c 4a3d f6ec aebd 8f5b 523d ae33 fdbd
000001a0: 0275 923d a0ff bf3b 10d7 8abc ba90 c3bd
000001b0: 28a6 16bd 9dbc 32bd dcf8 b03d e4f7 d03d
000001c0: 907c e33c 99b1 a5bd 28d5 c9bc 74aa e13c
000001d0: 9091 583d 0048 9838 77d4 f5bb f488 203d
000001e0: 680c 30be 2414 ae3d a1a1 42bd c8c8 b0bd
000001f0: 8011 5f3d 02b9 c0bc 001c 7e3a 9c8c 67bd
00000200: 6dcd b0bf 938c 6e3f 234f ef3e 26fb 853e
00000210: c1c0 3e3e 8cb0 c03e 9d2d 39bf 052d 163e
00000220: 1744 00c0 5562 1b3e 7c99 ef3e 124f 3f3e
00000230: 5bc4 babe 7270 d73e 9a0a 8ebf 43e3 09c0
00000240: 4c72 d3bf ee45 acba 784c 9abd 4abf 6fbc
00000250: afa8 d53e 9477 acbd 4091 c7bf c2a2 af3e
00000260: 6a33 603d ec5e e7bf e5e8 b33e a101 463e
00000270: c51c 1f3e a91d 79bf 4486 953e c6db dd3e
00000280: b2b6 913e 3124 a6bd 1079 06bf 3264 a63e
00000290: 1216 80bd cd75 923e 7da3 e13e ecf0 0a3f
000002a0: c719 0e3e 2aef db3b 6afb bb3e 08ee df3d
000002b0: 7947 19bf 8449 713e 168b f53e 48ff 96bf
000002c0: 411f 813e 0cd8 993e 0024 6b3e 560a 853e
000002d0: 73a3 b4be 6cdd 91bf cc0b 853e c8bf 27bf
000002e0: 6c20 553e 71af 04bf d98a a63e 4362 0dc0
000002f0: aaa7 44bf 6410 b9be d985 46bf 6c32 bb3e
00000300: b0d1 ac3c fae7 dabd b16f 22bd f6d7 17be
00000310: 817f 743d 3940 59bc 2502 0e3d 51ef 0ebd
00000320: 1087 54bd 0373 b8bd a3f6 d3bd e621 bb3d
00000330: d8b4 f83c da17 0cbe 28f5 97bc 4246 78bd
00000340: 243f 00bd 3220 e4bd b6e3 c73d 7682 f2bd
00000350: 18be 5bbc a89f 68bd 6612 91bd bab8 9ebc
00000360: e0a9 00bd f40f c1bd a6cb f1bd 6216 9b3d
00000370: 33bf a13d 7cac 43bd 8a51 5ebd e9a1 89bd
00000380: e2bf 01be 2b18 c53d 9377 6d3c e562 0ebb
00000390: 6419 6dbc a769 883d 8299 cdbc 4bff 0ebe
000003a0: bc19 53bd 72c8 86bd ea7a 9b3c 766e 0abe
000003b0: e12c 573d 6555 cbbd 688d aabd 48a3 dc3d
000003c0: 5054 813c 4d09 cebc 44f4 10bd ea7e 183d
000003d0: 9bea 53bd 4d22 f9bc 128d 6b3d 4009 c3bb
000003e0: 828a 03bc 04c2 e2bd 1443 3a3c a1eb 82bd
000003f0: 73ca 84bc 40ca 98bd bc84 b0bd 1c8c 0abd
-1.286975 1.17468 0.48329934 0.40411684 0.28828105 0.28967288 -0.7298198 0.22915465
-2.0644343 0.33017597 0.4412471 0.18116646 -0.33848685 0.42440057 -1.190697 -2.1760235
-1.9426414 0.12732649 -0.108090594 0.014475589 0.313851 0.011349052 -1.5242828 0.3966419
0.027797064 -1.8257416 0.4081236 0.33177727 0.3090074 -1.0207053 0.45387185 0.47234127
0.3093285 -0.29541484 -0.6352401 0.2774719 -0.14445622 0.14070104 0.37428626 0.4028875
-0.037193302 0.1464393 0.28920433 0.07161947 -0.6720461 0.21512271 0.38298965 -1.2442816
0.37730834 0.32210758 0.22663505 0.40801978 -0.39805612 -1.0906917 0.17828691 -0.8047823
0.24711342 -0.5268908 0.34169286 -2.2197785 -0.6153225 -0.43443644 -0.8813242 0.240582
-0.074071035 0.09545773 -0.05789205 -0.031923093 0.0077274777 -0.15638028 -0.06753786 -0.04359464
-0.09202869 -0.023263626 -0.08613066 -0.052201524 -0.024363138 0.006783936 0.048789173 -0.07644391
-0.052892894 0.040736027 0.053466693 -0.03449582 -0.090581894 -0.08570786 0.09868671 -0.12235339
0.02980484 -0.026415888 0.010448042 -0.06396459 -0.12184277 -0.11764878 -0.073411256 0.042711537
0.004522592 -0.04480587 -0.039306387 0.052268617 0.049344018 -0.085412905 0.05135685 -0.12363373
0.07151224 0.0058593303 -0.016948253 -0.09549089 -0.036779553 -0.043636907 0.08641216 0.102035314
0.027769357 -0.08090515 -0.024637774 0.027547099 0.052873194 7.261336e-05 -0.0075021344 0.03919311
-0.17192233 0.08499935 -0.047517423 -0.08632046 0.05446005 -0.023525719 0.00096935034 -0.05653058
-1.3812691 0.9318325 0.46740064 0.26168174 0.18628217 0.37634695 -0.72335225 0.14665611
-2.0041559 0.1517423 0.46796787 0.18682507 -0.36477932 0.42077976 -1.1096985 -2.154496
-1.6519256 -0.0013143399 -0.075341165 -0.014633009 0.41730258 -0.08421245 -1.5591202 0.34303862
0.054736532 -1.8075843 0.35138622 0.19336559 0.15538318 -0.9731088 0.29204 0.43331736
0.28459698 -0.08112372 -0.52528477 0.32498318 -0.062542096 0.286055 0.44070044 0.5427387
0.13877021 0.00671186 0.3671525 0.10934073 -0.59874684 0.235632 0.47957677 -1.1796656
0.25219157 0.30047643 0.22962952 0.25984448 -0.35280952 -1.1395698 0.25985563 -0.6552701
0.20813149 -0.518302 0.32527807 -2.2091224 -0.76818335 -0.36145318 -0.77547985 0.36561906
0.02109608 -0.10688777 -0.0396573 -0.14828476 0.05969191 -0.013259941 0.034670014 -0.0348962
-0.05188662 -0.09006312 -0.103497766 0.09137325 0.03035967 -0.13680974 -0.018549517 -0.060613878
-0.031310216 -0.11138953 0.09760229 -0.1184129 -0.013412021 -0.056792885 -0.07083587 -0.019375194
-0.031412005 -0.09426871 -0.11806421 0.075726286 0.078977965 -0.047771916 -0.05427698 -0.06720335
-0.12670854 0.0962375 0.014493841 -0.0021726426 -0.014471386 0.066607766 -0.025097612 -0.13964574
-0.051538214 -0.06581201 0.018979508 -0.135187 0.052533034 -0.09928397 -0.08327752 0.10773331
0.015787274 -0.02515092 -0.0353892 0.03723041 -0.05173741 -0.030411864 0.057507582 -0.0059520304
-0.008028628 -0.11072162 0.011368532 -0.06392599 -0.016209817 -0.07460451 -0.08619067 -0.033825025

fc2.bias f4 [64]
00000000: 6bc8 993e 0ea7 00be c64a a03e 5bfe efbc
00000010: 2f15 e73e cf56 aa3e c5b1 903e e632 d33e
00000020: 45ce 7dbc 1f89 873e 8c80 c73e bad1 03be
00000030: 1c45 56bc fe4b a53b 2f41 d23e 8874 753e
00000040: 7ae3 8e3e cbdf a93e 85ce ce3e 8ead a13e
00000050: c8d7 1fbe efdd e33e 0cbf 533f c70d d03e
00000060: 45b6 ae3e bf38 563f 2367 28bd 903a 94bd
00000070: 74a8 1bbd d951 df3e 4047 af3c 0bc9 d43e
00000080: 6896 9e3e ba69 b33e 270b c93e 90b0 73be
00000090: 18dd f6bc c48f cc3e 5c62 be3e 2d6d 9ebd
000000a0: 46d5 aebd 504e a33e c7e4 e43e 8af3 263e
000000b0: 9ab6 e63e 2006 ed3e ce3d e4bd 1124 dd3e
000000c0: d21f 173d 3ac0 b23e ea2e 8c3e 7245 b23e
000000d0: e8f2 b2bd 570c ef3e 3663 6ebd 411c c83e
000000e0: cdff 90bd 9037 d03c e14d 30bc 6011 da3e
000000f0: ed89 d83e e6b2 943d b1e5 debd 81c0 9a3c
0.3003572 -0.12563726 0.31307048 -0.02929609 0.4513335 0.33269355 0.28260627 0.4124977
-0.015491073 0.26471803 0.3896526 -0.12872973 -0.013078 0.0050444594 0.41065356 0.23970234
0.27907926 0.33178553 0.40391937 0.31577724 -0.15609658 0.4450526 0.8271339 0.4063551
0.34123436 0.8368034 -0.041113984 -0.072377324 -0.038002446 0.43617132 0.02139628 0.41559634
0.30974126 0.350416 0.3926632 -0.23797822 -0.030134723 0.39953434 0.37184417 -0.077356674
-0.085367724 0.31895685 0.44705793 0.1630384 0.4506119 0.46293736 -0.11144601 0.4319158
0.03689558 0.34912282 0.27379543 0.34818608 -0.08737737 0.46689102 -0.058200084 0.39084056
-0.0708004 0.02541712 -0.010760755 0.4259138 0.4229273 0.07260685 -0.10883654 0.018890621

fc3.weight f4 [2, 64]
00000000: 4d2f 9a3f 38c3 73bd fe57 a73f 0830 963c
00000010: 1e32 4b3f d295 a03f 473c b93f bc53 b13f
00000020: d788 b4be ec7b 7f3f 1cef 923f 1967 bc3d
00000030: 9ad8 2abd 82e0 293d 28bf 66bd 869e 923f
00000040: 1186 cb3f 37bd a53f f3ec a33f 36fc da3f
00000050: aa4e fb3d 5d90 bd3f 71cb e7bf 9f6e a03f
00000060: dc1c 9f3f c7bd e9bf e4a8 3abc 9679 3a3f
00000070: 2c69 35bd e62a 963f eccf 06bd 8de2 8d3f
00000080: fee8 963f 93d2 233f 6809 883f 1fb1 60bf
00000090: 7e2e 7b3c 8021 dc3f 71c6 873f a7e6 b9bc
000000a0: 04d0 94bd 50b6 c83f aa3f ae3d 3a67 30c0
000000b0: 6778 7f3f a98d 9a3f e475 7ebe c455 e83f
000000c0: 86da 963c 1409 e63f 34ed e43f aced f13f
000000d0: 8cbf debd c07c 113f 9a3c d7bb be4c 003f
000000e0: cb36 db3b 1c6c 8d3d ac38 c13c ed65 9d3f
000000f0: 99a7 b53f 9749 b43f dd33 75bc 3b47 b23b
00000100: c67b 823f 89d5 a63d 9fa7 6d3f ca8f febb
00000110: 298f 9b3f 95f2 653f cab5 963f b703 fdbf
00000120: e887 9a3f ca11 a13f e0bc 653f 81f8 d6bd
00000130: 9be6 aebd 8ee0 a8bd 9824 0040 a155 973f
00000140: f38e 7f3f 70fe 873f a2e9 6d3f 1d7b 863f
00000150: 6566 c9bd c8ac 813f ac23 263f 21de 753f
00000160: 7f16 4d3f f2ce d73e 8e28 8cbd 2c5b 6fc0
00000170: 6337 98bd ab09 513f ab71 2abd 5f31 9b3f
00000180: b4bd bf3f e846 e53f 1e2c 743f e311 22c0
00000190: 7165 cabd b911 723f 1430 523f 8ef6 d3bd
000001a0: 32fc a73d f756 9a3f ef37 12c0 7f2a 8640
000001b0: 2252 683f eb58 b43f a19b 9f3f 5663 4e3f
000001c0: c4be 6dbd 6214 3f3f f659 8d3e a43c 203f
000001d0: f80b ba3c 62f7 bb3f 3776 d7bc f043 db3f
000001e0: 9f68 c0bc 78b8 a0bc 4ff3 5fbd 5b0a 9e3f
000001f0: 1ede 943f d0e1 38bf 2489 a6bd 7ceb aebd
1.2045685 -0.059512347 1.3073728 0.01833345 0.7937335 1.2545722 1.447152 1.3853679
-0.3526065 0.99798465 1.147922 0.09199352 -0.041710474 0.041473873 -0.056334645 1.1454628
1.5900289 1.2948369 1.2806686 1.7108219 0.12270863 1.4809681 -1.810896 1.2533759
1.2430682 -1.826104 -0.011392806 0.72841775 -0.044289753 1.1731842 -0.032913134 1.1084763
1.1789854 0.63993186 1.062787 -0.87770265 0.015330909 1.7197723 1.0607435 -0.022692991
-0.07266238 1.5680637 0.08508237 -2.7563004 0.99793094 1.2074481 -0.24849659 1.8151174
0.018414747 1.797152 1.7884889 1.8900657 -0.108763784 0.5683098 -0.0065685036 0.501171
0.0066898814 0.06905386 0.023586594 1.229673 1.4191772 1.4084958 -0.014965978 0.0054406202
1.0194023 0.08146197 0.92833894 -0.007768606 1.2153064 0.89823276 1.1774228 -1.9766759
1.2072725 1.2583554 0.89741325 -0.10496617 -0.08540078 -0.082459554 2.0022335 1.1823007
0.998275 1.0624523 0.9293462 1.0506321 -0.09833983 1.0130854 0.6489818 0.96042067
0.8011245 0.42150074 -0.06843673 -3.7399397 -0.07432439 0.8165538 -0.04161231 1.2124442
1.4979768 1.7912264 0.9537982 -2.5323417 -0.0988263 0.9455829 0.8210461 -0.10349761
0.08202399 1.205779 -2.284664 4.1926875 0.90750325 1.4089636 1.2469369 0.80620325
-0.058043256 0.74640477 0.27607697 0.6259253 0.022710785 1.468487 -0.026301486 1.7130108
-0.023487387 -0.019619212 -0.054675397 1.234691 1.1630285 -0.7221956 -0.08131626 -0.08541009

fc3.bias f4 [2]
00000000: a9fa aa3e 9fad ce3e
0.33394364 0.40366837
