DQN-Frozenlake-Gymnasium-master/4x4/final_weights_2500.pth (torch, 4505 bytes, 6 tensors)

FC.0.weight f4 [12, 16]
0	0xbdc37e68	-0.095455945
1	0xbe6e8652	-0.23293427
2	0x3ecda334	0.40163577
3	0xbe681052	-0.22662476
4	0xbd2d7e3b	-0.04235671
5	0xbc833ba0	-0.016019642
6	0xbecc49d8	-0.39900088
7	0xbdc567d8	-0.09638947
8	0x3ebf32ab	0.37343344
9	0xbef9f57f	-0.4882011
10	0x3e63a6e0	0.22231627
11	0x3e912fa4	0.2835666
12	0xbc249700	-0.010045767
13	0xbd564c2a	-0.05231873
14	0xbe8940d0	-0.2680726
15	0x3f128eb9	0.5724903
16	0x3e1d0d7c	0.15337175
17	0x3e9eee73	0.31041297
18	0x3f18f54e	0.59749305
19	0xbd0899b0	-0.033349693
20	0x3d4f1ed0	0.050566494
21	0x3d6b2b00	0.057414055
22	0x3f291acf	0.6605653
23	0x3d5c37c0	0.053764105
24	0x3e9982bf	0.29982564
25	0xbe4e8766	-0.20168838
26	0xbe30b344	-0.17255884
27	0x3f0ac99f	0.542139
28	0x3e0fc44c	0.14039725
29	0x3f13ec29	0.57782227
30	0xbef549b0	-0.47907782
31	0x3eda7552	0.42667633
32	0xbecbc702	-0.39800268
33	0x3e217e77	0.15770899
34	0x3ed15b3e	0.40889925
35	0x3e822f9b	0.25426945
36	0xbf166816	-0.5875257
37	0xbe489080	-0.19586372
38	0x3e07f19d	0.13275762
39	0x3e59ff70	0.21288848
40	0x3ea3de41	0.32005504
41	0xbe78b7e8	-0.24288905
42	0xbf0cadef	-0.549529
43	0xbf081d15	-0.53169376
44	0xbb8e3080	-0.0043392777
45	0xbef1757a	-0.4715994
46	0xbe361c48	-0.17784226
47	0x3e983b4e	0.29732746
48	0xbe41766e	-0.18892834
49	0xbe13b3e5	-0.14424093
50	0xbe8f3569	-0.27970436
51	0xbf011a4e	-0.5043076
52	0xbec635eb	-0.3871301
53	0xbe8130b5	-0.25232473
54	0x3f218a41	0.63101584
55	0x3ee7f60a	0.453049
56	0x3e149ee6	0.1451374
57	0xbf05cb08	-0.52262926
58	0xbf0c0b15	-0.5470441
59	0x3e1d1bd8	0.15342653
60	0x3dae47a8	0.08509761
61	0x3f044f55	0.5168355
62	0x3f2837b7	0.65710014
63	0x3f1cacdf	0.6120128
64	0xbecc08a4	-0.39850342
65	0x3eb911ae	0.361463
66	0xbe83021f	-0.25587556
67	0x3e2c8cf4	0.16850644
68	0xbf150d8a	-0.58223784
69	0xbf0237d6	-0.5086645
70	0x3ea35bef	0.31906077
71	0x3d3a7050	0.045517266
72	0xbee48a62	-0.44636828
73	0x3ee8f9c7	0.45503065
74	0xbf02789d	-0.5096529
75	0xbc0b02c0	-0.008484542
76	0x3ddc3cb0	0.10753763
77	0x3eae9e4d	0.3410515
78	0xbeaa49ca	-0.33259422
79	0x3d35ff30	0.04443282
80	0xbe846315	-0.25856844
81	0xbf10c393	-0.5654842
82	0xbe96f21c	-0.2948159
83	0xbddaf800	-0.106918335
84	0x3e2604d4	0.1621278
85	0xbe8f202b	-0.2795423
86	0xbf03a66f	-0.5142583
87	0x3cdcf8a0	0.026974022
88	0x3f19100f	0.5979013
89	0x3ee2a17a	0.44263822
90	0x3e1f3702	0.15548328
91	0xbd41aa00	-0.047281265
92	0xbe7404ec	-0.23830003
93	0x3f3048ab	0.6886088
94	0x3e294e5a	0.16533795
95	0x3f1407f3	0.5782463
96	0x3d781ff0	0.060577333
97	0xbe12df98	-0.14343107
98	0xbf025aa1	-0.5091954
99	0x3ef1a677	0.47197315
100	0x3e51ffac	0.20507687
101	0x3e240c40	0.16020298
102	0xbd87f8b8	-0.06639236
103	0xbebcc153	-0.36866245
104	0x3f6a7ac0	0.9159355
105	0x3e51c4e3	0.20485263
106	0xbde1b468	-0.11020738
107	0xbe278acc	-0.1636154
108	0x3eb3d5f6	0.35124177
109	0xbef92736	-0.48662728
110	0x3e540d13	0.20708112
111	0xbef0defa	-0.47045118
112	0x3d3c798a	0.046014346
113	0xbe3764f3	-0.17909603
114	0xbeafe9ae	-0.3435797
115	0xbde7232c	-0.112860054
116	0xbef83a61	-0.4848204
117	0xbf0ed5aa	-0.55794775
118	0xbf0a028c	-0.53910136
119	0x3d944698	0.07240027
120	0xbe953465	-0.29141536
121	0xbed00ba2	-0.40633875
122	0xbeda29ce	-0.4261002
123	0x3a286c00	0.00064247847
124	0xbe10b4ea	-0.14131513
125	0xbf066e60	-0.5251217
126	0xbeac6f32	-0.33678585
127	0xbe95ee72	-0.29283482
128	0xbd57e930	-0.05271262
129	0x3f3dca80	0.74137115
130	0xbe04d5a2	-0.1297212
131	0x3ef2b980	0.4740715
132	0x3e84c2bb	0.25929818
133	0xbe19ee48	-0.15032303
134	0x3e24c49c	0.16090626
135	0xbebf31ba	-0.37342626
136	0xbe768068	-0.2407242
137	0xbebb8da0	-0.3663149
138	0x3e325314	0.17414504
139	0xbebec21c	-0.3725747
140	0xbea27832	-0.31732327
141	0xbd08c960	-0.03339517
142	0x3f241d02	0.6410676
143	0xbef26cd7	-0.47348663
144	0xbe8219c3	-0.2541028
145	0xbe8fe20d	-0.2810215
146	0xbe2596f9	-0.16170873
147	0xbde3d8d5	-0.11125342
148	0xbeb6660a	-0.35624725
149	0xbef12cca	-0.47104484
150	0x3e769732	0.24081114
151	0xbe66f2ba	-0.2255353
152	0xbe71552a	-0.23567644
153	0x3ee50088	0.44726968
154	0x3e7a32ba	0.24433413
155	0x3eea78da	0.45795327
156	0xbee09a26	-0.43867606
157	0xbed3b1b3	-0.4134651
158	0xbe40aa10	-0.18814874
159	0xbf0fdc0d	-0.56195146
160	0x3e6d0a8d	0.23148556
161	0x3e71bc5c	0.2360701
162	0x3c9c24e8	0.019060567
163	0x3eb034d3	0.34415302
164	0xbe4002a9	-0.18751015
165	0xbe3b0838	-0.18264854
166	0x3f0809e6	0.53140104
167	0xbebd6f9a	-0.36999208
168	0x3e72864a	0.2368404
169	0xbce3698f	-0.027760295
170	0xbe45b379	-0.19306745
171	0xbeba1043	-0.36340532
172	0x3eb23952	0.34809357
173	0x3da5be5b	0.08092948
174	0xbe637162	-0.22211221
175	0x3ed57e46	0.416979
176	0xbec4e1d5	-0.38453546
177	0x3f231c0a	0.6371466
178	0x3f029018	0.5100112
179	0x3ec016cd	0.37517396
180	0x3f0f6028	0.560061
181	0x3f0a944d	0.5413254
182	0xbf1b5b8b	-0.6068656
183	0xbe51cff0	-0.20489478
184	0x3ec99a95	0.3937575
185	0xbf13ae2f	-0.5768766
186	0xbd83aaa8	-0.064290345
187	0xbef2ef9c	-0.47448432
188	0xbe0e6020	-0.13903856
189	0x3cebd6e9	0.028789
190	0xbeb50142	-0.35352522
191	0xbed7fccb	-0.42185053

FC.0.bias f4 [12]
0	0x3d09d573	0.033650827
1	0xbe32795f	-0.17429112
2	0x3e0b759d	0.13619085
3	0x3e279485	0.1636525
4	0x3ec69ceb	0.38791594
5	0xbe30e107	-0.17273341
6	0xbe6b4ef1	-0.22979333
7	0x3e90e312	0.2829824
8	0xbe87e26c	-0.26539934
9	0x3e17a2fa	0.14808264
10	0x3e05843a	0.13038722
11	0xbd3d610a	-0.04623512

FC.2.weight f4 [8, 12]
0	0xbf736896	-0.9508146
1	0x3e82a32d	0.25515118
2	0xbe1917db	-0.14950506
3	0x3f3a1cac	0.727
4	0x3cefc2d3	0.029267704
5	0x3e93d8bf	0.28876302
6	0x3e678312	0.22608593
7	0x3f22d155	0.63600665
8	0xbf49b611	-0.78793436
9	0xbea183c0	-0.3154583
10	0x3ed705fd	0.41996756
11	0xbf48bc2e	-0.7841214
12	0x3e8928cd	0.2678894
13	0xbf83876d	-1.0275704
14	0xbf2e3e89	-0.6806417
15	0x3f75310a	0.9577795
16	0x3eb90c0a	0.36141998
17	0x3db90b0a	0.09035309
18	0xbedc4305	-0.43019882
19	0xbf187384	-0.5955126
20	0x3ebc7ee2	0.36815554
21	0x3f396e58	0.72433996
22	0x3ed09a39	0.40742663
23	0xbeb62a80	-0.355793
24	0xbf1ca0ca	-0.61182845
25	0xbe0f30b8	-0.13983428
26	0x3f0a7ac9	0.54093605
27	0xbd0f4913	-0.0349818
28	0xbf323c6f	-0.69623464
29	0x3f075398	0.5286193
30	0x3d86de00	0.06585312
31	0xbe7004f9	-0.23439397
32	0xbee89b7c	-0.45431125
33	0xbf0fd371	-0.5618201
34	0x3e76f893	0.24118261
35	0xbe5eef85	-0.21771057
36	0x3d95b5c7	0.07310062
37	0x3f1a1444	0.6018717
38	0xbecd8f1a	-0.4014824
39	0x3edbbc0e	0.42916912
40	0x3f1a1688	0.6019063
41	0xbef7fb18	-0.48433757
42	0xbeff8fba	-0.49914342
43	0xbcc18171	-0.023621293
44	0xbeb5aecf	-0.3548493
45	0x3ed07799	0.40716246
46	0x3f182864	0.5943663
47	0xbe54926b	-0.20758979
48	0xbe90e7bc	-0.283018
49	0x3ef23edd	0.47313586
50	0x3ee84cb3	0.45371017
51	0xbe7a6e39	-0.24456109
52	0xbf45f7f0	-0.7733145
53	0x3dd56849	0.104202814
54	0xbee742c8	-0.45168138
55	0xbe6dad3d	-0.23210616
56	0x3f0ddfb7	0.55419487
57	0xbf56187b	-0.83631104
58	0x3f0a4f3f	0.5402717
59	0xbf32ae29	-0.69797
60	0x3f40ecc4	0.75361276
61	0xbe8f6104	-0.28003705
62	0x3edc5016	0.4302985
63	0xbeba1bf2	-0.36349446
64	0xbf040d29	-0.5158258
65	0xbdc72a76	-0.09724896
66	0xbf3c661d	-0.7359331
67	0x3f5bd328	0.85869074
68	0xbe957367	-0.29189608
69	0x3d7acf47	0.06123283
70	0xbe3dce11	-0.1853564
71	0x3f35f124	0.71071076
72	0x3e24fe5c	0.16112655
73	0xbe0e9b24	-0.13926369
74	0x3e834229	0.25636414
75	0x3f2d4c2c	0.67694354
76	0xbe888c97	-0.26669762
77	0xbf3dd0b1	-0.7414656
78	0xbf384460	-0.7197933
79	0xbf284802	-0.65734875
80	0xbec16b4a	-0.37777168
81	0x3f0567ca	0.52111495
82	0x3f161934	0.58632207
83	0xbf1208b9	-0.5704456
84	0x3e9b9e08	0.30394006
85	0x3d83b5da	0.0643117
86	0x3eedf060	0.46472454
87	0x3d44298c	0.047891185
88	0x3f39adc2	0.7253076
89	0x3f12afdc	0.5729959
90	0x3e30bae6	0.17258796
91	0xbe9dd58b	-0.30826983
92	0x3f10e074	0.5659249
93	0xbf1bfe87	-0.6093525
94	0xbdb0f490	-0.086403966
95	0xbe28383b	-0.164277

FC.2.bias f4 [8]
0	0x3ce7831b	0.028260758
1	0x3ce54cba	0.027990688
2	0xbe92cde3	-0.28672704
3	0xbe5f1889	-0.21786703
4	0x3eab8ca2	0.33505732
5	0x3ec35ac9	0.381552
6	0x3cdb8734	0.026797868
7	0x3da18bca	0.07887991

FC.4.weight f4 [4, 8]
0	0xbf343e9e	-0.70408046
1	0x3dc73799	0.09727401
2	0xbee244a4	-0.44192994
3	0xbeaa2f0b	-0.33239016
4	0x3ed5bfe9	0.41747978
5	0xbe738484	-0.2378102
6	0x3e072508	0.1319772
7	0xbde3f175	-0.11130039
8	0x3ef6432a	0.48098117
9	0x3fa9de68	1.3270998
10	0x3f48483e	0.7823523
11	0x3d9ef628	0.07761794
12	0xbe127594	-0.14302665
13	0x3f88dc61	1.0692254
14	0xbf19ed82	-0.60128033
15	0xbeeda61e	-0.464158
16	0xbe565630	-0.20931315
17	0x3e9ca6bd	0.3059596
18	0xbd2f8485	-0.04285099
19	0xbdac6c0b	-0.08419045
20	0x3fcc27fb	1.5949701
21	0xbee6ebf5	-0.45101896
22	0xbf2cd7f5	-0.67517024
23	0x3f2a27a9	0.66466767
24	0x3f65a36d	0.8970249
25	0xbd46ccce	-0.04853516
26	0xbe83076d	-0.25591603
27	0xbf86ce8d	-1.0531784
28	0xbf2e94b9	-0.6819568
29	0x3ecca390	0.39968538
30	0x3f5b5650	0.8567858
31	0x3ec03598	0.3754089

FC.4.bias f4 [4]
0	0x3f5fad08	0.873734
1	0xbd4edaac	-0.05050151
2	0x3eacafbd	0.33727828
3	0x3eb1ef43	0.34752855
