DQN-Frozenlake-Gymnasium-master/4x4/final_weights_3000.pth (torch, 4505 bytes, 6 tensors)

FC.0.weight f4 [12, 16]
00000000: 687e c3bd 5286 6ebe 437b cd3e 5210 68be
00000010: 3b7e 2dbd a03b 83bc d849 ccbe d867 c5bd
00000020: 87a8 be3e 7ff5 f9be 7f4b 633e a42f 913e
00000030: 0097 24bc 2a4c 56bd d040 89be b98e 123f
00000040: 7c0d 1d3e 72f8 9e3e 859d 183f b099 08bd
00000050: d01e 4f3d 002b 6b3d fb0c 293f c037 5c3d
00000060: c38a 993e 6687 4ebe 44b3 30be 9fc9 0a3f
00000070: 4cc4 0f3e 118b 133f b049 f5be 5275 da3e
00000080: 02c7 cbbe 2bbd 1e3e b7f0 d13e e5ba 893e
00000090: 1668 16bf 8090 48be 3767 073e 70ff 593e
000000a0: 6799 a33e e8b7 78be efad 0cbf 151d 08bf
000000b0: 8030 8ebb 7a75 f1be 481c 36be 4e3b 983e
000000c0: 6e76 41be f088 13be 6935 8fbe 4e1a 01bf
000000d0: eb35 c6be b530 81be 3545 213f 0af6 e73e
000000e0: 18b6 123e 08cb 05bf 150b 0cbf d81b 1d3e
000000f0: a847 ae3d 9b8f 043f 0de9 273f dfac 1c3f
00000100: a408 ccbe dcc9 b83e 5c4b 83be 6813 313e
00000110: 8a0d 15bf d637 02bf 1306 a13e 5070 3a3d
00000120: 628a e4be d324 ea3e 9d78 02bf c002 0bbc
00000130: b03c dc3d cb20 af3e cbb3 aabe 30ff 353d
00000140: 1563 84be 93c3 10bf 1cf2 96be 00f8 dabd
00000150: d404 263e 2b20 8fbe 6fa6 03bf a0f8 dc3c
00000160: bbd7 183f 9ad3 e13e 0237 1f3e 00aa 41bd
00000170: ec04 74be c143 313f 5a4e 293e f307 143f
00000180: f01f 783d 98df 12be a15a 02bf 5b3a f73e
00000190: acff 513e 400c 243e b8f8 87bd 53c1 bcbe
000001a0: a13c 6a3f e3c4 513e 68b4 e1bd cc8a 27be
000001b0: f6d5 b33e 3627 f9be 130d 543e fade f0be
000001c0: cc0d 3c3d 3b69 39be aee9 afbe a935 e9bd
000001d0: 613a f8be aad5 0ebf 8c02 0abf 9846 943d
000001e0: 6534 95be a20b d0be ce29 dabe 006c 283a
000001f0: eab4 10be 606e 06bf 326f acbe 72ee 95be
00000200: 30e9 57bd 79a9 3d3f a2d5 04be 79ea f33e
00000210: bbc2 843e 48ee 19be 9cc4 243e ba31 bfbe
00000220: 6880 76be a08d bbbe 1453 323e 1cc2 bebe
00000230: 3278 a2be 60c9 08bd 890c 243f d76c f2be
00000240: c319 82be 0de2 8fbe f996 25be 5728 e8bd
00000250: 0a66 b6be ca2c f1be 84aa 763e baf2 66be
00000260: 2a55 71be 61aa e43e 49ea 793e da78 ea3e
00000270: 269a e0be b3b1 d3be 10aa 40be 0ddc 0fbf
00000280: f4cb 6b3e 5827 703e 37aa 9e3c fd24 af3e
00000290: a902 40be 3808 3bbe 2299 073f 9a6f bdbe
000002a0: 4a53 723e 2888 d8bc 79b3 45be 4310 babe
000002b0: 5239 b23e 3aeb a03d 6271 63be 467e d53e
000002c0: d5e1 c4be 7c7a 223f 4688 023f 187b c03e
000002d0: cd18 103f 4d94 0a3f 8b5b 1bbf f0cf 51be
000002e0: d253 c93e 2fae 13bf a8aa 83bd 9cef f2be
000002f0: 2060 0ebe e9d6 eb3c 4201 b5be cbfc d7be
-0.095455945 -0.23293427 0.40133104 -0.22662476 -0.04235671 -0.016019642 -0.39900088 -0.09638947
0.3723795 -0.4882011 0.22196768 0.2835666 -0.010045767 -0.05231873 -0.2680726 0.5724903
0.15337175 0.31048924 0.59615356 -0.033349693 0.050566494 0.057414055 0.6603543 0.053764105
0.2998868 -0.20168838 -0.17255884 0.542139 0.14039725 0.57634073 -0.47907782 0.42667633
-0.39800268 0.1550185 0.41003963 0.26900402 -0.5875257 -0.19586372 0.13222967 0.21288848
0.31952974 -0.24288905 -0.549529 -0.53169376 -0.0043392777 -0.4715994 -0.17784226 0.29732746
-0.18892834 -0.14407706 -0.27970436 -0.5043076 -0.3871301 -0.25232473 0.62996227 0.453049
0.14327276 -0.52262926 -0.5470441 0.15342653 0.08509761 0.51781625 0.6558998 0.6120128
-0.39850342 0.36091506 -0.25643432 0.17292559 -0.58223784 -0.5086645 0.31449947 0.045517266
-0.44636828 0.4573122 -0.5096529 -0.008484542 0.10753763 0.34204707 -0.33340296 0.04443282
-0.25856844 -0.5654842 -0.2948159 -0.106918335 0.1621278 -0.2795423 -0.5142583 0.026974022
0.5970418 0.44106752 0.15548328 -0.047281265 -0.23830003 0.6924401 0.16533795 0.5782463
0.060577333 -0.14343107 -0.5091954 0.4828671 0.20507687 0.16020298 -0.06639236 -0.36866245
0.9149876 0.20485263 -0.11020738 -0.1636154 0.35124177 -0.48662728 0.20708112 -0.47045118
0.045911595 -0.18106548 -0.3435797 -0.11387188 -0.4848204 -0.55794775 -0.53910136 0.07240027
-0.29141536 -0.40633875 -0.4261002 0.00064247847 -0.14131513 -0.5251217 -0.33678585 -0.29283482
-0.05271262 0.7408672 -0.1297212 0.47639826 0.25929818 -0.15032303 0.16090626 -0.37342626
-0.2407242 -0.3663149 0.17414504 -0.3725747 -0.31732327 -0.03339517 0.6408163 -0.47348663
-0.2541028 -0.2810215 -0.16170873 -0.11335819 -0.35624725 -0.47104484 0.24088484 -0.2255353
-0.23567644 0.4466124 0.24405779 0.45795327 -0.43867606 -0.4134651 -0.18814874 -0.56195146
0.2302702 0.23452508 0.019368274 0.34207907 -0.18751015 -0.18264854 0.5296804 -0.36999208
0.23664585 -0.026432112 -0.19306745 -0.36340532 0.34809357 0.07857366 -0.22211221 0.416979
-0.38453546 0.63468146 0.50989187 0.37593913 0.56287843 0.5413254 -0.6068656 -0.20489478
0.39321762 -0.5768766 -0.064290345 -0.47448432 -0.13903856 0.028789 -0.35352522 -0.42185053

FC.0.bias f4 [12]
00000000: 9bf8 073d 4b95 33be b7b2 0a3e d035 263e
00000010: 10d3 c53e 4064 30be ed76 6bbe b05a 903e
00000020: a60e 88be 3c2f 173e 5183 033e 9d41 3fbd
0.033196073 -0.1753742 0.13544737 0.16231465 0.3863759 -0.17225742 -0.22994585 0.2819419
-0.26573676 0.14764112 0.12843062 -0.046693433

FC.2.weight f4 [8, 12]
00000000: d632 75bf c547 833e 9085 1abe 45f8 393f
00000010: 42f8 fb3c c826 953e de51 603e e0de 223f
00000020: f784 49bf 9dd7 a1be eb74 d73e 7188 4abf
00000030: db32 883e 6d70 83bf 9af6 2dbf d222 753f
00000040: 597f b83e af8a b73d 0543 dcbe 717d 17bf
00000050: 6b98 bc3e 5607 393f dadd cf3e cff4 b5be
00000060: caa0 1cbf b830 0fbe c97a 0a3f 1349 0fbd
00000070: 6f3c 32bf 9853 073f 00de 863d f904 70be
00000080: 7c9b e8be 71d3 0fbf 93f8 763e 85ef 5ebe
00000090: c7b5 953d fd56 193f cea3 cdbe f6b8 da3e
000000a0: ebd9 193f 6c22 f8be 3004 00bf 56b4 e5bc
000000b0: cc9d b6be ccc7 d13e 54b8 173f 1f49 57be
000000c0: 6b1e 90be 3ab3 f13e a631 e83e 40cc 79be
000000d0: bfbb 44bf c431 d43d 69dc e6be f5ec 6cbe
000000e0: 847c 0d3f 47fd 53bf 3bd9 093f 0d37 32bf
000000f0: 1747 403f 9b98 8ebe ce03 dc3e a5d3 babe
00000100: cad3 03bf 54e4 c8bd 7af0 3cbf 8f45 5b3f
00000110: 06ee 95be d2e1 753d fb89 3bbe 6f5e 353f
00000120: a54d 273e f544 0ebe c6f5 823e 2020 2d3f
00000130: 3140 88be b1d0 3dbf 6044 38bf 512c 28bf
00000140: e15b c1be 39d6 053f 3633 163f b908 12bf
00000150: e5a2 9c3e 9b3a 823d c8cc ed3e ca0a 423d
00000160: 59a7 393f f0d5 123f b1da 313e 41fc 99be
00000170: 3153 103f 0be8 1bbf 1e3e b2bd 5029 26be
-0.95780694 0.25640693 -0.15090013 0.72644454 0.030758027 0.2913115 0.2190623 0.6362133
-0.78718513 -0.31609812 0.4208139 -0.79114443 0.266013 -1.0268685 -0.6795441 0.95756257
0.3603466 0.08961999 -0.43019882 -0.59175783 0.36835036 0.7227682 0.40598947 -0.35538337
-0.61182845 -0.13983428 0.54093605 -0.0349818 -0.69623464 0.5286193 0.06585312 -0.23439397
-0.45431125 -0.5618201 0.24118261 -0.21771057 0.07310062 0.5989836 -0.40164036 0.4271924
0.6009814 -0.48463762 -0.5000639 -0.028040092 -0.35667264 0.40972745 0.5926564 -0.21023987
-0.28148207 0.47207052 0.4535038 -0.24394321 -0.7684898 0.103610545 -0.45090035 -0.23137267
0.5526812 -0.82808346 0.5384709 -0.6961525 0.75108474 -0.27850804 0.42971653 -0.36489597
-0.5149504 -0.09809175 -0.7380444 0.85653013 -0.2928316 0.060029812 -0.18314354 0.7084722
0.16338213 -0.13893493 0.25578135 0.67627144 -0.26611474 -0.7414656 -0.7197933 -0.6569262
-0.3776541 0.5228 0.5867189 -0.5704456 0.3059303 0.06358834 0.46445298 0.04737357
0.7252098 0.5735769 0.1736858 -0.30075267 0.5637694 -0.60900944 -0.08703254 -0.16226697

FC.2.bias f4 [8]
00000000: 68dc f13c 6d95 ea3c e3cd 92be ad3b 60be
00000010: cab6 ab3e 9519 c43e 2ea9 d03c 4edb a23d
0.029524043 0.028635705 -0.28672704 -0.21897765 0.33537894 0.38300768 0.025471296 0.07951985

FC.4.weight f4 [4, 8]
00000000: ad43 35bf 1b44 c83d a444 e2be d1f6 aabe
00000010: 6a15 d23e 1507 77be fb4c 063e 4b43 e7bd
00000020: 38dc f53e 6a87 a93f 3e48 483f b607 9d3d
00000030: 2879 0ebe 0087 883f 2d88 19bf dbcd ecbe
00000040: 293d 54be 4038 9c3e 8584 2fbd b9e0 aabd
00000050: c97f cb3f 7684 e6be a7f2 2cbf 93e3 293f
00000060: 32ec 653f 3c56 46bd 6d07 83be e689 86bf
00000070: 289a 2cbf 125d cc3e 0b72 5b3f 4ced c03e
-0.7080639 0.09778615 -0.44192994 -0.3339143 0.41031963 -0.24123795 0.13115303 -0.11292132
0.48019576 1.324445 0.7823523 0.07667486 -0.13913405 1.0666199 -0.5997341 -0.46250805
-0.20726456 0.30511665 -0.04285099 -0.08343644 1.5898372 -0.45022935 -0.6755776 0.66362876
0.8981353 -0.048422083 -0.25591603 -1.0510833 -0.67422724 0.39914757 0.8572089 0.37681043

FC.4.bias f4 [4]
00000000: 6735 603f e728 4abd 897e ac3e 82cf b23e
0.87581486 -0.049355414 0.3369029 0.3492394
