DQN-Frozenlake-Gymnasium-master/4x4/final_weights_500.pth (torch, 4429 bytes, 6 tensors)

FC.0.weight f4 [12, 16]
0	0xbdc37e68	-0.095455945
1	0xbe6e8652	-0.23293427
2	0x3ec2950f	0.38004348
3	0xbe681052	-0.22662476
4	0xbcf830e4	-0.03029675
5	0xbc833ba0	-0.016019642
6	0xbecc49d8	-0.39900088
7	0xbdc567d8	-0.09638947
8	0x3e925057	0.2857692
9	0xbef9f57f	-0.4882011
10	0x3e87e3e2	0.26541048
11	0x3e912fa4	0.2835666
12	0xbc249700	-0.010045767
13	0xbd0a9190	-0.033830225
14	0xbe8940d0	-0.2680726
15	0x3f128eb9	0.5724903
16	0x3e407388	0.18794072
17	0x3ea506a0	0.32231617
18	0x3f1c9530	0.6116514
19	0xbd0899b0	-0.033349693
20	0x3d4f1ed0	0.050566494
21	0x3d6b2b00	0.057414055
22	0x3f0bf581	0.54671484
23	0x3d5c37c0	0.053764105
24	0x3ea39800	0.31951904
25	0xbe4e8766	-0.20168838
26	0xbe30b344	-0.17255884
27	0x3f0ac99f	0.542139
28	0x3e0fc44c	0.14039725
29	0x3ee9179d	0.45525828
30	0xbef549b0	-0.47907782
31	0x3eda7552	0.42667633
32	0xbecbc702	-0.39800268
33	0x3daba651	0.08381332
34	0x3ecd6107	0.40113088
35	0x3e850d54	0.2598673
36	0xbf166816	-0.5875257
37	0xbe489080	-0.19586372
38	0x3e3d715c	0.18500274
39	0x3e59ff70	0.21288848
40	0x3e8bafcb	0.27282557
41	0xbe78b7e8	-0.24288905
42	0xbf0cadef	-0.549529
43	0xbf081d15	-0.53169376
44	0xbb8e3080	-0.0043392777
45	0xbef1757a	-0.4715994
46	0xbe361c48	-0.17784226
47	0x3e983b4e	0.29732746
48	0xbe41766e	-0.18892834
49	0xbe03f52f	-0.12886499
50	0xbe8f3569	-0.27970436
51	0xbf011a4e	-0.5043076
52	0xbec635eb	-0.3871301
53	0xbe8130b5	-0.25232473
54	0x3f1ac3a0	0.6045475
55	0x3ee7f60a	0.453049
56	0x3e357ddd	0.17723794
57	0xbf05cb08	-0.52262926
58	0xbf0c0b15	-0.5470441
59	0x3e1d1bd8	0.15342653
60	0x3dae47a8	0.08509761
61	0x3edffcc6	0.43747538
62	0x3f2cbf28	0.6747918
63	0x3f1cacdf	0.6120128
64	0xbebebacf	-0.372519
65	0x3ea48b90	0.32137728
66	0xbe8c8891	-0.27447942
67	0x3e52dd81	0.2059231
68	0xbf150d8a	-0.58223784
69	0xbf0237d6	-0.5086645
70	0x3e9ffc22	0.3124705
71	0x3d3a7050	0.045517266
72	0xbee48a62	-0.44636828
73	0x3ecc8ce6	0.39951247
74	0xbf02789d	-0.5096529
75	0xbc0b02c0	-0.008484542
76	0x3ddc3cb0	0.10753763
77	0x3e6c0fc1	0.23052885
78	0xbe631309	-0.2217523
79	0x3d35ff30	0.04443282
80	0xbe846315	-0.25856844
81	0xbf10c393	-0.5654842
82	0xbe96f21c	-0.2948159
83	0xbddaf800	-0.106918335
84	0x3e3db379	0.18525495
85	0xbe8f202b	-0.2795423
86	0xbf03a66f	-0.5142583
87	0x3cdcf8a0	0.026974022
88	0x3f053b04	0.52043176
89	0x3edcfde3	0.4316245
90	0x3e331859	0.17489757
91	0xbd41aa00	-0.047281265
92	0xbe7404ec	-0.23830003
93	0x3f156e3b	0.58371323
94	0x3e9a6f2e	0.30162948
95	0x3f1407f3	0.5782463
96	0x3d781ff0	0.060577333
97	0xbe12df98	-0.14343107
98	0xbf025aa1	-0.5091954
99	0x3ebae1f4	0.36500514
100	0x3e643e95	0.22289498
101	0x3e240c40	0.16020298
102	0xbd87f8b8	-0.06639236
103	0xbebcc153	-0.36866245
104	0x3f651b1d	0.89494497
105	0x3e5d1342	0.21589378
106	0xbde1b468	-0.11020738
107	0xbe278acc	-0.1636154
108	0x3eb3d5f6	0.35124177
109	0xbef92736	-0.48662728
110	0x3e60faef	0.21970724
111	0xbef0defa	-0.47045118
112	0x3d42370f	0.04741579
113	0xbe674314	-0.22584182
114	0xbeafe9ae	-0.3435797
115	0xbdadc57e	-0.08484934
116	0xbef83a61	-0.4848204
117	0xbf0ed5aa	-0.55794775
118	0xbf0a028c	-0.53910136
119	0x3d944698	0.07240027
120	0xbe936488	-0.28787637
121	0xbed00ba2	-0.40633875
122	0xbeda29ce	-0.4261002
123	0x3a286c00	0.00064247847
124	0xbe10b4ea	-0.14131513
125	0xbf066e60	-0.5251217
126	0xbeac6f32	-0.33678585
127	0xbe95ee72	-0.29283482
128	0xbd57e930	-0.05271262
129	0x3f3f214a	0.7466017
130	0xbe04d5a2	-0.1297212
131	0x3eee39fe	0.4652862
132	0x3e8dd0be	0.2769832
133	0xbe19ee48	-0.15032303
134	0x3e24c49c	0.16090626
135	0xbebf31ba	-0.37342626
136	0xbe768068	-0.2407242
137	0xbebb8da0	-0.3663149
138	0x3e325314	0.17414504
139	0xbebec21c	-0.3725747
140	0xbea27832	-0.31732327
141	0xbd08c960	-0.03339517
142	0x3f1a4614	0.6026318
143	0xbef26cd7	-0.47348663
144	0xbe8219c3	-0.2541028
145	0xbe8fe20d	-0.2810215
146	0xbe0d0f9a	-0.13775483
147	0xbdd65cb5	-0.10466901
148	0xbeb6660a	-0.35624725
149	0xbef12cca	-0.47104484
150	0x3e485342	0.1956301
151	0xbe66f2ba	-0.2255353
152	0xbe71552a	-0.23567644
153	0x3ed0b50c	0.40763128
154	0x3e955d6a	0.29172832
155	0x3eea78da	0.45795327
156	0xbee09a26	-0.43867606
157	0xbed3b1b3	-0.4134651
158	0xbe40aa10	-0.18814874
159	0xbf0fdc0d	-0.56195146
160	0x3e5cc70e	0.21560308
161	0x3e798ea1	0.24370815
162	0x3d149749	0.03627709
163	0x3eb86379	0.36013392
164	0xbe4002a9	-0.18751015
165	0xbe3b0838	-0.18264854
166	0x3ecfb75a	0.40569574
167	0xbebd6f9a	-0.36999208
168	0x3e92e8b8	0.28693175
169	0xbbf5094f	-0.0074779163
170	0xbe45b379	-0.19306745
171	0xbeba1043	-0.36340532
172	0x3eb23952	0.34809357
173	0x3d6065a9	0.05478445
174	0xbe637162	-0.22211221
175	0x3ed57e46	0.416979
176	0xbec4e1d5	-0.38453546
177	0x3f1ab5d5	0.60433704
178	0x3efdc8d3	0.4956728
179	0x3ec4f610	0.3846898
180	0x3f11d174	0.56960225
181	0x3f0a944d	0.5413254
182	0xbf1b5b8b	-0.6068656
183	0xbe51cff0	-0.20489478
184	0x3ebc57f0	0.3678584
185	0xbf13ae2f	-0.5768766
186	0xbd83aaa8	-0.064290345
187	0xbef2ef9c	-0.47448432
188	0xbe0e6020	-0.13903856
189	0x3d43b780	0.04778242
190	0xbeb50142	-0.35352522
191	0xbed7fccb	-0.42185053

FC.0.bias f4 [12]
0	0x3c8ed1fc	0.017434113
1	0xbe85e7d4	-0.26153433
2	0x3df4487a	0.11927886
3	0x3e03cc41	0.12870885
4	0x3ec39c1b	0.38205037
5	0xbe34625f	-0.1761565
6	0xbe651fa6	-0.22375354
7	0x3e8fb9fb	0.2807158
8	0xbe903dfa	-0.28172284
9	0x3e01af92	0.12664631
10	0x3e092359	0.1339239
11	0xbd6e3402	-0.058155067

FC.2.weight f4 [8, 12]
0	0xbf5ba58e	-0.8579949
1	0xbd88d87d	-0.06681917
2	0xbe118f13	-0.14214735
3	0x3f3efcc2	0.7460443
4	0xbd8e9f10	-0.069639325
5	0x3e197d4a	0.149892
6	0x3e970244	0.29493916
7	0x3f1fc5e3	0.62411326
8	0xbf1ba171	-0.60793215
9	0xbe2367be	-0.15957543
10	0x3ea7c788	0.32769418
11	0xbf319adc	-0.6937692
12	0x3eba98ec	0.36444795
13	0xbf451238	-0.76980925
14	0xbf21ddf2	-0.63229287
15	0x3f68ef86	0.90990484
16	0x3ec565fc	0.3855437
17	0x3e213023	0.15741019
18	0xbedc51d9	-0.43031195
19	0xbf19bcc2	-0.60053647
20	0x3e69f7d3	0.22848444
21	0x3f31a38c	0.6939018
22	0x3ee9bd70	0.45652342
23	0xbebcd835	-0.36883703
24	0xbf1ca0ca	-0.61182845
25	0xbe0f30b8	-0.13983428
26	0x3f0a7ac9	0.54093605
27	0xbd0f4913	-0.0349818
28	0xbf323c6f	-0.69623464
29	0x3f075398	0.5286193
30	0x3d86de00	0.06585312
31	0xbe7004f9	-0.23439397
32	0xbee89b7c	-0.45431125
33	0xbf0fd371	-0.5618201
34	0x3e76f893	0.24118261
35	0xbe5eef85	-0.21771057
36	0x3e10a6b2	0.14126089
37	0x3ea0b8ef	0.31391093
38	0xbf0199d4	-0.5062535
39	0x3ecbeb6b	0.39828047
40	0x3f08c511	0.534257
41	0xbf07bf76	-0.5302652
42	0xbec3980b	-0.38201937
43	0x3d45cf9f	0.048293706
44	0xbe80e03b	-0.25171074
45	0x3ece1976	0.402538
46	0x3efc843c	0.49319637
47	0xbe6fe964	-0.23428875
48	0xbe89a996	-0.26887196
49	0x3f037875	0.5135568
50	0x3ef0db43	0.47042283
51	0xbe6513fd	-0.22370906
52	0xbf409362	-0.7522489
53	0x3e0de391	0.13856341
54	0xbede9285	-0.4347116
55	0xbe88a671	-0.26689485
56	0x3f0f9dce	0.56100166
57	0xbf577ebe	-0.8417777
58	0x3f0c69a6	0.54848707
59	0xbf312d18	-0.6920943
60	0x3f437328	0.7634759
61	0xbeaa50d5	-0.33264795
62	0x3ecef6a4	0.40422547
63	0xbec3c43c	-0.38235652
64	0xbf18bba3	-0.5966131
65	0xbdc5451f	-0.096323244
66	0xbf3a0ebf	-0.7267875
67	0x3f5a29dc	0.8522012
68	0xbeba340b	-0.3636783
69	0x3dd2ea40	0.10298586
70	0xbe54506f	-0.20733808
71	0x3f32959b	0.6975953
72	0x3dfe1988	0.124072134
73	0xbde6b998	-0.11265868
74	0x3e8da31a	0.276635
75	0x3f192c79	0.59833485
76	0xbe7a79bf	-0.24460505
77	0xbf38db1b	-0.7220933
78	0xbf384240	-0.7197609
79	0xbf2af822	-0.6678487
80	0xbef3baf6	-0.47603577
81	0x3f03d639	0.5149875
82	0x3f15fb2f	0.585864
83	0xbf0c28db	-0.5474984
84	0x3e49f6dc	0.19723076
85	0xbe1cae3a	-0.15300837
86	0x3eccb1e7	0.3997948
87	0x3e5b8944	0.21439081
88	0x3f1fd099	0.6242767
89	0x3ee6a2b8	0.4504602
90	0x3de1632a	0.11005242
91	0xbea6deff	-0.32592008
92	0x3f360617	0.7110304
93	0xbf19945a	-0.5999199
94	0xbe04b289	-0.12958731
95	0xbe497a22	-0.19675496

FC.2.bias f4 [8]
0	0x3d78d9cd	0.060754586
1	0xbaf06ac0	-0.0018342361
2	0xbe92cde3	-0.28672704
3	0xbe54e6ac	-0.2079112
4	0x3eaef481	0.34170917
5	0x3ec0baa4	0.37642395
6	0x3c13e07c	0.009025689
7	0x3dbae51d	0.09125731

FC.4.weight f4 [4, 8]
0	0xbf204569	-0.6260591
1	0xbda68cb2	-0.08132304
2	0xbee244a4	-0.44192994
3	0xbe75c292	-0.24000004
4	0x3f32fb05	0.69914275
5	0xbe2236e0	-0.15841246
6	0xbc512e77	-0.012767426
7	0x3d038393	0.0321079
8	0x3f028aea	0.50993216
9	0x3fa501f3	1.289122
10	0x3f48483e	0.7823523
11	0x3e01b299	0.12665786
12	0xbe471778	-0.19442546
13	0x3f89da70	1.0769787
14	0xbf20a67b	-0.6275403
15	0xbeeb7284	-0.45985806
16	0xbe30f6ee	-0.17281696
17	0x3e500a4b	0.20316426
18	0xbd2f8485	-0.04285099
19	0xbe4ecea5	-0.20196016
20	0x3fbd95e1	1.4811364
21	0xbee0e3c4	-0.4392377
22	0xbf38aaf2	-0.7213584
23	0x3f0d7817	0.5526137
24	0x3f3bf8af	0.73426336
25	0xbcd77197	-0.026299281
26	0xbe83076d	-0.25591603
27	0xbf58414a	-0.84474623
28	0xbedfcfcc	-0.43713224
29	0x3f0b15c5	0.5433009
30	0x3f15950d	0.5843056
31	0x3ef13400	0.47109985

FC.4.bias f4 [4]
0	0x3f2f6767	0.68517154
1	0xbd3b344c	-0.04570417
2	0x3ebfad1a	0.37436754
3	0x3e8d40a0	0.27588367
