DQN-Frozenlake-Gymnasium-master/4x4/final_weights_1000.pth (torch, 4505 bytes, 6 tensors)

FC.0.weight f4 [12, 16]
00000000: 687e c3bd 5286 6ebe 6452 ce3e 5210 68be
00000010: e430 f8bc a03b 83bc d849 ccbe d867 c5bd
00000020: 5b56 bb3e 7ff5 f9be d54f 593e a42f 913e
00000030: 0097 24bc 9091 0abd d040 89be b98e 123f
00000040: fafb 2c3e 3687 9d3e cb86 193f b099 08bd
00000050: d01e 4f3d 002b 6b3d 65bf 293f c037 5c3d
00000060: 3bed 993e 6687 4ebe 44b3 30be 9fc9 0a3f
00000070: 4cc4 0f3e 17c5 133f b049 f5be 5275 da3e
00000080: 02c7 cbbe b636 1d3e 6a7a d03e 95f5 823e
00000090: 1668 16bf 8090 48be 9526 0e3e 70ff 593e
000000a0: b03b a23e e8b7 78be efad 0cbf 151d 08bf
000000b0: 8030 8ebb 7a75 f1be 481c 36be 4e3b 983e
000000c0: 6e76 41be f482 11be 6935 8fbe 4e1a 01bf
000000d0: eb35 c6be b530 81be a088 233f 0af6 e73e
000000e0: 0e65 143e 08cb 05bf 150b 0cbf d81b 1d3e
000000f0: a847 ae3d e982 033f cd49 293f dfac 1c3f
00000100: a408 ccbe 2e48 b83e 62f4 81be 181b 223e
00000110: 8a0d 15bf d637 02bf ea8c ab3e 5070 3a3d
00000120: 628a e4be 321a e43e 9d78 02bf c002 0bbc
00000130: b03c dc3d 2f88 a73e 23a4 a5be 30ff 353d
00000140: 1563 84be 93c3 10bf 1cf2 96be 00f8 dabd
00000150: 4592 2d3e 2b20 8fbe 6fa6 03bf a0f8 dc3c
00000160: 0ed5 163f 0294 e23e 134d 2b3e 00aa 41bd
00000170: ec04 74be 8542 2f3f 5660 2d3e f307 143f
00000180: f01f 783d 98df 12be a15a 02bf 2c8b e63e
00000190: 5ac5 653e 400c 243e b8f8 87bd 53c1 bcbe
000001a0: 0f96 683f df84 583e 68b4 e1bd cc8a 27be
000001b0: f6d5 b33e 3627 f9be b73c 583e fade f0be
000001c0: f2fc 413d 5e82 35be aee9 afbe cce2 dcbd
000001d0: 613a f8be aad5 0ebf 8c02 0abf 9846 943d
000001e0: 8864 93be a20b d0be ce29 dabe 006c 283a
000001f0: eab4 10be 606e 06bf 326f acbe 72ee 95be
00000200: 30e9 57bd f331 3e3f a2d5 04be dad9 f13e
00000210: 1026 893e 48ee 19be 9cc4 243e ba31 bfbe
00000220: 6880 76be a08d bbbe 1453 323e 1cc2 bebe
00000230: 3278 a2be 60c9 08bd 2c34 233f d76c f2be
00000240: c319 82be 0de2 8fbe f996 25be 7672 e2bd
00000250: 0a66 b6be ca2c f1be a5f5 693e baf2 66be
00000260: 2a55 71be f07d e23e 65ea 8a3e da78 ea3e
00000270: 269a e0be b3b1 d3be 10aa 40be 0ddc 0fbf
00000280: 45a5 6a3e 26cb 743e 96a6 883c c3fc b13e
00000290: a902 40be 3808 3bbe 7545 093f 9a6f bdbe
000002a0: 4325 773e 8f0c 01bd 79b3 45be 4310 babe
000002b0: 5239 b23e 6ff4 b73d 6271 63be 467e d53e
000002c0: d5e1 c4be 3be3 233f 6feb 023f cc48 c03e
000002d0: 07b4 103f 4d94 0a3f 8b5b 1bbf f0cf 51be
000002e0: 28e2 c93e 2fae 13bf a8aa 83bd 9cef f2be
000002f0: 2060 0ebe e9d6 eb3c 4201 b5be cbfc d7be
-0.095455945 -0.23293427 0.40297234 -0.22662476 -0.03029675 -0.016019642 -0.39900088 -0.09638947
0.36589321 -0.4882011 0.2122186 0.2835666 -0.010045767 -0.033830225 -0.2680726 0.5724903
0.16892996 0.3076722 0.599713 -0.033349693 0.050566494 0.057414055 0.6630767 0.053764105
0.30063805 -0.20168838 -0.17255884 0.542139 0.14039725 0.5772261 -0.47907782 0.42667633
-0.39800268 0.15352902 0.40718395 0.2557799 -0.5875257 -0.19586372 0.13881905 0.21288848
0.31686163 -0.24288905 -0.549529 -0.53169376 -0.0043392777 -0.4715994 -0.17784226 0.29732746
-0.18892834 -0.14210111 -0.27970436 -0.5043076 -0.3871301 -0.25232473 0.6388035 0.453049
0.14491674 -0.52262926 -0.5470441 0.15342653 0.08509761 0.5137163 0.66128236 0.6120128
-0.39850342 0.3599257 -0.25381762 0.15830648 -0.58223784 -0.5086645 0.33505946 0.045517266
-0.44636828 0.44551235 -0.5096529 -0.008484542 0.10753763 0.32721087 -0.3235179 0.04443282
-0.25856844 -0.5654842 -0.2948159 -0.106918335 0.16950329 -0.2795423 -0.5142583 0.026974022
0.58918846 0.44253546 0.1672862 -0.047281265 -0.23830003 0.68460876 0.1693128 0.5782463
0.060577333 -0.14343107 -0.5091954 0.45028055 0.22438565 0.16020298 -0.06639236 -0.36866245
0.9085397 0.21144436 -0.11020738 -0.1636154 0.35124177 -0.48662728 0.21116911 -0.47045118
0.047360368 -0.17725512 -0.3435797 -0.107854456 -0.4848204 -0.55794775 -0.53910136 0.07240027
-0.28787637 -0.40633875 -0.4261002 0.00064247847 -0.14131513 -0.5251217 -0.33678585 -0.29283482
-0.05271262 0.74294966 -0.1297212 0.4723652 0.26786852 -0.15032303 0.16090626 -0.37342626
-0.2407242 -0.3663149 0.17414504 -0.3725747 -0.31732327 -0.03339517 0.6375148 -0.47348663
-0.2541028 -0.2810215 -0.16170873 -0.11056988 -0.35624725 -0.47104484 0.22847612 -0.2255353
-0.23567644 0.44236708 0.27131954 0.45795327 -0.43867606 -0.4134651 -0.18814874 -0.56195146
0.22914608 0.2390562 0.016680997 0.34763154 -0.18751015 -0.18264854 0.5362161 -0.36999208
0.24135308 -0.031506117 -0.19306745 -0.36340532 0.34809357 0.08982169 -0.22211221 0.416979
-0.38453546 0.640186 0.51140493 0.3755554 0.565247 0.5413254 -0.6068656 -0.20489478
0.39430356 -0.5768766 -0.064290345 -0.47448432 -0.13903856 0.028789 -0.35352522 -0.42185053

FC.0.bias f4 [12]
00000000: 4a85 e43c a73c 31be 7a43 0c3e a769 2b3e
00000010: d726 c73e e6ba 2dbe c1a3 58be d2e0 923e
00000020: 4428 87be 3236 1b3e afc5 083e 838d 2bbd
0.027895588 -0.17308293 0.13697615 0.16739522 0.3889682 -0.16965827 -0.21156217 0.2868715
-0.26397908 0.15157393 0.1335666 -0.041883003

FC.2.weight f4 [8, 12]
00000000: 44ab 71bf 85f7 7e3e ca45 0dbe 143e 3d3f
00000010: 9287 f73c a918 913e 908c 6e3e 5de8 1e3f
00000020: 0d0c 46bf e07e 99be b310 d53e 15f9 46bf
00000030: 91a3 9a3e ad45 83bf 1e56 2fbf d189 743f
00000040: f3db b73e aa9d b93d f04e dcbe e363 19bf
00000050: a4e8 b83e 0c94 3b3f b175 d23e 3d4e b5be
00000060: caa0 1cbf b830 0fbe c97a 0a3f 1349 0fbd
00000070: 6f3c 32bf 9853 073f 00de 863d f904 70be
00000080: 7c9b e8be 71d3 0fbf 93f8 763e 85ef 5ebe
00000090: adb5 953d e186 193f 387b d3be ae36 dd3e
000000a0: 0644 193f d73a fbbe 0c73 f7be 76cf 01bc
000000b0: 59bd b4be 1b7c d03e 9ff2 183f 03a3 59be
000000c0: 241c 92be 86f0 f73e 706b e93e 6fef 74be
000000d0: 242b 45bf 5ebe e93d 1bf1 e6be 389d 76be
000000e0: 6616 0f3f 027f 59bf c197 0b3f 9e8c 33bf
000000f0: 4ced 3f3f 389c 91be 5562 dd3e 186e b8be
00000100: 51a6 05bf 5261 c1bd 1c06 3cbf db4b 5e3f
00000110: 2b15 97be 89e7 283d a9c2 3fbe 4805 393f
00000120: 6a5f 2f3e 40bd 0cbe 8ccb 843e a88b 2c3f
00000130: d988 88be 54f5 3cbf 6e42 38bf ba91 28bf
00000140: 2b92 c4be b19d 073f 3c49 163f b908 12bf
00000150: 579b 923e ca6a 833d 0f43 e93e 65e9 913d
00000160: 8988 393f a085 103f c70c 213e 98c9 a6be
00000170: c900 143f 7daf 1bbf c8d8 b4bd 6885 2cbe
-0.94401956 0.24899109 -0.13796154 0.7392285 0.030216012 0.28339127 0.23295808 0.6207331
-0.7736214 -0.2997961 0.41614303 -0.7772382 0.30202916 -1.0255638 -0.6849078 0.9552279
0.35909995 0.09063275 -0.43028975 -0.5991804 0.3611499 0.73272777 0.41105416 -0.35411254
-0.61182845 -0.13983428 0.54093605 -0.0349818 -0.69623464 0.5286193 0.06585312 -0.23439397
-0.45431125 -0.5618201 0.24118261 -0.21771057 0.073100425 0.59971434 -0.41304946 0.4320578
0.5986942 -0.4906833 -0.4832996 -0.007922998 -0.3530071 0.40719685 0.5974521 -0.2125359
-0.28537095 0.48425692 0.4558978 -0.23919462 -0.7701895 0.11413263 -0.45105824 -0.24083412
0.5589355 -0.84959424 0.54528433 -0.7013644 0.7497146 -0.28439498 0.43239084 -0.36021495
-0.52206904 -0.094423905 -0.7344682 0.86834496 -0.29508337 0.041236434 -0.187266 0.72273684
0.17126241 -0.13744068 0.25936544 0.674006 -0.26666906 -0.7381184 -0.71976364 -0.6584736
-0.38392767 0.52974993 0.58705497 -0.5704456 0.2863414 0.06416853 0.45558974 0.071245946
0.7247396 0.56453896 0.1572753 -0.3257568 0.578137 -0.6081465 -0.0883041 -0.16847765

FC.2.bias f4 [8]
00000000: 021f fc3c 2ec6 e23c e3cd 92be c55a 5bbe
00000010: ddfc ab3e 22f7 c13e d4bb 053d 6e51 ab3d
0.030776504 0.02768239 -0.28672704 -0.21421345 0.33591357 0.3788386 0.03264983 0.08365141

FC.4.weight f4 [4, 8]
00000000: a924 33bf 4e68 d13d a444 e2be f038 b0be
00000010: 4651 e53e 9bbc 7abe e31e 2f3e 39b6 b2bd
00000020: d961 f83e cf6c aa3f 3e48 483f 3c1a a13d
00000030: 78db 17be bb70 893f 3525 1bbf da32 efbe
00000040: 7afe 53be 70a0 993e 8584 2fbd 45f0 a4bd
00000050: c998 cc3f 9f6a e6be 35db 30bf d4e2 293f
00000060: cde0 633f 5c31 59bd 6d07 83be 330c 86bf
00000070: 982e 2dbf 6de2 d33e 9e8b 553f a287 c53e
-0.69977814 0.10224973 -0.44192994 -0.3441844 0.4478857 -0.2448601 0.17101626 -0.087261625
0.48512152 1.3314456 0.7823523 0.07866332 -0.14829814 1.0737528 -0.6060365 -0.46718484
-0.20702544 0.30005217 -0.04285099 -0.0805364 1.5984126 -0.4500322 -0.69084483 0.6636174
0.89014894 -0.05302559 -0.25591603 -1.0472473 -0.6764922 0.41383687 0.83416164 0.38580042

FC.4.bias f4 [4]
00000000: bc5c 5c3f eb4b 5ebd 9eac ad3e f3f7 ac3e
0.86079 -0.05427162 0.3392076 0.3378292
