DQN-Frozenlake-Gymnasium-master/4x4/final_weights_1500.pth (torch, 4505 bytes, 6 tensors)

FC.0.weight f4 [12, 16]
-0.095455945 -0.23293427 0.40206438 -0.22662476 -0.0354991 -0.016019642 -0.39900088 -0.09638947
0.37476164 -0.4882011 0.22051704 0.2835666 -0.010045767 -0.05231873 -0.2680726 0.5724903
0.15337175 0.3075737 0.5999247 -0.033349693 0.050566494 0.057414055 0.6604006 0.053764105
0.3000222 -0.20168838 -0.17255884 0.542139 0.14039725 0.5781173 -0.47907782 0.42667633
-0.39800268 0.15891008 0.40789402 0.25463262 -0.5875257 -0.19586372 0.13437943 0.21288848
0.3213466 -0.24288905 -0.549529 -0.53169376 -0.0043392777 -0.4715994 -0.17784226 0.29732746
-0.18892834 -0.14429533 -0.27970436 -0.5043076 -0.3871301 -0.25232473 0.63285524 0.453049
0.14292952 -0.52262926 -0.5470441 0.15342653 0.08509761 0.5179376 0.65838516 0.6120128
-0.39850342 0.36174074 -0.25145164 0.16002724 -0.58223784 -0.5086645 0.32508892 0.045517266
-0.44636828 0.44935066 -0.5096529 -0.008484542 0.10753763 0.33851236 -0.33139217 0.04443282
-0.25856844 -0.5654842 -0.2948159 -0.106918335 0.16765381 -0.2795423 -0.5142583 0.026974022
0.59788644 0.44061258 0.15548328 -0.047281265 -0.23830003 0.69008034 0.16533795 0.5782463
0.060577333 -0.14343107 -0.5091954 0.45348898 0.22654982 0.16020298 -0.06639236 -0.36866245
0.9111325 0.20485263 -0.11020738 -0.1636154 0.35124177 -0.48662728 0.20708112 -0.47045118
0.046836358 -0.1766788 -0.3435797 -0.109138265 -0.4848204 -0.55794775 -0.53910136 0.07240027
-0.29141536 -0.40633875 -0.4261002 0.00064247847 -0.14131513 -0.5251217 -0.33678585 -0.29283482
-0.05271262 0.74348223 -0.1297212 0.4724886 0.25929818 -0.15032303 0.16090626 -0.37342626
-0.2407242 -0.3663149 0.17414504 -0.3725747 -0.31732327 -0.03339517 0.6413851 -0.47348663
-0.2541028 -0.2810215 -0.16170873 -0.11045764 -0.35624725 -0.47104484 0.24063489 -0.2255353
-0.23567644 0.44691882 0.24341296 0.45795327 -0.43867606 -0.4134651 -0.18814874 -0.56195146
0.23440395 0.23747931 0.01748686 0.347262 -0.18751015 -0.18264854 0.53379375 -0.36999208
0.23809148 -0.029832177 -0.19306745 -0.36340532 0.34809357 0.081669405 -0.22211221 0.416979
-0.38453546 0.6403767 0.51001155 0.3755417 0.56385005 0.5413254 -0.6068656 -0.20489478
0.394702 -0.5768766 -0.064290345 -0.47448432 -0.13903856 0.028789 -0.35352522 -0.42185053
00000000: 687e c3bd 5286 6ebe 62db cd3e 5210 68be
00000010: 8167 11bd a03b 83bc d849 ccbe d867 c5bd
00000020: c2e0 bf3e 7ff5 f9be 38cf 613e a42f 913e
00000030: 0097 24bc 2a4c 56bd d040 89be b98e 123f
00000040: 7c0d 1d3e 4d7a 9d3e aa94 193f b099 08bd
00000050: d01e 4f3d 002b 6b3d 0410 293f c037 5c3d
00000060: 839c 993e 6687 4ebe 44b3 30be 9fc9 0a3f
00000070: 4cc4 0f3e 7fff 133f b049 f5be 5275 da3e
00000080: 02c7 cbbe 53b9 223e 7cd7 d03e 355f 823e
00000090: 1668 16bf 8090 48be c39a 093e 70ff 593e
000000a0: 8b87 a43e e8b7 78be efad 0cbf 151d 08bf
000000b0: 8030 8ebb 7a75 f1be 481c 36be 4e3b 983e
000000c0: 6e76 41be 28c2 13be 6935 8fbe 4e1a 01bf
000000d0: eb35 c6be b530 81be cd02 223f 0af6 e73e
000000e0: 1e5c 123e 08cb 05bf 150b 0cbf d81b 1d3e
000000f0: a847 ae3d 8f97 043f ee8b 283f dfac 1c3f
00000100: a408 ccbe 1536 b93e 45be 80be 2ede 233e
00000110: 8a0d 15bf d637 02bf 0e72 a63e 5070 3a3d
00000120: 628a e4be 4a11 e63e 9d78 02bf c002 0bbc
00000130: b03c dc3d 7e51 ad3e 3cac a9be 30ff 353d
00000140: 1563 84be 93c3 10bf 1cf2 96be 00f8 dabd
00000150: 71ad 2b3e 2b20 8fbe 6fa6 03bf a0f8 dc3c
00000160: 160f 193f f997 e13e 0237 1f3e 00aa 41bd
00000170: ec04 74be 1ba9 303f 5a4e 293e f307 143f
00000180: f01f 783d 98df 12be a15a 02bf b52f e83e
00000190: adfc 673e 400c 243e b8f8 87bd 53c1 bcbe
000001a0: fb3f 693f e3c4 513e 68b4 e1bd cc8a 27be
000001b0: f6d5 b33e 3627 f9be 130d 543e fade f0be
000001c0: 7bd7 3f3d 4aeb 34be aee9 afbe e283 dfbd
000001d0: 613a f8be aad5 0ebf 8c02 0abf 9846 943d
000001e0: 6534 95be a20b d0be ce29 dabe 006c 283a
000001f0: eab4 10be 606e 06bf 326f acbe 72ee 95be
00000200: 30e9 57bd da54 3e3f a2d5 04be 07ea f13e
00000210: bbc2 843e 48ee 19be 9cc4 243e ba31 bfbe
00000220: 6880 76be a08d bbbe 1453 323e 1cc2 bebe
00000230: 3278 a2be 60c9 08bd d031 243f d76c f2be
00000240: c319 82be 0de2 8fbe f996 25be 9d37 e2bd
00000250: 0a66 b6be ca2c f1be fe68 763e baf2 66be
00000260: 2a55 71be 8bd2 e43e 3f41 793e da78 ea3e
00000270: 269a e0be b3b1 d3be 10aa 40be 0ddc 0fbf
00000280: 9707 703e c72d 733e 9a40 8f3c 53cc b13e
00000290: a902 40be 3808 3bbe b5a6 083f 9a6f bdbe
000002a0: 41ce 733e 9c62 f4bc 79b3 45be 4310 babe
000002b0: 5239 b23e 4a42 a73d 6271 63be 467e d53e
000002c0: d5e1 c4be baef 233f 1e90 023f 0047 c03e
000002d0: 7a58 103f 4d94 0a3f 8b5b 1bbf f0cf 51be
000002e0: 6116 ca3e 2fae 13bf a8aa 83bd 9cef f2be
000002f0: 2060 0ebe e9d6 eb3c 4201 b5be cbfc d7be

FC.0.bias f4 [12]
0.034505706 -0.17316066 0.13850574 0.16546865 0.39017704 -0.17072472 -0.2134465 0.28537044
-0.26518705 0.1477585 0.1338036 -0.043743648
00000000: db55 0d3d 0751 31be 73d4 0d3e 9d70 293e
00000010: 49c5 c73e 76d2 2ebe b891 5abe 131c 923e
00000020: 99c6 87be 014e 173e d003 093e 8a2c 33bd

FC.2.weight f4 [8, 12]
-0.94808394 0.2539071 -0.14871614 0.7280139 0.02920924 0.29130226 0.22872168 0.63811547
-0.78971785 -0.31327567 0.42051017 -0.78137815 0.2706055 -1.0293546 -0.68292665 0.95911485
0.36104718 0.08815138 -0.43019882 -0.5978909 0.36898822 0.72477484 0.4101284 -0.3546016
-0.61182845 -0.13983428 0.54093605 -0.0349818 -0.69623464 0.5286193 0.06585312 -0.23439397
-0.45431125 -0.5618201 0.24118261 -0.21771057 0.07310062 0.6017518 -0.40342203 0.4290909
0.60166264 -0.48953906 -0.48077518 -0.021604815 -0.3556121 0.40993065 0.5960406 -0.20872162
-0.28473154 0.47649732 0.45549312 -0.24520347 -0.7775322 0.106552534 -0.4518762 -0.23637472
0.55670536 -0.8461708 0.54413295 -0.7002628 0.7566446 -0.28478974 0.43148518 -0.3585043
-0.5174127 -0.09422699 -0.7329497 0.86273104 -0.29077277 0.06097812 -0.18850878 0.71868706
0.15516077 -0.13771465 0.25950336 0.67813826 -0.26645267 -0.7414656 -0.7197933 -0.656532
-0.3784783 0.51764226 0.5875733 -0.5704456 0.30138525 0.069241874 0.466116 0.04924771
0.7257309 0.5727771 0.16865681 -0.32240778 0.5679734 -0.61165303 -0.08594654 -0.1649363
00000000: a1b5 72bf 1d00 823e 0b49 18be 1e5f 3a3f
00000010: 3748 ef3c 9225 953e 0436 6a3e 895b 233f
00000020: f32a 4abf ab65 a0be 1c4d d73e 6608 48bf
00000030: ce8c 8a3e e4c1 83bf 48d4 2ebf 8d88 753f
00000040: 2ddb b83e b688 b43d 0543 dcbe 610f 19bf
00000050: 06ec bc3e d88a 393f 5afc d13e 578e b5be
00000060: caa0 1cbf b830 0fbe c97a 0a3f 1349 0fbd
00000070: 6f3c 32bf 9853 073f 00de 863d f904 70be
00000080: 7c9b e8be 71d3 0fbf 93f8 763e 85ef 5ebe
00000090: c7b5 953d 680c 1a3f 558d cebe cdb1 db3e
000000a0: 9006 1a3f dda4 fabe 2a28 f6be 95fc b0bc
000000b0: ca12 b6be 6ee2 d13e 1e96 183f 1fbb 55be
000000c0: 55c8 91be 75f7 f33e 6536 e93e 9e16 7bbe
000000d0: 5a0c 47bf 3738 da3d 515c e7be 370c 72be
000000e0: 3e84 0e3f a69e 58bf 4c4c 0b3f 6c44 33bf
000000f0: 76b3 413f f6cf 91be a0eb dc3e e08d b7be
00000100: 2975 04bf 15fa c0bd 97a2 3bbf f1db 5c3f
00000110: 2be0 94be 31c4 793d 7208 41be e0fb 373f
00000120: 77e2 1e3e 1205 0dbe a0dd 843e 789a 2d3f
00000130: 7c6c 88be b1d0 3dbf 6044 38bf 7b12 28bf
00000140: e8c7 c1be 3484 043f 346b 163f b908 12bf
00000150: 2b4f 9a3e afce 8d3d c2a6 ee3e f7b7 493d
00000160: 80c9 393f 85a1 123f 5fb4 2c3e a212 a5be
00000170: b466 113f 4b95 1cbf bd04 b0bd 10e5 28be

FC.2.bias f4 [8]
0.027617477 0.025321703 -0.28672704 -0.21757604 0.33472756 0.3808838 0.028702473 0.0804004
00000000: 0c3e e23c 766f cf3c e3cd 92be 41cc 5ebe
00000010: 6961 ab3e 3403 c33e 7321 eb3c f7a8 a43d

FC.4.weight f4 [4, 8]
-0.7019702 0.094865985 -0.44192994 -0.3343065 0.41462994 -0.23989119 0.13912566 -0.106528655
0.48203146 1.3322256 0.7823523 0.07868917 -0.15004416 1.075383 -0.60458004 -0.46726474
-0.21184815 0.30576244 -0.04285099 -0.08605178 1.604566 -0.45196927 -0.6739396 0.6668884
0.89771575 -0.045307994 -0.25591603 -1.0560114 -0.6974103 0.40155867 0.85827386 0.3733304
00000000: 52b4 33bf 1949 c23d a444 e2be 392a abbe
00000010: 604a d43e 09a6 75be f576 0e3e b22b dabd
00000020: d4cc f63e 5e86 aa3f 3e48 483f ca27 a13d
00000030: 2da5 19be 26a6 893f c2c5 1abf 533d efbe
00000040: b9ee 58be e58c 9c3e 8584 2fbd ea3b b0bd
00000050: 6b62 cd3f 8468 e7be 4e87 2cbf 33b9 2a3f
00000060: b3d0 653f e094 39bd 6d07 83be 622b 87bf
00000070: 7b89 32bf 1999 cd3e d6b7 5b3f 2a25 bf3e

FC.4.bias f4 [4]
0.8747298 -0.052233238 0.33731243 0.34877864
00000000: 4bee 5f3f 85f2 55bd 37b4 ac3e 1d93 b23e
