DQN-Frozenlake-Gymnasium-master/4x4/final_weights_2000.pth (torch, 4505 bytes, 6 tensors)

FC.0.weight f4 [12, 16]
00000000: 687e c3bd 5286 6ebe 5366 cd3e 5210 68be
00000010: 3b7e 2dbd a03b 83bc d849 ccbe d867 c5bd
00000020: a93b c03e 7ff5 f9be 5d35 623e a42f 913e
00000030: 0097 24bc 2a4c 56bd d040 89be b98e 123f
00000040: 7c0d 1d3e 4183 9d3e b13a 193f b099 08bd
00000050: d01e 4f3d 002b 6b3d 90ed 283f c037 5c3d
00000060: 3ab2 993e 6687 4ebe 44b3 30be 9fc9 0a3f
00000070: 4cc4 0f3e f418 143f b049 f5be 5275 da3e
00000080: 02c7 cbbe e87c 233e 7abc cf3e af67 823e
00000090: 1668 16bf 8090 48be 1537 093e 70ff 593e
000000a0: e7e4 a43e e8b7 78be efad 0cbf 151d 08bf
000000b0: 8030 8ebb 7a75 f1be 481c 36be 4e3b 983e
000000c0: 6e76 41be 93fa 13be 6935 8fbe 4e1a 01bf
000000d0: eb35 c6be b530 81be 10f9 213f 0af6 e73e
000000e0: 73cc 103e 08cb 05bf 150b 0cbf d81b 1d3e
000000f0: a847 ae3d 6991 043f b250 283f dfac 1c3f
00000100: a408 ccbe adc7 b83e 2001 81be db73 283e
00000110: 8a0d 15bf d637 02bf 5f45 a43e 5070 3a3d
00000120: 628a e4be d8ed e63e 9d78 02bf c002 0bbc
00000130: b03c dc3d da4e af3e 78ee a9be 30ff 353d
00000140: 1563 84be 93c3 10bf 1cf2 96be 00f8 dabd
00000150: d404 263e 2b20 8fbe 6fa6 03bf a0f8 dc3c
00000160: 303c 193f bb2d e13e 0237 1f3e 00aa 41bd
00000170: ec04 74be a16d 303f 5a4e 293e f307 143f
00000180: f01f 783d 98df 12be a15a 02bf 6149 ef3e
00000190: 8e25 663e 400c 243e b8f8 87bd 53c1 bcbe
000001a0: 382a 693f e3c4 513e 68b4 e1bd cc8a 27be
000001b0: f6d5 b33e 3627 f9be 130d 543e fade f0be
000001c0: faa8 3f3d 8b8e 36be aee9 afbe 6059 edbd
000001d0: 613a f8be aad5 0ebf 8c02 0abf 9846 943d
000001e0: 6534 95be a20b d0be ce29 dabe 006c 283a
000001f0: eab4 10be 606e 06bf 326f acbe 72ee 95be
00000200: 30e9 57bd 3b6d 3e3f a2d5 04be 97c8 f33e
00000210: bbc2 843e 48ee 19be 9cc4 243e ba31 bfbe
00000220: 6880 76be a08d bbbe 1453 323e 1cc2 bebe
00000230: 3278 a2be 60c9 08bd b01b 243f d76c f2be
00000240: c319 82be 0de2 8fbe f996 25be 7001 e8bd
00000250: 0a66 b6be ca2c f1be c40e 763e baf2 66be
00000260: 2a55 71be 2a51 e53e 7c82 783e da78 ea3e
00000270: 269a e0be b3b1 d3be 10aa 40be 0ddc 0fbf
00000280: e62b 6e3e 7473 703e c163 923c 056f b23e
00000290: a902 40be 3808 3bbe aa7f 083f 9a6f bdbe
000002a0: b44c 733e 1e2c e6bc 79b3 45be 4310 babe
000002b0: 5239 b23e d7b0 a83d 6271 63be 467e d53e
000002c0: d5e1 c4be 568f 233f 5188 023f 284b be3e
000002d0: 58ad 103f 4d94 0a3f 8b5b 1bbf f0cf 51be
000002e0: 83c9 c93e 2fae 13bf a8aa 83bd 9cef f2be
000002f0: 2060 0ebe e9d6 eb3c 4201 b5be cbfc d7be
-0.095455945 -0.23293427 0.4011713 -0.22662476 -0.04235671 -0.016019642 -0.39900088 -0.09638947
0.37545517 -0.4882011 0.22090669 0.2835666 -0.010045767 -0.05231873 -0.2680726 0.5724903
0.15337175 0.307642 0.5985518 -0.033349693 0.050566494 0.057414055 0.6598749 0.053764105
0.3001879 -0.20168838 -0.17255884 0.542139 0.14039725 0.57850575 -0.47907782 0.42667633
-0.39800268 0.15965617 0.40573484 0.2546973 -0.5875257 -0.19586372 0.13399918 0.21288848
0.3220589 -0.24288905 -0.549529 -0.53169376 -0.0043392777 -0.4715994 -0.17784226 0.29732746
-0.18892834 -0.14451055 -0.27970436 -0.5043076 -0.3871301 -0.25232473 0.63270664 0.453049
0.14140491 -0.52262926 -0.5470441 0.15342653 0.08509761 0.5178438 0.6574813 0.6120128
-0.39850342 0.3608984 -0.2519617 0.16450445 -0.58223784 -0.5086645 0.32084176 0.045517266
-0.44636828 0.45103335 -0.5096529 -0.008484542 0.10753763 0.34239846 -0.3318975 0.04443282
-0.25856844 -0.5654842 -0.2948159 -0.106918335 0.1621278 -0.2795423 -0.5142583 0.026974022
0.59857464 0.43980202 0.15548328 -0.047281265 -0.23830003 0.6891728 0.16533795 0.5782463
0.060577333 -0.14343107 -0.5091954 0.4673567 0.22475263 0.16020298 -0.06639236 -0.36866245
0.91080046 0.20485263 -0.11020738 -0.1636154 0.35124177 -0.48662728 0.20708112 -0.47045118
0.046792008 -0.17827813 -0.3435797 -0.115893126 -0.4848204 -0.55794775 -0.53910136 0.07240027
-0.29141536 -0.40633875 -0.4261002 0.00064247847 -0.14131513 -0.5251217 -0.33678585 -0.29283482
-0.05271262 0.7438542 -0.1297212 0.47613975 0.25929818 -0.15032303 0.16090626 -0.37342626
-0.2407242 -0.3663149 0.17414504 -0.3725747 -0.31732327 -0.03339517 0.6410475 -0.47348663
-0.2541028 -0.2810215 -0.16170873 -0.11328399 -0.35624725 -0.47104484 0.2402907 -0.2255353
-0.23567644 0.44788486 0.24268526 0.45795327 -0.43867606 -0.4134651 -0.18814874 -0.56195146
0.23258933 0.23481542 0.017869832 0.34850326 -0.18751015 -0.18264854 0.533198 -0.36999208
0.23759729 -0.028097209 -0.19306745 -0.36340532 0.34809357 0.082368545 -0.22211221 0.416979
-0.38453546 0.6389059 0.5098925 0.37166715 0.565145 0.5413254 -0.6068656 -0.20489478
0.39411554 -0.5768766 -0.064290345 -0.47448432 -0.13903856 0.028789 -0.35352522 -0.42185053

FC.0.bias f4 [12]
00000000: ff71 063d dec4 32be e183 0d3e 210d 283e
00000010: cf85 c73e 2546 31be 6ee7 59be ac23 913e
00000020: 2d4d 87be 405b 163e 0235 073e 6c6f 36bd
0.03282356 -0.17457911 0.13819839 0.16411258 0.38969275 -0.17311914 -0.2127969 0.28347528
-0.26426068 0.14683247 0.13203815 -0.044539854

FC.2.weight f4 [8, 12]
00000000: 9668 73bf e576 823e c34f 18be 001a 3a3f
00000010: e085 f13c 49a6 933e 1283 673e 430d 233f
00000020: a62e 4abf 8c17 a0be 9eab d73e 2ebc 48bf
00000030: 17d8 893e 7ca1 83bf 807d 2ebf 8b65 753f
00000040: eaf7 b83e 1b7d b53d 0543 dcbe c39a 18bf
00000050: bd97 bc3e 6f8c 393f 9c60 d13e 139d b5be
00000060: caa0 1cbf b830 0fbe c97a 0a3f 1349 0fbd
00000070: 6f3c 32bf 9853 073f 00de 863d f904 70be
00000080: 7c9b e8be 71d3 0fbf 93f8 763e 85ef 5ebe
00000090: c7b5 953d 57a2 193f 32fe cfbe 36fe db3e
000000a0: 30ba 193f b5bc f7be 01dc f8be fff9 d1bc
000000b0: cb1b b7be c695 d13e 199d 173f 28d8 58be
000000c0: b236 91be 39b0 f23e 75e5 e83e 6fd2 7abe
000000d0: ae4f 46bf af8f d83d d4de e6be 5103 6fbe
000000e0: 9b1e 0e3f 8c0f 56bf 97c9 0a3f 5dd2 32bf
000000f0: a02a 413f 3ec4 90be 0b3f dc3e ab28 b8be
00000100: 5cb3 04bf c52d c1bd 39b6 3bbf c173 5c3f
00000110: 7dc9 95be f943 783d 3ff5 3ebe d64b 373f
00000120: e4c8 1f3e 6079 0cbe f5bd 843e b793 2d3f
00000130: 44e5 87be b1d0 3dbf 6044 38bf a524 28bf
00000140: 046f c1be 0d86 043f d79b 163f b908 12bf
00000150: f086 9b3e ad41 8c3d 13ea ee3e 6e60 483d
00000160: 37d4 393f c2e9 123f 9b4d 303e 3bce a0be
00000170: 972a 113f 378a 1cbf 03c6 adbd 1e52 29be
-0.9508146 0.25481334 -0.14874177 0.7269592 0.029482782 0.28837803 0.22608593 0.6369211
-0.7897743 -0.31267965 0.4212312 -0.7841214 0.26922676 -1.0283656 -0.6816025 0.9585807
0.36126643 0.088617526 -0.43019882 -0.5961115 0.36834517 0.7247991 0.4089402 -0.354714
-0.61182845 -0.13983428 0.54093605 -0.0349818 -0.69623464 0.5286193 0.06585312 -0.23439397
-0.45431125 -0.5618201 0.24118261 -0.21771057 0.07310062 0.60013336 -0.40623623 0.42967385
0.60049725 -0.4838616 -0.4860535 -0.025631903 -0.35763392 0.4093458 0.59224087 -0.21176207
-0.28362042 0.47400072 0.45487562 -0.24494337 -0.7746533 0.105742805 -0.4509188 -0.23341109
0.5551545 -0.8361747 0.5421385 -0.6985224 0.75455666 -0.2827472 0.43016848 -0.35968527
-0.5183618 -0.09432558 -0.73324925 0.86114126 -0.29255286 0.0606117 -0.18648241 0.7160009
0.15603977 -0.13718176 0.25926176 0.6780352 -0.26542103 -0.7414656 -0.7197933 -0.65680915
-0.3778001 0.51767045 0.5883154 -0.5704456 0.30376387 0.06848464 0.4666296 0.048920088
0.7258944 0.57387936 0.17217104 -0.3140734 0.5670561 -0.611484 -0.08485033 -0.16535231

FC.2.bias f4 [8]
00000000: 11cf e03c 3ec9 dc3c e3cd 92be 95da 5fbe
00000010: 046b ab3e bdc1 c33e c2a3 e03c b7ad a13d
0.027442487 0.026951429 -0.28672704 -0.21860726 0.33480084 0.38233748 0.027421836 0.078944616

FC.4.weight f4 [4, 8]
00000000: 557e 33bf 8735 c13d a444 e2be 3756 abbe
00000010: 8025 d43e 051a 75be 0d99 093e 47c6 e3bd
00000020: 0eb4 f63e 5137 aa3f 3e48 483f 1b17 a03d
00000030: 1077 15be c34f 893f 482f 1abf c4f1 eebe
00000040: c620 57be d85d 9c3e 8584 2fbd cedc acbd
00000050: d198 cc3f a7cb e7be 2d96 2cbf 829b 2a3f
00000060: 393a 663f fc63 4abd 6d07 83be ebda 86bf
00000070: facf 30bf b2cd cd3e 5e79 5b3f 1b68 bf3e
-0.7011464 0.09434038 -0.44192994 -0.33464214 0.4143486 -0.23935707 0.1343729 -0.11121803
0.48184246 1.3298131 0.7823523 0.07816907 -0.145962 1.0727466 -0.60228395 -0.46668828
-0.21008596 0.30540347 -0.04285099 -0.08440553 1.5984136 -0.45272562 -0.6741665 0.66643536
0.8993259 -0.04941176 -0.25591603 -1.0535558 -0.6906735 0.40195996 0.85732067 0.37384114

FC.4.bias f4 [4]
00000000: 8545 603f a5b1 50bd 3273 ac3e 5c1c b33e
0.8760608 -0.050950665 0.33681637 0.34982574
