Ai Elevator/Traen1/Outputs/final_weights_100.pth (torch, 122777 bytes, 8 tensors)

FC.0.weight f4 [128, 33]
000000 ae c2 b5 be c3 3f 8f be 8d c4 a1 3e 3d 63 4f 3e
       -0.3550009 -0.27978334 0.3159527 0.202527
000010 d8 48 9a 3e e3 b9 d4 3e 7a bc b4 3e e4 9d 36 be
       0.301337 0.4154807 0.35300046 -0.17833668
000020 91 ab 7f be 59 e4 29 3d f0 ee 10 3c ec 46 c4 be
       -0.24967791 0.041477535 0.00884603 -0.3833536
000030 57 0f 21 be 38 88 09 3d 19 92 5a 3e 14 b2 c0 3e
       -0.15728508 0.033577174 0.21344794 0.37635863
000040 4d 62 dd bc 8a 00 82 3e c3 b5 2b 3e 4a dc aa be
       -0.027024413 0.25391036 0.16768555 -0.33371192
000050 19 d7 38 bd b0 7c fb 3d c7 54 d7 be 4e 80 2c 3d
       -0.045127008 0.12279642 -0.42056867 0.04211455
000060 b7 f5 22 3d cf 1f 5e be 45 4f cd 3d 14 9c dd 3e
       0.039785113 -0.21691822 0.10024885 0.4328314
000070 b9 dc bb be 1d 8f 1f 3e 17 21 7c be 14 df ad be
       -0.36691836 0.15581937 -0.24621998 -0.33959258
000080 f8 29 79 3e c0 de 12 3e 96 f3 5d 3e f9 6a f2 3e
       0.24332416 0.14342785 0.21674952 0.4734724
000090 2e 04 17 be a1 04 af be 81 f2 a4 be 4a b2 d6 be
       -0.14747688 -0.3418322 -0.32216266 -0.419329
0000a0 f7 b8 c6 3e 87 89 90 bd 9f f4 fd 3d 20 28 89 be
       0.38812992 -0.07057481 0.124001734 -0.26788425
0000b0 bf af 10 be f7 48 4b 3e 74 78 6f 3e b8 2a 07 be
       -0.14129542 0.19852053 0.23385793 -0.1319989
0000c0 45 50 c6 be 14 82 c6 3d c2 e7 a6 3e 12 52 3b be
       -0.38733116 0.09692779 0.32598692 -0.18293026
0000d0 fe 14 60 be e7 53 0c 3d 60 88 47 be fc df cf 3e
       -0.21883008 0.034259703 -0.19485617 0.40600574
0000e0 cc 5b 8c be 09 ee 98 3e 36 dd d7 3c a5 57 31 be
       -0.27413785 0.29869106 0.026350599 -0.1731859
0000f0 88 14 db be 2c 44 97 be 57 85 69 be 28 1f 8d be
       -0.42789102 -0.295442 -0.22804771 -0.27562833
000100 6c 69 8c bd 78 73 be 3e 22 56 6d 3e 94 65 9f be
       -0.06856045 0.3719747 0.23177388 -0.31132185
000110 71 c7 50 3e 9f 7b 97 be a7 99 af be ea a0 71 3e
       0.20388581 -0.29586503 -0.34296915 0.2359654
000120 ef 44 1d 3e d7 96 d6 3e ff 25 6a be 1c 8e 51 3d
       0.15358327 0.41911957 -0.22866057 0.051160917
000130 f7 14 9f bd 58 a9 b4 3e a8 4d 05 be 98 3b 3d 3e
       -0.077676706 0.3528545 -0.13017905 0.18479764
000140 52 06 b1 be a1 41 a7 bd a8 8d 6c be 7d b0 c4 bc
       -0.34575135 -0.081668146 -0.23100913 -0.024009937
000150 8e 4a c1 bc 21 3f 0c be ea 8f e4 3e 27 83 95 be
       -0.02359512 -0.13695957 0.44641048 -0.29201624
000160 90 fa d7 be ce cd 48 be af 0c c0 be 97 e1 f3 3d
       -0.42183352 -0.19609758 -0.37509677 0.11908262
000170 c8 02 d3 3d de 5f 2f 3e ed 1a 29 be 88 bf cf 3e
       0.10303265 0.17126414 -0.16514178 0.40575814
000180 00 b5 f2 bd 9f 1c 40 be 90 50 39 3d 6e 50 74 3e
       -0.11850929 -0.18760918 0.045242846 0.23858806
000190 7b ac 8d 3d b8 02 89 3e 8a 8d 9b 3d aa c6 c6 3e
       0.06917664 0.26759887 0.07595356 0.38823444
0001a0 9f ed e4 3e 51 ec e8 bd 31 b0 b9 be 14 f4 f7 be
       0.4471254 -0.11373199 -0.36267236 -0.48428404
0001b0 67 5a 80 bd 47 b1 b9 3e 77 ed 79 be 67 bc f2 be
       -0.06267243 0.36268064 -0.24406992 -0.47409365
0001c0 64 00 88 be ad 7d 3d be 70 c6 b3 3e ae 17 37 bd
       -0.26562798 -0.18504973 0.35112333 -0.044700317
0001d0 ae e1 1a 3b e0 ed 4c 3e 1c 34 bc be 94 74 25 be
       0.002363305 0.20012617 -0.36758506 -0.16157752
0001e0 40 a3 8f 3c 08 3f 06 3e 99 e8 c3 3e 17 fb d7 3e
       0.017533898 0.13109982 0.38263395 0.42183754
0001f0 63 0e e7 bd af de 25 3d 4f 40 bd 3e 5e 29 04 be
       -0.11282041 0.04049557 0.36963126 -0.12906405
000200 8c 27 79 be 06 84 b6 be 48 51 88 3d 48 e9 74 3e
       -0.24331492 -0.356476 0.06656128 0.23917115
000210 27 cf df 3c 56 68 8e 3e c7 74 85 be 52 cb c9 3e
       0.027320458 0.27813977 -0.26065657 0.39412934
000220 40 cd ac 3e 7e ea fc 3d 4d 55 a9 bd d0 db 64 bd
       0.33750343 0.12349413 -0.08268223 -0.055873692
000230 ad 65 c8 3e a2 7b d3 3e f0 35 fa 3d 9e ba b4 3e
       0.39140072 0.41305262 0.12217319 0.35298628
000240 1b d9 c0 3e 00 3c 95 bc 6a 46 92 3d 80 8c 46 bd
       0.37665638 -0.018217087 0.07142337 -0.048473835
000250 2e 38 a7 3e 3d 17 7b 3d 73 8c d6 3d b6 87 17 3e
       0.3266005 0.06130146 0.10476007 0.14797863
000260 e0 42 be 3e a8 77 52 bd c8 56 b8 bd 60 05 f7 be
       0.37160397 -0.051383644 -0.09000927 -0.48246288
000270 17 42 87 be e7 ef 6e be 23 09 3a be b5 f7 6f be
       -0.2641761 -0.23333703 -0.18167548 -0.23434336
000280 d1 d1 5f 3e 8e d7 9c bd 34 8e ad bd 9c 9d 08 be
       0.21857382 -0.07658301 -0.08474389 -0.13341373
000290 40 16 b2 bd 5d ab 36 be a1 aa 43 3e 20 87 b1 3d
       -0.0869565 -0.17838807 0.19108059 0.08668351
0002a0 41 6b 7c be 7c fc b4 be 6e ce 99 3e 0b f8 41 3d
       -0.24650289 -0.3534888 0.30040306 0.047355693
0002b0 19 ab dc bd d9 e0 05 bf 40 0b 0c be 1a 96 72 be
       -0.10774822 -0.52296215 -0.13676167 -0.23690072
0002c0 fc e4 b2 be c2 5c 65 be ea 17 d3 be d6 7d 36 3e
       -0.34940326 -0.22398666 -0.41229182 0.1782144
0002d0 56 92 1c be 95 93 d7 bd 5a fc 69 3d 6b 65 53 3e
       -0.15290198 -0.10526196 0.057125427 0.20644157
0002e0 83 5b 87 3e 42 81 e3 3e 28 ac 58 bd 60 e6 bf 3c
       0.26437005 0.44434553 -0.052898556 0.023425281
0002f0 99 b6 a3 3d ce 4f ef 3e 39 70 f7 be af a8 00 3e
       0.07993812 0.46740574 -0.48327807 0.12564348
000300 6b bb dd be 91 3e a5 be ff e9 1a 3e cc 3a d0 3e
       -0.4330705 -0.32274297 0.15128325 0.40669858
000310 be 5f 8f be 60 dd 07 be b1 6d 59 be b8 cd 39 3c
       -0.28002733 -0.13268042 -0.2123325 0.011340551
000320 ef 11 af bc 84 2a f7 3d 5f c5 08 bf 8b 2b a0 be
       -0.021370856 0.12068656 -0.53426164 -0.3128322
000330 5c d0 a3 3e 8c c7 da 3e de e6 f7 3d 4b 28 31 3e
       0.31994903 0.42730367 0.12104581 0.17300527
000340 87 b7 e3 3e 98 df b0 be b1 a8 69 be 3c 30 6c 3e
       0.44475958 -0.34545588 -0.22818257 0.23065275
000350 b3 d4 28 3e a7 bc 9c 3d 27 d5 ed 3d 5b 9d 00 3e
       0.16487388 0.0765317 0.11612921 0.12560026
000360 c7 a2 89 3e 48 bf 15 be 83 28 8d be 68 b3 52 3e
       0.26882002 -0.1462375 -0.2756997 0.2057625
000370 58 a6 39 3d b5 01 b6 3e 20 13 9b 3e 74 51 92 3e
       0.045324653 0.35548177 0.3028803 0.2857777
000380 9f 6c 68 3e 67 eb 8a 3e 95 80 9a 3d d6 4a 94 3e
       0.22697686 0.27132723 0.07544056 0.28963345
000390 f0 fd 74 3e 1a 95 be 3e 00 f0 e3 3a 44 b8 86 3e
       0.23924994 0.3722313 0.0017390251 0.2631246
0003a0 7f 21 c4 3d 95 9c c0 3e 2c 86 64 3d e8 7a ba 3e
       0.095767014 0.37619463 0.05579202 0.36421895
0003b0 e2 30 4a 3e 99 4d 12 3e 13 60 36 3e ef 2e 7e be
       0.1974521 0.14287414 0.17810087 -0.24822591
0003c0 07 34 7b 3e 97 6e 27 3c c8 37 ac be 0b 03 be be
       0.24531566 0.010219238 -0.33636308 -0.37111697
0003d0 b0 e8 b1 3c 78 12 08 3e 43 41 0e 3e d0 66 0a bd
       0.0217174 0.13288295 0.13892083 -0.033789456
0003e0 39 96 ba 3e 6f 17 9b 3e 63 bf 73 be 05 9e a4 3d
       0.36442736 0.30291316 -0.23803477 0.08037952
0003f0 28 31 c1 3e e8 ab c9 3d ec 97 94 be ca a5 e2 be
       0.37732816 0.09847242 -0.29022157 -0.44267112

FC.0.bias f4 [128]
000000 1e 20 9e 3d 29 82 3d 3e 18 83 9a bc b1 2d d9 3d
       0.077209696 0.18506683 -0.018861338 0.10604418
000010 5b 74 26 3e d8 9e ae bd b1 a3 74 3d ed 81 24 3e
       0.16255324 -0.08526391 0.05972642 0.16065188
000020 98 78 5a 3e 6c 30 a4 bd 30 a2 28 3e e8 46 0c 3e
       0.21335065 -0.08017048 0.1646812 0.13698924
000030 43 54 20 3e b2 8b 73 3d c8 0e fe bd c3 2f 14 3e
       0.15657143 0.059459396 -0.12405163 0.14471345
000040 18 ce 0f 3d 08 20 9a bd c3 5a b2 bd 98 56 1e be
       0.035108656 -0.07525641 -0.08708718 -0.1546272
000050 d7 f9 04 3e 9c 74 00 be dc e1 09 bd f4 4f 82 bd
       0.12985931 -0.12544483 -0.033662662 -0.06362906
000060 70 c0 f6 3d c2 9f dc bd 4d b2 a8 bd a6 94 9a 3c
       0.12048423 -0.10772659 -0.08237133 0.01886971
000070 40 a9 60 3d 1a f0 72 bd 22 0d 14 3e 7d 15 b9 3d
       0.05484891 -0.05931101 0.14458135 0.09037302
000080 8c fc a4 bd be 9c fd bc f9 e6 28 bb 8d e6 4f 3d
       -0.08055982 -0.03095853 -0.0025772436 0.05075698
000090 cc a9 2e 3e 67 cb 7f bc 88 39 bf bc 0a f3 6c bc
       0.1705696 -0.01561246 -0.023342863 -0.014462242
0000a0 aa cd 0c 3e a6 7b ea bc 87 b5 34 3e fe 9d 2b 3e
       0.1375033 -0.028623413 0.17647372 0.16759488
0000b0 5b 58 10 3e f1 78 f6 bb 9b da 8d 3d 32 58 2f 3e
       0.14096205 -0.0075217416 0.06926461 0.17123488
0000c0 20 c8 b1 3b 00 71 c2 bd d7 9a b7 3d b0 19 b3 3d
       0.005425468 -0.09494209 0.0896508 0.08745134
0000d0 e1 bb 0e 3e e1 70 82 bd 36 be 87 3d 75 34 b4 3d
       0.13938858 -0.06369186 0.06628077 0.08799068
0000e0 84 49 00 3d b0 64 45 be 8b 9c 0d 3d 79 64 d3 3d
       0.03132011 -0.1927669 0.03457312 0.10321898
0000f0 99 51 43 3d 3b f1 83 3d df 26 e4 bc 32 0d d9 3d
       0.04768524 0.064424954 -0.027850566 0.1059822
000100 92 31 e5 3d 21 a6 63 bd e0 c7 80 bd e1 57 dd 3d
       0.111910954 -0.055578355 -0.06288123 0.10807777
000110 19 85 01 3e bb bd 19 be 32 bc f4 3c 70 44 ff bd
       0.12648429 -0.15013783 0.029874895 -0.12464225
000120 aa 02 8c 3d 01 81 db 3b 19 c4 13 3e c0 95 9c 3d
       0.06836446 0.006698728 0.14430274 0.0764575
000130 29 3a 26 be 75 59 f5 3d 62 38 7a 3d 56 c8 42 3e
       -0.16233124 0.11979953 0.061088927 0.19021735
000140 5c bd 21 3e a0 3f 0a be 57 66 d5 ba 37 33 1b 3e
       0.15794891 -0.13500834 -0.001628111 0.15156256
000150 32 13 18 3d 07 ab f5 bd b2 a2 be 3d 59 6a c0 3d
       0.03712768 -0.119955115 0.093083754 0.09395284
000160 64 ed aa bd 14 7e 79 3c 1f bd fc bd 8d 0a 90 bd
       -0.0834606 0.015227813 -0.123407595 -0.070332624
000170 eb b0 92 3d 34 d4 d1 3c 6e 06 29 be 7a 68 17 3d
       0.07162651 0.025613882 -0.16506359 0.03696487
000180 21 22 5c 3d fa 1e 30 bd 14 8d 3a be 5b 78 14 3d
       0.053743485 -0.04299829 -0.1821788 0.036247592
000190 e9 f3 e7 3d e5 3f d3 bd 2c 3b db bd 56 a1 bb 3d
       0.11325819 -0.10314921 -0.107046455 0.09161632
0001a0 9d f1 89 3c a5 ad 53 3d e9 57 ee bd dd 98 82 3d
       0.016838843 0.051679272 -0.11637861 0.063768126
0001b0 5f e4 ef 3d 80 a5 f1 3d 65 3d c6 3d be 50 c1 3d
       0.1171348 0.11799145 0.09679679 0.094392285
0001c0 48 db 11 3e 3f c6 17 be d4 d4 9b bc af 0b 34 bc
       0.14243805 -0.14821719 -0.019022383 -0.010989114
0001d0 54 13 69 3d 48 fc 1a bd d6 7d bb bd af 2f 06 3e
       0.0569032 -0.03783825 -0.09154861 0.13104127
0001e0 96 91 ae bb 0d e9 00 3d e3 a6 12 3e c8 36 b7 bc
       -0.005327414 0.031472255 0.14321475 -0.022364989
0001f0 60 59 38 3e ea 94 16 bd 22 4e 30 3d 80 51 14 3d
       0.18002844 -0.03676311 0.043043263 0.036210537

FC.2.weight f4 [128, 128]
000000 c5 06 3f be af 94 0a be af 36 91 3e 18 54 51 3e
       -0.18654926 -0.13533281 0.28362033 0.20442235
000010 70 ae 9d bc 75 44 07 bd 04 28 55 be e6 29 50 3d
       -0.019248217 -0.03302427 -0.20816046 0.050821207
000020 41 f3 17 be bf 2b 47 3e e1 58 06 3d 41 9b 65 be
       -0.14838888 0.19450282 0.032799605 -0.22422506
000030 b9 b8 96 3d 3f 20 3d 3e a5 cc 1c 3d 22 f8 35 be
       0.07359452 0.18469332 0.0382811 -0.17770436
000040 0f 24 ce 3c 24 df 35 bd 26 7b 49 bd 89 41 3f 3d
       0.025163678 -0.044402257 -0.04918971 0.04669336
000050 3e ab 6a be bb 07 d3 bd 1b 8a cf be 4b 4e 1d bd
       -0.22916886 -0.10304209 -0.40535054 -0.038404744
000060 a1 e0 20 3c c8 01 d5 3d d5 45 42 3e 0e 2a ad bd
       0.009819181 0.1040073 0.18971951 -0.08455287
000070 bb d8 c4 bd 60 b2 90 bc 7d ea ed bd 1c ce 03 bd
       -0.096116506 -0.01766318 -0.11616991 -0.032178983
000080 ee 6c 1d 3e e4 99 5a be c9 6f 26 3e cd 40 dc bd
       0.15373585 -0.21347767 0.1625358 -0.10754547
000090 8f 58 6d bb d9 5d 9e 3d cd be 60 bb e3 c1 31 be
       -0.0036216115 0.07732744 -0.0034293414 -0.17359118
0000a0 9c f4 e5 bb 48 2e a2 3d cb 9c 30 3e 85 7d ae bd
       -0.007017685 0.07918984 0.17247312 -0.08520035
0000b0 07 1e d7 3c f7 fa 07 be 2a eb 35 3c 68 46 82 bd
       0.026259435 -0.13279329 0.011103431 -0.06361085
0000c0 e2 9a 1c 3e 24 76 13 3e 85 dc 82 3d d6 73 7c be
       0.15293458 0.14400536 0.06389717 -0.24653563
0000d0 2d 78 c5 bd a2 56 60 be 90 9a 26 3e 16 a3 03 be
       -0.09642062 -0.21908048 0.16269898 -0.12855181
0000e0 5f b7 52 be 49 ab c3 3d ab a2 77 bd 0d 29 76 3e
       -0.20577763 0.095541544 -0.060457867 0.24039097
0000f0 a5 77 84 3d 01 4a b3 3d 14 e6 a2 bd 20 6a 4a 3e
       0.06468133 0.087543495 -0.0795404 0.19767046
000100 b6 08 9e 3c bf a7 c7 bd cf 28 2f 3e 8f 44 52 be
       0.019291263 -0.09748792 0.17105411 -0.20533966
000110 37 d4 83 3e d6 f1 8a 3e bd 59 6b be c2 c5 25 3e
       0.25747845 0.2713763 -0.22983451 0.1618872
000120 5e 39 67 3d 36 5b f5 3d 31 b5 02 be d7 ae 85 be
       0.056451194 0.11980288 -0.12764432 -0.26109955
000130 4d e8 44 3d f8 8d 38 3e fc c7 e2 bd 19 f7 81 3d
       0.0480731 0.18022907 -0.110733 0.06345958
000140 d9 97 7c 3c 65 0b 39 3e 27 38 a0 3b 08 69 0f 3e
       0.015417063 0.18070753 0.0048895064 0.1400491
000150 c7 f2 0d be 79 f8 58 3e b4 4f d7 3c 97 46 39 be
       -0.13862143 0.21188535 0.026283123 -0.18093334
000160 66 dd cb bd 99 0e d5 bd 04 89 2f 3c c0 5b 2d 3e
       -0.09954338 -0.10403175 0.010713819 0.16929531
000170 53 72 b0 be d9 d7 74 be 85 c4 12 3e f6 81 60 be
       -0.34462222 -0.23910464 0.14332779 -0.21924576
000180 06 1f 30 be c9 05 af bd 11 44 85 3d aa 83 41 be
       -0.17199335 -0.08546025 0.06507123 -0.18897882
000190 43 86 bf 3d 1b 87 5c be 99 da 85 3c be a2 e4 3c
       0.0935178 -0.21535914 0.016339587 0.027909633
0001a0 15 2d 8a 3e dc f6 37 3e 9f b3 6b 3e 04 e7 80 3e
       0.2698752 0.17965263 0.23017739 0.2517625
0001b0 18 b7 11 be f0 1b fb bb 1c f9 c0 bd d9 00 33 3e
       -0.14230001 -0.0076632425 -0.09422514 0.17480792
0001c0 2c eb 17 be fa 8d b2 3d 42 f2 29 be a1 0a f0 bc
       -0.14835805 0.08718486 -0.1659632 -0.029301943
0001d0 8a 7c 83 bc 99 49 88 3d 86 0c 56 be 2c b5 5b 3d
       -0.016050596 0.06654663 -0.20903215 0.053639576
0001e0 36 51 06 bd ad dd 25 3e fb bb 20 3d 72 b6 8b 3b
       -0.032792293 0.16197844 0.039241772 0.0042636925
0001f0 a1 14 38 be 5d 31 5f 3e 6d c0 36 bd 6b 22 63 3c
       -0.1797662 0.21796174 -0.044617105 0.013863186
000200 0b ea ea 3d b0 f1 53 3e 5e ba 86 be 58 47 1c be
       0.114704214 0.20697665 -0.26314062 -0.1526159
000210 79 7b 11 be 56 a5 64 3e 11 b1 50 bb 95 48 dc bd
       -0.14207257 0.22328696 -0.003184382 -0.107560314
000220 c9 9d 08 bd 8a 8b 04 3e 2a 18 9a bd 79 64 ae 3d
       -0.0333536 0.12943855 -0.0752414 0.085152574
000230 ca e4 54 bb 92 08 41 be 76 6c 12 3e b6 e0 96 bd
       -0.0032485002 -0.18850926 0.14299187 -0.07367079
000240 c5 bd 42 bd c1 25 39 3e a9 aa a7 bd be 18 8d bc
       -0.04754426 0.18080808 -0.08186848 -0.017223712
000250 62 c8 d9 bd c2 30 a1 3d 53 64 14 3e 75 c1 13 3e
       -0.10633923 0.07870628 0.14491396 0.14429267
000260 58 a7 39 3b 69 4b 37 3e 34 5c 1a 3e 56 dc 9d bc
       0.0028328504 0.1789986 0.15074235 -0.019270103
000270 c6 ba 89 be f8 c6 03 3d 06 4c 03 be 75 2a 6b 3c
       -0.2690031 0.032172173 -0.1282197 0.014353384
000280 ba ca 06 be 95 ba 0e 3e 06 09 b2 bd 6e b3 90 3b
       -0.13163272 0.13938363 -0.08693127 0.004415921
000290 3c 1d 01 be 35 e5 1f 3e 86 5f 12 be 8c 8e 35 3e
       -0.12608808 0.1561478 -0.14294252 0.17730159
0002a0 7e 82 d2 3c e4 1e 2c 3e fd 77 62 bd 24 48 a9 bd
       0.02569699 0.16808659 -0.05529021 -0.08265713
0002b0 ee 5c 20 3e 59 39 55 bd 95 35 11 3e 39 05 2b 3e
       0.1566045 -0.052056644 0.14180596 0.16701211
0002c0 b2 15 04 be 4f 5a 6d 3c 80 49 18 be f0 d4 31 3e
       -0.12898901 0.014486863 -0.14871788 0.17366385
0002d0 cd df 6a 3c cd 4a 54 bd ef 76 47 bd 1e dd 25 3e
       0.014335585 -0.051829148 -0.04869741 0.16197631
0002e0 47 26 6a be d7 bb bc bd 52 bc a0 bd df ca 70 3c
       -0.22866164 -0.09215515 -0.07848419 0.014696806
0002f0 18 2a 89 3e 60 6e 12 3d 42 b9 ac bd 3c 56 b9 bd
       0.26789927 0.035749793 -0.084337726 -0.09049651
000300 ee cc ce bd f9 88 14 be aa bb 6f 3e 0b fd 15 3d
       -0.10097681 -0.14505376 0.23411432 0.036618274
000310 8d b8 34 3e be b5 9a bd 83 3c 6d bd 46 38 e9 3d
       0.17648526 -0.07554196 -0.057919037 0.113876864
000320 40 56 4a 3e 91 49 74 3e 4f b2 38 3e ef 63 08 be
       0.19759464 0.23856188 0.1803677 -0.13319372
000330 97 f9 37 be 4e d3 61 3e 19 ce 4a bc 1c ac e1 3d
       -0.17966305 0.22053263 -0.012378239 0.110191554
000340 f2 a6 5c be f3 3b ea 3b 5c d7 3c be ca e9 88 3d
       -0.2154806 0.00714826 -0.18441528 0.06685217
000350 fd 2c 2e be 17 21 15 3e c8 25 1f 3b 1c 53 2a 3d
       -0.17009349 0.14563404 0.0024283994 0.041583166
000360 d6 27 6c 3d 92 e0 3f bc d9 02 1c 3e 3f b3 c0 bd
       0.057655178 -0.011711257 0.15235461 -0.094091885
000370 25 a5 44 3e 89 b0 1f bd 86 3b 83 bd 73 dd 2f 3e
       0.19203623 -0.038986716 -0.064078376 0.1717432
000380 72 7b c2 3d 46 3b 32 3e 8d f5 92 bd 60 6e 1e be
       0.094962016 0.17405424 -0.07175741 -0.15471792
000390 1c d9 de 3d 66 62 3a bc 50 ba 0c be d6 d4 19 be
       0.10881254 -0.011375999 -0.13742948 -0.15022597
0003a0 0d b7 2d be 52 e2 c9 bd ac b3 05 3e f7 6a 8f 3d
       -0.1696436 -0.0985762 0.1305682 0.07002824
0003b0 8a 76 1c 3c bd 16 9d 3d d1 f3 65 3e ff 2f c4 3d
       0.009549746 0.076703526 0.2245629 0.09579467
0003c0 03 bd 33 3e 2d b1 a2 bd 7f c7 45 3e 5a 62 31 3e
       0.17552571 -0.0794395 0.19314383 0.17322674
0003d0 7f 21 a0 3d 39 41 18 3c 7f 76 1f 3e 11 a6 22 3e
       0.07818889 0.009292894 0.15572546 0.15883662
0003e0 ff 10 a5 3d 16 03 2f be 4d 6e 72 3e d2 c4 24 bd
       0.080598824 -0.17091021 0.23674889 -0.040226765
0003f0 b2 d8 db 3c 74 69 e1 3c 6e 11 95 bd 33 8c 2f be
       0.026836727 0.027516104 -0.07278715 -0.17143326

FC.2.bias f4 [128]
000000 f1 90 c7 bd 72 0f c6 3d a1 cf 8a bd de 66 88 ba
       -0.09744442 0.09670915 -0.06777883 -0.0010406633
000010 da b8 01 3d ce 38 83 bc 9c ce 0d bc 29 fe c2 bc
       0.03167043 -0.016018298 -0.008655217 -0.023802834
000020 a9 92 8a 3d b1 40 97 3d 29 d8 81 bd 6c 61 4b bd
       0.067662545 0.07385386 -0.063400574 -0.049653456
000030 f0 a3 4a 3c d5 f7 ee 3d 1b 5b 64 3c 2b ac 0c 3e
       0.012368187 0.11668364 0.013937737 0.13737552
000040 11 06 5c 3d 3e 8a 6c 3d 87 39 d3 3d 79 3c bd 3d
       0.053716723 0.057749026 0.10313707 0.0924005
000050 d6 cc ee 3d 94 df 7c bd 06 15 95 3d 5f c3 a1 bd
       0.11660163 -0.06173666 0.072794005 -0.07898592
000060 82 0f 0e bd a1 af e8 bc 1e 5e 1a bd 1b 10 b2 bc
       -0.03468276 -0.028404059 -0.037687413 -0.021736195
000070 64 30 14 bd c5 e0 29 bb 70 c9 b0 3d 79 60 07 3d
       -0.03617896 -0.0025921327 0.08632171 0.033050988
000080 8b 36 dc bc 34 16 80 bd 01 36 7c 3c 1e e5 2f bd
       -0.026881477 -0.06254235 0.015393735 -0.042943113
000090 be 9d 6c bd 1f 52 9b 3d 30 37 ef 3d a3 9e b5 3d
       -0.057767622 0.07584023 0.11680448 0.08868148
0000a0 68 c5 5c bd 00 f4 8b bd 28 53 8e bd b4 c6 20 3d
       -0.0538992 -0.06833649 -0.069494545 0.039251998
0000b0 59 8d 18 3b 00 3a 46 bc 24 ea 9e 3d 77 9b 1f 3d
       0.002327761 -0.012098789 0.077595025 0.038966622
0000c0 d6 9b 01 3d 2d bb d1 3c e0 9e 08 bd 8b 5c 0e bd
       0.031642757 0.025601948 -0.03335464 -0.034756225
0000d0 ba c5 c2 3b 16 4e 84 bd 29 6f 88 3d 47 21 d6 bd
       0.005943981 -0.06460206 0.06661827 -0.10455566
0000e0 3d b5 12 3c a6 ea 9b bd 54 b1 84 3c 5c e3 17 bd
       0.008954343 -0.07613115 0.016197838 -0.03708206
0000f0 5f a9 44 bd 66 db 83 bb e6 e8 de 3c 19 60 8a bd
       -0.048013087 -0.004023957 0.027210664 -0.067566104
000100 c3 9d 96 3d 61 64 48 bd f0 79 bb 3a 85 e9 7a 3d
       0.073543094 -0.048923854 0.0014303308 0.061257858
000110 64 d8 b4 3c 65 14 30 bc 88 74 c0 3c 46 95 90 bd
       0.02207584 -0.01074705 0.023493066 -0.07059722
000120 77 48 a5 bd 8b 26 5e 3d 7e 9a bb 3d d8 4d 93 3c
       -0.08070462 0.054235976 0.091603264 0.017981455
000130 71 13 20 bd 33 20 9c 3c 47 8e fd bc 25 e1 77 3b
       -0.03908104 0.019058323 -0.030951632 0.0037823406
000140 a3 c0 d4 3c 48 7f c0 bc 8d 1f fe 3d c5 3a 27 bd
       0.025970763 -0.023498192 0.124083616 -0.04082753
000150 ae 35 45 bc 48 c7 49 3c ce ce 9c bd b9 39 a7 bc
       -0.012036724 0.012315579 -0.07656632 -0.020413266
000160 31 1c 90 3d 20 6d 44 3d b4 9e 1a 3d 2e d2 0e 3b
       0.07036627 0.047955632 0.037749007 0.0021792757
000170 ea a6 cb 3d d6 e0 9a 3c 50 53 dc bb 93 ed 18 bd
       0.09943946 0.018906038 -0.006723799 -0.037335943
000180 cd cd 5e 3d b6 cc 26 3d 00 a2 31 bb be 7f ab bd
       0.054395486 0.04072257 -0.0027104616 -0.08373974
000190 f0 0c ad bc ed 02 9a bd e1 dd 1f 3d 4b ab 3f 3d
       -0.021124333 -0.07520089 0.03902996 0.046794217
0001a0 ec 69 92 bd f9 a9 81 bd fb af cf 3c 4f e7 46 3b
       -0.07149109 -0.06331248 0.025352469 0.0030350273
0001b0 0d 51 f6 bc c5 9a 00 bd e6 df ce 3a c0 82 b1 3d
       -0.030067945 -0.0313976 0.001578328 0.08667517
0001c0 e2 f9 cf bc ba 98 80 3d e4 bd c5 3d d1 b9 86 3d
       -0.025387708 0.0627913 0.096553594 0.065784104
0001d0 05 1a 28 3c 32 8b 91 3d 92 0d d0 3c b4 88 82 3d
       0.01026011 0.071066275 0.025397096 0.0637373
0001e0 49 09 26 bd e6 4d aa bd 06 94 02 bd 5d be 4d bb
       -0.0405362 -0.08315639 -0.031879447 -0.0031393983
0001f0 5c dd 30 38 d9 87 af 3d 96 c6 18 3d f9 44 9e bd
       4.2167827e-05 0.08570833 0.03729876 -0.07727999

FC.4.weight f4 [64, 128]
000000 fb c2 db bd f9 00 c8 3d 18 e3 4c 3e 5f be aa bd
       -0.10730549 0.097658105 0.20008504 -0.08337092
000010 36 4a f7 bd 6d e3 ec 3d f9 7f 01 be 71 a8 fd 3d
       -0.120747015 0.115668155 -0.12646474 0.12385643
000020 b4 2c 75 be 82 5c bf bd bf e0 0a 3e 3c ad 3f 3e
       -0.23942834 -0.09343816 0.13562296 0.18718427
000030 ff 17 fd bd 06 85 3a be 6f e4 38 be 22 10 1f 3e
       -0.123580925 -0.18214807 -0.1805589 0.15533498
000040 b2 43 91 3d 8e 27 01 3e 71 be 3f 3e 78 e8 2a bd
       0.0709299 0.12612745 0.18724991 -0.041725606
000050 59 03 7d be ff e1 12 be e8 17 11 3e e9 9b 07 bd
       -0.24708308 -0.14344023 0.14169276 -0.033107672
000060 34 95 9d bd 86 54 0c be 80 82 80 3e 07 c3 eb bd
       -0.07694474 -0.13704118 0.25099564 -0.11511808
000070 1a bb 3b 3e e0 e8 7c be f1 22 42 be b5 ad 75 3d
       0.18333092 -0.2469821 -0.18958642 0.059980113
000080 25 8f 17 3e cc 29 39 be fb f2 68 3d 59 4d 11 be
       0.14800699 -0.1808235 0.05687235 -0.14189662
000090 a6 ed 02 3e a2 ec 4e be 0a 85 89 3d 8f 41 f7 bb
       0.12785968 -0.20207456 0.06714828 -0.007545657
0000a0 3d 4e 11 bd b8 f1 32 3e c2 6f d6 3d 44 f3 62 ba
       -0.035475004 0.17475021 0.10470535 -0.0008657465
0000b0 0f d5 f5 bd d6 9a 39 bd 9e 9e e7 3d 85 1f 08 be
       -0.12003528 -0.04531368 0.11309551 -0.13293274
0000c0 21 43 40 be 3c 4f a0 3d 33 32 97 bd f0 1c db 3d
       -0.18775608 0.07827613 -0.073826216 0.10698879
0000d0 5e 61 2b be d3 02 52 3d f5 16 8f bc 60 04 78 bd
       -0.16736361 0.051272225 -0.017467001 -0.060551047
0000e0 c6 d6 fd 3d f2 05 e9 bd 6a 65 14 3e 08 07 c9 bc
       0.123944804 -0.11378087 0.14491811 -0.024539486
0000f0 9c 72 34 3e 17 9a 14 3d 31 3e b8 bc 74 f2 12 3d
       0.17621845 0.036279764 -0.022490593 0.035875753
000100 1b 21 4b bd 9b 34 23 3d cc b5 17 be 4b ba e3 3d
       -0.04959212 0.03984509 -0.14815444 0.11119517
000110 41 98 f9 3c 3a b0 7f bd 7d d2 f2 3c ce c8 90 bd
       0.030468108 -0.062423922 0.029641384 -0.070695505
000120 41 f0 46 3d 74 1c 43 3e 37 18 00 bd 85 bd a3 be
       0.048568968 0.19053823 -0.031273093 -0.3198053
000130 74 0b 92 be 7b df 4d be 0a a4 ea bd 10 47 3b 3e
       -0.28524363 -0.20104782 -0.11457069 0.18288827
000140 ad d7 d1 3d 05 05 38 be a0 d7 1b 3e 6d 7c a0 3d
       0.10246215 -0.17970665 0.15218973 0.07836232
000150 5d b8 19 3e 82 d1 1c be 09 fa 0e be c9 36 43 3e
       0.15011735 -0.15314296 -0.13962568 0.19063868
000160 ca d2 87 be 0a fe 2c 3e 53 89 89 bd 70 97 2c 3e
       -0.26528007 0.16893783 -0.06715646 0.16854644
000170 42 e6 69 bc ab 87 1c be 71 c5 cc 3d 25 6f 49 bc
       -0.014276089 -0.15286128 0.099985965 -0.012294565
000180 e7 81 74 be 9a 17 54 3e 9a 50 b4 3d 7a 42 7a bd
       -0.23877679 0.20712128 0.08804436 -0.061098553
000190 12 76 9a 3d 13 d8 8a 3e 85 b6 ab 3d 90 a1 9e 3d
       0.075420514 0.27117977 0.08384422 0.07745659
0001a0 4a cf 57 3e 07 af e0 3a 96 2e 04 3e 69 6e d1 3d
       0.21075168 0.0017142006 0.12908396 0.10226137
0001b0 40 89 6c 3e a7 ac 9c bc f4 c7 1f 3e 84 05 c8 3d
       0.23099232 -0.019125296 0.1560362 0.09766677
0001c0 fa fb 67 3e ad 5d 20 be 18 57 a1 bc e2 c9 34 3e
       0.22654715 -0.15660734 -0.01969485 0.17655137
0001d0 c7 02 2e be ab 5c 3f be fc 14 e8 bd 3c 41 d5 bd
       -0.16993247 -0.18687694 -0.113321275 -0.10412833
0001e0 ce 79 c0 3d 67 4b 97 bd a7 ad 03 3e 25 73 f9 bc
       0.093982324 -0.07387429 0.12859212 -0.030450413
0001f0 25 8e 12 be 47 ef f9 bc 0a d2 0f be 54 9b 90 be
       -0.14312036 -0.030509604 -0.14044967 -0.28243506
000200 b5 c9 27 be 37 d0 28 3e d2 e6 03 3e 6e cd 8e 3d
       -0.16385539 0.16485678 0.1288102 0.06972776
000210 f3 23 8c 3d 61 41 ff bc da 94 80 3c 96 e3 ec bc
       0.06842794 -0.031159105 0.015695978 -0.028917115
000220 6f 5a 14 be 92 34 68 be 2c 9b a8 3e 0c 7d af 3e
       -0.14487623 -0.22676304 0.32930887 0.3427509
000230 e9 60 84 be be 02 08 bd 30 0c 3e 3e 76 1b 47 3e
       -0.25855187 -0.03320574 0.18559337 0.1944407
000240 91 13 43 be dd d7 23 be 9d ba 1d be 0c f2 23 be
       -0.19050433 -0.16000314 -0.15403219 -0.16010302
000250 95 ec 02 3d ab c1 1d 3e 3c 6d 04 be f7 fc 92 3e
       0.031963903 0.1540591 -0.12932295 0.28708622
000260 eb a9 f5 bd 56 15 df bd 47 25 be 3d 40 0b 83 bd
       -0.119953 -0.108927414 0.09284454 -0.0639863
000270 f2 5d 08 be 6e 70 6c 3e ce 84 09 be 8c 6f 87 bd
       -0.13317087 0.23089764 -0.13429567 -0.06613073
000280 83 55 81 3e 5b b9 26 be db b6 6d bd b7 30 a2 bd
       0.25260553 -0.16281645 -0.058035713 -0.07919448
000290 a1 d5 7c be e1 64 f6 bb 5a bd e8 3d b6 ca 07 be
       -0.24690868 -0.00751935 0.11364241 -0.13260922
0002a0 bc 5e d2 3c e4 b5 43 3d c9 43 2c bd 71 d0 03 3d
       0.025679938 0.047780886 -0.042056832 0.032181207
0002b0 16 32 6b bd 8d 4c 90 bd 4b f9 88 3e 11 79 ae bd
       -0.057420813 -0.07045851 0.26752695 -0.08519185
0002c0 f2 db a1 bd 40 56 5f 3e 8c dc 62 bd 26 d3 21 be
       -0.07903279 0.21810246 -0.05538611 -0.15803203
0002d0 79 0a da bb dd bc ee 3d 51 22 cf 3b 0b 2f 09 3e
       -0.0066540805 0.116571166 0.0063212295 0.13396852
0002e0 40 f8 ee 3d dc 52 87 be cc c4 62 3c e4 75 87 bc
       0.11668444 -0.26430404 0.013840865 -0.016535707
0002f0 8e 9b f6 3d ac af 3e 3e 8e ac 1f 3c 7d 43 a0 3c
       0.120413885 0.18621701 0.00974573 0.01956343
000300 86 bb ca bd 36 c0 00 be d8 e1 64 be 15 e3 38 bd
       -0.098990485 -0.12573323 -0.22351778 -0.045138437
000310 70 49 4a be ee 35 96 bd d3 64 2d 3e a1 93 3c 3e
       -0.19754577 -0.07334505 0.16932993 0.18415691
000320 96 7d 0c be 83 77 86 3e 71 38 d2 bd 45 43 87 be
       -0.13719782 0.26263055 -0.102646716 -0.2641851
000330 88 42 08 3e 24 ea 1f 3e d4 30 59 3b b7 b6 98 bd
       0.1330663 0.15616661 0.0033140676 -0.07456725
000340 2c ca 05 3d 3a 62 67 bd 0a a3 85 be cf 27 80 bc
       0.03266351 -0.05649016 -0.2610095 -0.015643982
000350 ad d3 1a 3d 63 73 ab bd bd 09 40 bd 7e 22 85 3d
       0.037799526 -0.08371618 -0.046884287 0.065007195
000360 59 70 98 be 07 21 62 bc ca e6 be bd d0 98 89 3e
       -0.29773214 -0.01380182 -0.09321363 0.268744
000370 2d fe 12 be 39 ae cd bd a3 ab 5a bd 99 e5 f1 bd
       -0.14354773 -0.10042996 -0.05338634 -0.118113704
000380 f4 80 8b bd 26 d1 d2 bd d5 e0 ac 3d da f6 3e be
       -0.06811705 -0.10293798 0.08441321 -0.18648854
000390 70 03 a4 3c 63 67 0a be cf 4e 19 3d 65 21 43 bc
       0.02002117 -0.13516001 0.037428673 -0.011909817
0003a0 5d 33 55 3d 68 db e7 bd 4f 74 84 3d c7 1c 9a bc
       0.052050937 -0.11321145 0.064674966 -0.01881255
0003b0 27 ba bb bd 86 ba 3f 3d 40 6a f6 3d 65 82 9d 3d
       -0.09166365 0.046808742 0.12031984 0.076908864
0003c0 1e de 34 3c 25 df e0 3b 58 e7 52 3b 5c 8a 6e 3e
       0.011039285 0.0068625384 0.0032181349 0.23294967
0003d0 34 d7 86 bd 2c 09 a1 3e 18 f5 a9 3d d4 5d 64 bd
       -0.065840155 0.3145231 0.08298701 -0.055753544
0003e0 64 bf bc bd a6 83 be 3d 26 e0 af 3d 37 c8 e0 3c
       -0.09216192 0.09302454 0.08587675 0.02743922
0003f0 a0 2f 81 3c 72 e5 89 3d db 3f 78 bd 72 28 5b bd
       0.01576978 0.06733216 -0.060607772 -0.05350537

FC.4.bias f4 [64]
000000 4e 2c ae bd 1a f4 6a 3d 52 23 97 bd a3 eb 00 be
       -0.08504544 0.0573617 -0.07379784 -0.12589888
000010 4e f0 b3 bd 94 ad 42 3d c6 75 1d bd b5 fe 15 3d
       -0.08786069 0.04752882 -0.038442396 0.03661986
000020 59 8b b5 3d 43 ab 74 bd 0b b7 32 3d 94 f6 69 3c
       0.08864469 -0.05973364 0.043631595 0.01427998
000030 c5 84 6e 3d 18 a4 e9 bc e9 03 9c 3c 67 91 cc bc
       0.058232088 -0.028520629 0.019044833 -0.024971677
000040 0c ea 4a 3d be de 67 bd b7 72 06 bc 10 cd 1e 3d
       0.04953961 -0.056608908 -0.008206061 0.03876978
000050 41 11 9d bc 10 73 80 3d fe c2 92 bd be 04 91 3c
       -0.019173266 0.062719464 -0.07166098 0.017702457
000060 0c cc 6a 3d d5 4a 30 bd 76 44 1e 3d f3 82 17 bd
       0.0573235 -0.043040115 0.03863951 -0.036990117
000070 bf a1 85 3b 92 b4 a3 3b f4 d3 e0 3d a2 cd 76 3d
       0.0040781195 0.004995891 0.10977927 0.0602547
000080 d9 19 4c bd 4d c2 47 3c ba 81 80 bd 5a 79 33 3d
       -0.049829338 0.012192321 -0.062747434 0.0438169
000090 52 2e 15 bc ba b8 c9 bc 45 12 20 bc 7b 52 46 bd
       -0.009105282 -0.024624217 -0.009769981 -0.048418503
0000a0 88 b2 df 3b fb 02 b7 3c 06 a2 cd bd c9 26 78 3d
       0.0068267025 0.022340288 -0.10040669 0.060583863
0000b0 bc 6c ac 3d 5d c8 69 3d 8a 15 5e bd 55 47 c5 bd
       0.08419177 0.057075847 -0.05421976 -0.09632746
0000c0 7c 2b a0 3d 81 05 92 bd 37 da 91 bb cd 34 b2 ba
       0.07820794 -0.07129956 -0.004451062 -0.0013596058
0000d0 03 3a 2c 3d f9 12 f6 ba f4 2b a8 3d af 2e 5f bc
       0.04204751 -0.0018773965 0.082115084 -0.01362197
0000e0 8e dd d0 3c 3c ec 99 3d 0d f8 86 3d b0 1c 3e 3b
       0.02549627 0.07515761 0.06590281 0.0029008798
0000f0 af d0 05 3c 44 53 8c bd f7 35 8f 3d e7 3e ba bd
       0.00816743 -0.06851819 0.06992715 -0.09094029

FC.6.weight f4 [10, 64]
000000 0a c1 00 be 30 db d5 bd 4e e4 a6 bd 6f 25 e4 bc
       -0.12573639 -0.10442197 -0.081490144 -0.027849881
000010 2d 29 b5 3b f4 f9 4a be dd 2f 9b 3d 3a 69 74 3e
       0.00552859 -0.19821912 0.075774886 0.23868266
000020 e1 5f b6 39 10 19 8e 3d 7d 73 9c be 65 e3 84 3c
       0.0003478518 0.06938374 -0.3055686 0.016221711
000030 57 37 8b 3e 41 c4 97 bc ce a9 2a 3e eb b1 1c 3e
       0.27190658 -0.018526198 0.16666338 0.15302245
000040 69 e7 87 bd 00 9f 2e 3e 94 db ff bc b6 f9 41 3e
       -0.06635935 0.17052841 -0.031232633 0.18942913
000050 80 1d b6 bd 26 8f 1e 3e b3 c5 2c be 30 36 3a be
       -0.088923454 0.15484294 -0.16872291 -0.18184733
000060 80 1a 18 3e 43 1a 12 be 59 00 6e bd 10 bf 5c be
       0.14853859 -0.1426783 -0.0581058 -0.2155726
000070 6d aa 6f 3d dc a6 61 bd 6b 13 9c 3e bf ba 1c be
       0.05851214 -0.05509077 0.30483565 -0.15305613
000080 26 c2 20 3e 47 22 80 be 88 9b 10 be 22 54 cd bd
       0.15699062 -0.25026152 -0.1412183 -0.10025813
000090 40 9e 1b be ab bf 14 bd 2c 62 8d bd 79 c6 9d 3d
       -0.15197086 -0.0363156 -0.069034904 0.07703871
0000a0 d7 81 03 be e5 f6 88 3d e2 a7 4a 3e 90 79 08 3e
       -0.12842499 0.066877164 0.19790605 0.13327622
0000b0 bb b1 4c be 60 0b b5 35 c7 67 29 be 76 c4 d7 3d
       -0.19989674 1.3488861e-06 -0.16543494 0.10535519
0000c0 3c 3b 88 be 07 ef 10 3e 98 95 8c be 27 66 a6 3c
       -0.26607692 0.14153682 -0.2745788 0.020312382
0000d0 68 09 a5 3d 8f 11 61 3d ac 6e 8e 3c e5 fe 60 3e
       0.08058435 0.054948386 0.017386757 0.21972235
0000e0 f2 cc bb bc 31 e7 cf be 09 cb 53 be 54 8d 73 3e
       -0.022924874 -0.40606073 -0.2068292 0.23784381
0000f0 8c 4e 33 bc f4 ef 02 be e3 48 16 be b6 6c 49 be
       -0.01094402 -0.12786847 -0.14676242 -0.19670376
000100 f0 47 97 be c3 19 28 bb b1 03 2e 3e d3 49 45 3d
       -0.2954707 -0.002565012 0.16993596 0.048166107
000110 b1 ab a9 bd fe 26 53 3e 35 a7 bd bc 08 5f 69 3e
       -0.08284701 0.20620343 -0.02315102 0.22790158
000120 d7 d8 b9 3d ee fc 5b 3d 5b 33 49 be c5 4e 72 be
       0.09074562 0.05370801 -0.19648497 -0.2366286
000130 88 c0 25 3e 17 e2 d1 3d 3a ec 85 be 1f ca 95 be
       0.16186726 0.10248201 -0.2615679 -0.2925577
000140 37 b8 33 bd 39 07 9b bc 01 6e 3b 3e 3e 8f c6 bd
       -0.043876853 -0.018924342 0.18303682 -0.0969529
000150 55 a1 0d bd 8a 7a a0 3c be 67 66 be e8 05 c0 3d
       -0.034577686 0.019589681 -0.22500512 0.093761265
000160 90 55 8e 3e 7d e1 81 be 0b f4 c1 bd c2 de 2f bd
       0.27799654 -0.25367346 -0.094703756 -0.042937048
000170 27 7b 17 bd 0e 60 c4 be 89 45 9c 3e a9 36 e6 bd
       -0.03698268 -0.38354534 0.305218 -0.11240894
000180 d6 3b 83 3e d3 c2 67 3e 54 44 3e be 2e 09 bb bb
       0.2563159 0.22632913 -0.18580753 -0.0057078814
000190 0d 20 6f be ed 80 e1 bc bb f0 ef 3d ae 51 25 bc
       -0.2335207 -0.027527297 0.117158376 -0.010090275
0001a0 5c 50 50 be 3b 5d 9b bd 4b ac 0a be 38 bd 9a be
       -0.20343155 -0.07586142 -0.13542287 -0.30222487
0001b0 a0 04 0d be 44 f3 ae be 1b f0 26 be cb 7e 07 bd
       -0.13771296 -0.34169972 -0.1630253 -0.033079904
0001c0 d1 c2 2e bd 47 a0 1f be 0b c0 02 be a1 5d 5f 3c
       -0.04266626 -0.15588485 -0.12768571 0.013633163
0001d0 61 6e 8a 3e e0 13 ac 3e 3d d9 9d be 49 4a bf be
       0.27037337 0.33608913 -0.30829802 -0.37361363
0001e0 a7 7a c2 3e be bc 55 bc 5f 30 3a bd ff 6a 69 3d
       0.379842 -0.013045488 -0.045456287 0.056986805
0001f0 4f 1d 42 bc f6 ae 3c bc 64 72 79 3e cc b9 05 3d
       -0.011847808 -0.011516323 0.24360043 0.032647893
000200 9d 85 cc 3e 42 60 23 3e 6b f1 43 be 2e 6d c5 3d
       0.3994569 0.15954688 -0.19135062 0.09639965
000210 ec 93 37 bd 55 25 b9 be 34 da 50 be aa 14 8d 3d
       -0.044818804 -0.36161295 -0.20395738 0.06888707
000220 5b 49 8d be 1c 4d 9f 3e 65 35 8e be 18 b2 40 3e
       -0.27595028 0.31113517 -0.27775112 0.18817937
000230 81 90 1f 3d db 0d a7 be 8c 3c 51 be 56 00 56 3c
       0.03895617 -0.32627758 -0.20433253 0.0130616035
000240 66 ba ab bd 95 46 e9 bd 0a 71 a4 be 34 17 03 3e
       -0.08385162 -0.113904156 -0.32117492 0.1280182
000250 22 80 2f be da fe 84 be 04 9b 23 be c5 d6 bc bd
       -0.17138723 -0.25975686 -0.15977103 -0.092206515
000260 2d 7d ff 3c c2 dc 8c be 1a f6 26 be 7a a7 91 3d
       0.031187618 -0.27512175 -0.16304818 0.07112022
000270 1c 86 a4 be 3b fe 2e be 8e 4b 59 be 02 df 41 bd
       -0.32133567 -0.17089169 -0.21220228 -0.047331817
000280 6d 4e 9a be eb f1 1c 3e bf ca 0b bb 2b 70 a9 3e
       -0.3013796 0.1532666 -0.0021330563 0.3309339
000290 47 bc 73 be 9c 9c c3 3b ed 6b 6a be 6e 59 75 be
       -0.23802291 0.005969597 -0.22892733 -0.23959896
0002a0 ae a0 77 be d2 4c 90 3e 7a 7a 08 3d 73 f7 2a 3e
       -0.24182388 0.2818361 0.033319928 0.16695957
0002b0 3e e1 7d 3e 29 11 2d 3e 65 db 86 be 79 df 1c bd
       0.24792954 0.16901077 -0.2633926 -0.038299058
0002c0 9e 80 7e 3d 3a 28 a1 be cd 51 25 be 5a fb 7f 3e
       0.062134378 -0.31476003 -0.16144486 0.24998227
0002d0 08 58 f3 bd b5 5d 44 3e 2c 74 63 3e 1d 33 74 be
       -0.11882025 0.19176371 0.22212285 -0.23847623
0002e0 63 2e 15 3e 25 06 95 3e c8 9c a3 be 2d c3 cc bd
       0.14568476 0.2910625 -0.31955552 -0.09998164
0002f0 f2 5a d6 3d 7b 39 6f be af 0f 6c bd 74 4d 09 be
       0.10466565 -0.23361771 -0.057632145 -0.13408452
000300 28 91 5d 3e a5 02 4f be a2 67 07 3e 07 51 12 3d
       0.21637404 -0.20215853 0.13223127 0.035721805
000310 50 a9 44 3e f2 b8 d4 3d c1 53 9a be 63 fc 1c 3d
       0.19205213 0.10386838 -0.30142024 0.038326632
000320 b2 2e 55 be b5 ac a0 3e 21 ce ac 3e 2c f9 82 be
       -0.20818594 0.31381765 0.33751014 -0.25580728
000330 70 8c 38 3e c6 e2 51 3d cf a5 c2 be 57 ce b7 bd
       0.18022323 0.05124166 -0.38017127 -0.08974903
000340 88 e2 be 3e 6c 81 2b 3e e7 a4 aa 3d 31 bd eb 3d
       0.37282205 0.1674859 0.08332234 0.11510695
000350 e1 57 36 bd 89 2f 70 bd d2 cb 33 3e 12 20 89 be
       -0.0445174 -0.058639083 0.1755822 -0.2678228
000360 34 71 c1 3e 11 b9 f8 3b 9a 04 f5 3d 7f 1e 8a be
       0.3778168 0.007590421 0.11963768 -0.26976392
000370 01 b4 79 3e a7 9b a0 3e 76 3d ce 3d fb 59 36 be
       0.24385072 0.31368753 0.100703165 -0.17807762
000380 62 ed 73 3e 30 b5 ad 3e 1a a8 84 3e 68 ec 4f 3d
       0.23821023 0.33927298 0.259095 0.050762564
000390 89 ec b0 3d 30 9c 9c be f3 d7 dd 3d 8a 45 b1 bd
       0.086388655 -0.30587912 0.10832205 -0.08655842
0003a0 a6 4a 86 be 6b aa 9c bd 51 52 aa be 9f 12 1d be
       -0.26228827 -0.07649692 -0.33265927 -0.15339135
0003b0 e0 8f ac 3b 0e 65 19 be b6 9f ad be 9f f7 4f 3c
       0.0052661747 -0.14979956 -0.33910912 0.012693315
0003c0 71 2f d9 bd 94 5f bc 3c 00 da a2 3e c3 34 96 be
       -0.10604752 0.022994794 0.31806946 -0.2933713
0003d0 79 06 86 be 19 42 22 3e 03 4d 8b 3d a6 29 81 be
       -0.26176813 0.15845527 0.06801798 -0.25227088
0003e0 29 95 5b 3e 20 1d b4 3e f2 d3 8d 3e 33 2f 40 bd
       0.21443619 0.3517847 0.27700764 -0.046920013
0003f0 d6 c4 51 3e ca 2c 2e be 0c 83 18 3d e9 4d 49 be
       0.20485243 -0.17009273 0.03723435 -0.19658627

FC.6.bias f4 [10]
000000 b9 a5 a6 3b 6f 8d ac 3d a7 26 17 3d 7b 71 94 bd
       0.0050856736 0.08425414 0.036902096 -0.07248207
000010 9f 83 f6 bd aa 28 6f 3d b6 f4 12 be 71 fd c5 bb
       -0.120368235 0.05838839 -0.14351162 -0.0060421755
000020 08 c0 00 3b 67 fe 4a bd
       0.001964571 -0.049559023
