Ai Elevator/Traen1/Outputs/final_weights_1000.pth (torch, 122791 bytes, 8 tensors)

FC.0.weight f4 [128, 33]
0	0xbec03b8f	-0.3754544
1	0xbe8101f7	-0.25196812
2	0x3e57cbb3	0.21073799
3	0x3e9db350	0.30800867
4	0x3ed0c657	0.4077632
5	0x3ead136d	0.33803883
6	0x3e731dfd	0.23741908
7	0xbddcc245	-0.107792415
8	0xbe8f0a5e	-0.27937597
9	0xbe1b24ef	-0.15150808
10	0xbe904a8f	-0.28181884
11	0xbef54e7e	-0.47911447
12	0xbdd3f798	-0.10349959
13	0x3d098838	0.033577174
14	0x3d7ae552	0.061253853
15	0x3eda55b1	0.42643502
16	0xbd0ede68	-0.034880072
17	0x3e97a22d	0.29615918
18	0x3e50c00f	0.20385765
19	0xbe026eb2	-0.1273754
20	0xbd9b6659	-0.07587881
21	0x3dfb7cb0	0.12279642
22	0xbed754c7	-0.42056867
23	0x3dea8164	0.114504606
24	0xbc0cebe7	-0.008601165
25	0xbe8116ba	-0.25212651
26	0xbdfb3a5e	-0.12266992
27	0x3ed8cf5f	0.42345712
28	0xbedc3940	-0.43012428
29	0xbc927099	-0.017875956
30	0xbe7c2117	-0.24621998
31	0xbeaddf14	-0.33959258
32	0x3e7929f8	0.24332416
33	0x3e169611	0.14705683
34	0x3e96f222	0.29481608
35	0x3ec3621b	0.38160786
36	0xbdf33f3e	-0.11877297
37	0xbeced6ee	-0.40398353
38	0xbe7d6d28	-0.24748671
39	0xbf1e030e	-0.6172341
40	0x3eba7b5e	0.36422247
41	0x3ca44391	0.02005175
42	0xbd33737f	-0.043811318
43	0xbe9d20d9	-0.30689123
44	0xbdc2c16c	-0.095095485
45	0x3e439466	0.19099578
46	0x3e6f7874	0.23385793
47	0xbebf38af	-0.37347934
48	0xbecf0ccc	-0.4043945
49	0xbc164442	-0.009171547
50	0x3e8a3ba6	0.26998633
51	0xbe227208	-0.15863812
52	0xbe45757e	-0.19283101
53	0xbd295c2a	-0.04134766
54	0xbe478860	-0.19485617
55	0x3ecfdffc	0.40600574
56	0xbe45dedf	-0.193233
57	0x3ea0c852	0.31402832
58	0xbe40211c	-0.1876263
59	0x3cd950f2	0.026527856
60	0xbf0032aa	-0.5007731
61	0xbedd0f89	-0.43175915
62	0x3d84c72c	0.064833015
63	0xbe8d1f28	-0.27562833
64	0xbd8c696c	-0.06856045
65	0x3ebe7378	0.3719747
66	0x3e860be6	0.26180953
67	0x3aab9388	0.0013090232
68	0x3e5b7938	0.2143296
69	0xbe9dd275	-0.30824628
70	0xbe9c85f8	-0.3057096
71	0x3dc0539b	0.093909465
72	0x3e8eb940	0.2787571
73	0x3ed98e91	0.42491582
74	0xbe868af8	-0.262779
75	0x3d266f03	0.040633213
76	0xbef05325	-0.46938434
77	0x3e91f1aa	0.28504688
78	0x3e932a76	0.28743333
79	0x3e3d3b98	0.18479764
80	0xbf81d741	-1.0143815
81	0xbe328fb7	-0.17437635
82	0xbe126dc2	-0.14299682
83	0x3b3cc9a8	0.002880672
84	0x3e52dd58	0.20592248
85	0xbe54b597	-0.20772396
86	0x3e84ce9d	0.25938883
87	0xbe958327	-0.29201624
88	0xbed7fa90	-0.42183352
89	0xbe3ff259	-0.18744792
90	0xbeb05b90	-0.34444857
91	0x3e20086a	0.1562821
92	0x3e9fead9	0.31233862
93	0x3d897c3e	0.067131504
94	0xbee28b12	-0.44246727
95	0x3f069524	0.5257132
96	0xbdf2b500	-0.11850929
97	0xbe401c9f	-0.18760918
98	0x3d395090	0.045242846
99	0x3de5b473	0.112160586
100	0x3e86029f	0.26173875
101	0x3e43d202	0.1912308
102	0x3df39725	0.11894063
103	0x3ec9985e	0.3937406
104	0x3ee2b83d	0.44281188
105	0xbe5f6c5b	-0.21818678
106	0xbe92018c	-0.28516805
107	0xbed50f1a	-0.41613084
108	0xbdcec150	-0.10095465
109	0x3e96e4d0	0.29471445
110	0xbea00822	-0.31256205
111	0xbf36e6cc	-0.7144592
112	0xbe880064	-0.26562798
113	0xbd68ec0b	-0.056865733
114	0x3e407bd8	0.18797243
115	0xbdb1f854	-0.08689943
116	0xbdfae748	-0.12251145
117	0x3e4d3554	0.20039874
118	0xbe7e366a	-0.24825445
119	0xbed8977b	-0.4230307
120	0x3c8fa340	0.017533898
121	0x3e063f08	0.13109982
122	0x3ecb824a	0.3974784
123	0x3ea4d134	0.3219086
124	0xbdc872cb	-0.0978752
125	0x3dc6c67e	0.09705828
126	0x3e8c3e50	0.2739129
127	0xbe1cfee9	-0.15331616
128	0xbd65b703	-0.056082737
129	0xbeb68406	-0.356476
130	0x3d885148	0.06656128
131	0x3e74e948	0.23917115
132	0x3cbe4f37	0.023231132
133	0x3e9d5e2f	0.3073592
134	0xbe457c8b	-0.1928579
135	0x3eb00784	0.34380734
136	0x3eb566a9	0.35429886
137	0x3e42b44f	0.19014095
138	0xbba6178e	-0.005068726
139	0x3dcb52db	0.09927913
140	0x3ec457d8	0.3834827
141	0x3efede1a	0.49778825
142	0x3d87750e	0.06614123
143	0x3ecee766	0.40410918
144	0x3dd3a1b5	0.103335775
145	0xbc953c00	-0.018217087
146	0x3c9cc024	0.019134589
147	0x3d347968	0.044061095
148	0x3ec28424	0.3799144
149	0xbe675789	-0.22591986
150	0x3dbe23c8	0.092841685
151	0x3da22613	0.07917418
152	0x3ee6105f	0.44934365
153	0xbd5277a8	-0.051383644
154	0xbdb856c8	-0.09000927
155	0xbedd54c3	-0.4322873
156	0xbee16d54	-0.44028723
157	0xbefaf43f	-0.4901447
158	0xbdf37a25	-0.118885316
159	0xbec9ea8a	-0.39436752
160	0x3e7ee426	0.24891719
161	0xbe465f12	-0.19372204
162	0xbdad8e34	-0.08474389
163	0xbe089d9c	-0.13341373
164	0xbdb21640	-0.0869565
165	0xbdfb60b2	-0.122743025
166	0x3e08119a	0.13287964
167	0x3de7eaf2	0.11324109
168	0xbe3bb5d7	-0.18331085
169	0xbeba34e9	-0.36368492
170	0x3eb66606	0.35624713
171	0x3e40e82f	0.18838571
172	0xbc4ffdf3	-0.012694824
173	0xbf6c7948	-0.9237256
174	0xbde848d1	-0.113420136
175	0xbee39aa4	-0.4445392
176	0xbef3bc86	-0.4760477
177	0xbecfdd6d	-0.40598622
178	0xbed317ea	-0.41229182
179	0x3e155411	0.1458285
180	0xbe320d3d	-0.17387863
181	0xbdda4fc0	-0.10659742
182	0xbe23cec8	-0.1599685
183	0x3e40e79a	0.18838349
184	0x3e88e9cd	0.26740876
185	0x3eee0e23	0.4649516
186	0xbd58ac28	-0.052898556
187	0x3cbfe660	0.023425281
188	0x3e2d65fa	0.16933432
189	0x3eaa0ae9	0.3321145
190	0xbe9e58da	-0.30927163
191	0x3e2a1b84	0.16612059
192	0xbe9bf5af	-0.3046088
193	0xbe5021bb	-0.20325367
194	0x3edef8a2	0.43549067
195	0x3ed03acc	0.40669858
196	0xbe8f5fbe	-0.28002733
197	0xbe07dd60	-0.13268042
198	0xbe2c17c3	-0.1680594
199	0xbde074f3	-0.10959806
200	0xbe05d49b	-0.13069384
201	0x3df27e87	0.118405394
202	0xbeb10b54	-0.34578955
203	0xbee110b6	-0.43958062
204	0x3e634215	0.22193177
205	0x3ed73bfa	0.42037946
206	0x3e2ec7de	0.17068431
207	0x3e1717b2	0.14755133
208	0x3eca3000	0.39489746
209	0xbed232c3	-0.41054353
210	0xbeaa314d	-0.3324074
211	0x3e6c303c	0.23065275
212	0x3e75be4f	0.23998378
213	0x3e28901b	0.16461222
214	0x3e6c41f7	0.23072039
215	0x3ba8e493	0.0051542013
216	0x3eab7c13	0.334931
217	0xbeb52c7a	-0.35385495
218	0xbe4d6a55	-0.20060094
219	0x3e52b368	0.2057625
220	0x3d39a658	0.045324653
221	0x3e8e42b9	0.2778528
222	0x3e7ea6ee	0.24868366
223	0x3e688d6a	0.22710195
224	0x3e78a542	0.24281791
225	0x3eaf2ce2	0.3421393
226	0x3d9771a1	0.0739472
227	0x3eee34b4	0.46524584
228	0x3e74fdf0	0.23924994
229	0x3ebe951a	0.3722313
230	0x3ae3f000	0.0017390251
231	0x3e8e9eac	0.27855432
232	0x3dff0825	0.12452725
233	0x3ec6fb67	0.3886368
234	0x3dc4bfd3	0.096069
235	0x3e87bd8b	0.26511797
236	0x3e9b8e72	0.30382115
237	0x3e22f70a	0.1591455
238	0x3e6c0a2f	0.2305076
239	0xbe9270a7	-0.28601572
240	0x3e2a63a6	0.16639575
241	0x3e2fd47a	0.17170897
242	0xbea9f81b	-0.33197102
243	0xbedf2a52	-0.43586975
244	0x3cb1e8b0	0.0217174
245	0x3cb76fbc	0.022392146
246	0x3dba99a9	0.091113396
247	0xbe02e09f	-0.12780999
248	0x3e571d8c	0.21007365
249	0x3d8090f7	0.0627765
250	0xbf068101	-0.52540594
251	0x3e4e593b	0.20151226
252	0x3ec13128	0.37732816
253	0x3dc9abe8	0.09847242
254	0xbe8fafdd	-0.2806386
255	0xbea67ab9	-0.32515505

FC.0.bias f4 [128]
0	0x3bfa575d	0.007639809
1	0x3e1b5dbe	0.15172479
2	0xbb7ed697	-0.003888523
3	0x3cf938bd	0.030422563
4	0x3e49b73d	0.19698806
5	0xbd46c5f8	-0.04852864
6	0xbb454382	-0.0030100052
7	0x3e32e628	0.1747061
8	0x3d982904	0.07429698
9	0xbdbece15	-0.09316651
10	0x3de2a7e3	0.11067178
11	0x3e227d88	0.15868199
12	0x3df1a113	0.117983006
13	0x3d8d272b	0.06892236
14	0xbe5b0c64	-0.21391445
15	0x3e2f9010	0.17144799
16	0x3d79420f	0.060854014
17	0xbe2dbbd0	-0.16966176
18	0xbdcefa58	-0.10106343
19	0xbdc2a6da	-0.09504481
20	0x3e159240	0.14606571
21	0xbe458f52	-0.19292954
22	0x3d0519d1	0.032495324
23	0xbdbd0561	-0.092295416
24	0x3e32ce03	0.174614
25	0xbe1b8968	-0.15189135
26	0xbe174201	-0.14771272
27	0x3cf744fb	0.03018426
28	0xbd1e50f6	-0.03865143
29	0xbcf81f77	-0.030288441
30	0x3e12d182	0.14337733
31	0x3dc18829	0.094497986
32	0xbd13bc13	-0.036068033
33	0xbd90696c	-0.070513576
34	0xbd50007d	-0.050781716
35	0x3d828f23	0.063749574
36	0x3e3129ee	0.17301151
37	0xbd632652	-0.055456467
38	0x3d3495eb	0.044088285
39	0xbd83056b	-0.06397518
40	0x3d91b273	0.071141146
41	0x3c534518	0.012894891
42	0x3e0806bb	0.13283817
43	0x3e046e3e	0.12932679
44	0x3e4f48e6	0.20242652
45	0xbd8836f0	-0.066511035
46	0x3e2ae8f4	0.16690427
47	0x3dc3ffd9	0.095702834
48	0xbdbdbc76	-0.09264462
49	0xbdbf68bd	-0.09346149
50	0x3d5ea2e2	0.054354556
51	0x3d8c54c2	0.06852104
52	0x3de450f5	0.11148254
53	0x3d0c7f97	0.034301367
54	0x3df27678	0.11839002
55	0x3e21a00f	0.15783714
56	0xbdfb1373	-0.12259569
57	0xbe788623	-0.24269919
58	0xbcabd6ca	-0.020976443
59	0x3d9a001c	0.07519552
60	0x3c193770	0.009351596
61	0x3e034320	0.12818575
62	0xbd7429b6	-0.05961009
63	0x3d710388	0.05884126
64	0x3e033116	0.12811694
65	0xbe20c995	-0.15701897
66	0xbd8f1ee9	-0.069883175
67	0x3d80efcd	0.06295738
68	0x3ba2f200	0.0049726963
69	0xbe073e65	-0.13207395
70	0x3cc32c9d	0.023824984
71	0xbdb4dd86	-0.08831315
72	0x3e2c3ff5	0.16821273
73	0xbd32758f	-0.043569144
74	0x3dc85c33	0.097832106
75	0x3e0d28ea	0.13785139
76	0xbe5aad5a	-0.21355191
77	0xb99ab257	-0.00029506042
78	0xbce25b59	-0.027631449
79	0x3e13bb88	0.14427006
80	0x3dc2e9a6	0.09517221
81	0xbe5df604	-0.21675879
82	0xbdcd309e	-0.100190386
83	0x3e0c02b0	0.136729
84	0xbdaac369	-0.08338053
85	0xbd831fb6	-0.06402533
86	0xbb0fc057	-0.0021934712
87	0x3e040861	0.12893821
88	0xbe020af3	-0.1269949
89	0xbc7c9e74	-0.015418638
90	0xbd87eec4	-0.06637338
91	0xbc3c28a5	-0.0114843
92	0x3d6a9d20	0.057278752
93	0xbd8c37e4	-0.06846598
94	0xbe0c64d3	-0.13710336
95	0xbd8acadd	-0.06776974
96	0xbdababc5	-0.08382372
97	0xbe2ace60	-0.16680288
98	0xbe3d3658	-0.18477762
99	0x3d5b68fe	0.053566925
100	0x3da88800	0.08229065
101	0xbe557951	-0.2084706
102	0xbe03dd0d	-0.12877293
103	0x3ba1c30a	0.0049365805
104	0xbd7e4543	-0.062077772
105	0xbb4a6223	-0.0030881248
106	0xbe3624b8	-0.17787445
107	0xbcb4bf20	-0.022063792
108	0xbc8e6200	-0.017380714
109	0x3e2bdb8f	0.16782974
110	0x3d020a08	0.031747848
111	0x3d7eea5f	0.062235232
112	0x3d425f17	0.047453966
113	0xbe02d806	-0.12777719
114	0xb999e8da	-0.00029355922
115	0x3d1c21e6	0.038118266
116	0xbb031b6b	-0.0020005356
117	0xbcf66b06	-0.03008033
118	0xbe631b1c	-0.2217831
119	0x3e4698a9	0.19394173
120	0xbd2632a1	-0.040575627
121	0x3c817426	0.015802454
122	0x3e453893	0.19259863
123	0xbc89084b	-0.016727587
124	0x3e2ac877	0.16678034
125	0xbdceee7c	-0.10104081
126	0x3d60176d	0.05470984
127	0x3d222ffd	0.039596546

FC.2.weight f4 [128, 128]
0	0xbe872e4c	-0.2640251
1	0xbe0a8f29	-0.13531174
2	0x3e42b8e0	0.19015837
3	0x3e373fd1	0.17895438
4	0xbc3b2911	-0.011423365
5	0xbe438f77	-0.19097696
6	0xbde15a56	-0.11003558
7	0x3decbcd4	0.115594536
8	0x3e40ebfd	0.18840022
9	0x3de3f8d9	0.11131448
10	0x3d0cc3e8	0.03436652
11	0xbe85c17d	-0.26124182
12	0x3d4c52b8	0.049883574
13	0x3e272e2d	0.16326208
14	0x3d51da3a	0.051233508
15	0xbe75abd6	-0.23991331
16	0x3deaa103	0.11456492
17	0xba9b2021	-0.0011835137
18	0xbe0115a0	-0.12605906
19	0x3cabc338	0.020967111
20	0xbe19f6af	-0.15035509
21	0x3c837760	0.016048133
22	0xbefd8677	-0.4951665
23	0xbd8bbfda	-0.06823702
24	0xbda83bd8	-0.08214539
25	0x3db239f4	0.0870246
26	0x3d9c5afd	0.07634542
27	0x3d226c81	0.03965426
28	0xbcf510ed	-0.029915297
29	0x3c7764d0	0.015099719
30	0xbd7491c4	-0.059709325
31	0xbda796de	-0.081830725
32	0x3e73d14e	0.23810312
33	0xbe7597bc	-0.23983663
34	0x3e0de8d8	0.13858354
35	0x3caed9dd	0.02134412
36	0x3d6ab0ea	0.057297625
37	0x3df8c826	0.1214755
38	0x3cbce670	0.0230591
39	0xbc657bee	-0.014006598
40	0x3d966a42	0.07344486
41	0x3e9aa7eb	0.30206236
42	0x3ddfedce	0.109340295
43	0xbd5bf9d6	-0.05370506
44	0x3de55c5c	0.11199257
45	0xbe1dbd59	-0.15404262
46	0x3d8f06e9	0.0698374
47	0xbd966555	-0.07343546
48	0x3e5e6901	0.21719743
49	0x3e4c385a	0.19943371
50	0x3ec8fbba	0.39254552
51	0xbe696854	-0.22793704
52	0xbe929fc5	-0.2863752
53	0xbe892773	-0.2678791
54	0x3e5ab7ea	0.2135922
55	0xbe0e32ba	-0.13886538
56	0x3d12d676	0.035849057
57	0xbe2a7b5b	-0.16648619
58	0xbd5fd4ec	-0.054646417
59	0x3e93e532	0.288858
60	0x3e367e3d	0.17821594
61	0xbddc7115	-0.10763756
62	0xbd5cdb3b	-0.053920012
63	0x3e6db561	0.23213722
64	0xbe391bc2	-0.18076995
65	0xbd34490f	-0.044014987
66	0x3e32afda	0.17449895
67	0xbe87cdd1	-0.26524213
68	0x3e17cdb4	0.14824563
69	0x3e6bcecf	0.2302811
70	0xbe024d70	-0.12724853
71	0x3e8878fe	0.2665481
72	0x3dcf31ba	0.101169065
73	0x3e135553	0.14388017
74	0xbdae8410	-0.08521283
75	0xbdb6eeee	-0.08932291
76	0x3dba70db	0.09103557
77	0x3eec6da9	0.46177414
78	0xbdf28ac7	-0.11842876
79	0x3d441f6d	0.047881532
80	0xbd48a27b	-0.04898308
81	0x3eb9f7ce	0.36321872
82	0xbe21e778	-0.15810955
83	0x3e3064f0	0.17226005
84	0xbdb8ab5c	-0.09017059
85	0x3bded16a	0.0067998664
86	0xbdb31dea	-0.0874594
87	0xbe2d1b60	-0.16904974
88	0xbd03d2a7	-0.032183316
89	0xbd0132e5	-0.031542677
90	0xbdcf0e43	-0.10110142
91	0x3d7aa857	0.061195698
92	0xbe9d255f	-0.30692574
93	0xbe42673d	-0.18984695
94	0x3e179579	0.14803113
95	0xbe13262b	-0.14370029
96	0xbe693196	-0.22772822
97	0xbe00d741	-0.12582113
98	0x3e350549	0.17677797
99	0xbe7bea82	-0.24601176
100	0x3b65026f	0.0034944077
101	0xbe816e4f	-0.2527947
102	0xbdced7a0	-0.10099721
103	0x3e703d86	0.2346097
104	0x3e89deda	0.26927835
105	0x3d8da4f9	0.06916232
106	0x3e5fd5b4	0.21858865
107	0x3e8c245a	0.27371484
108	0xbe6bd94f	-0.23032115
109	0x3d9f0f2e	0.07766567
110	0x3b63550d	0.0034688145
111	0x3d6b073b	0.057379942
112	0xbdff2770	-0.12458694
113	0x3e008907	0.12552272
114	0xbcc987cd	-0.024600888
115	0x3cf27e30	0.029601187
116	0xbd0f5748	-0.034995347
117	0xbdb54a72	-0.0885209
118	0xbe91ab4d	-0.28451005
119	0x3c0c4860	0.008562177
120	0xbd95640f	-0.07294475
121	0x3ad77a9c	0.0016439739
122	0x3dabaa80	0.0838213
123	0x3e0f7c45	0.14012249
124	0xbd9ed943	-0.07756283
125	0x3eb499a1	0.3527346
126	0xbc44594c	-0.011984181
127	0x3c28bd49	0.010299035
128	0x3dac1ec7	0.08404308
129	0x3dee16dc	0.11625454
130	0xbeb37de2	-0.35056978
131	0xbe05eb27	-0.13077985
132	0xbe31483f	-0.17312716
133	0x3e514e86	0.2044011
134	0xbcf5dc19	-0.030012177
135	0xbdfdff6d	-0.12402234
136	0xbd833872	-0.064072505
137	0x3e1a15d4	0.1504739
138	0xbc94f613	-0.018183744
139	0xbc992678	-0.018695101
140	0xbd5b160c	-0.053487822
141	0xbe2351dd	-0.15949197
142	0x3d9eace2	0.077478185
143	0x3de5a4af	0.112130515
144	0xbdca68f3	-0.09883299
145	0x3e2328a1	0.15933467
146	0xbcb9455e	-0.022616085
147	0xbe310a53	-0.17289095
148	0xbed63bbb	-0.41842446
149	0xbe93746e	-0.28799766
150	0x3e46e74f	0.19424175
151	0x3db95a64	0.09050444
152	0xbd95ceda	-0.073148444
153	0x3da52b4e	0.080649
154	0x3e8f2423	0.27957258
155	0x3daa138f	0.08304512
156	0xbecfe41d	-0.40603724
157	0x3d212ca0	0.0393492
158	0xbd986c51	-0.07442535
159	0xbd92bc22	-0.0716479
160	0xbe71056a	-0.23537222
161	0xbd85cdb0	-0.065333724
162	0x3d6ee697	0.058325376
163	0xbe14c020	-0.14526415
164	0xbe68d66b	-0.22738044
165	0x3e1a2cec	0.15056199
166	0xbe5f0347	-0.21778594
167	0x3e5b3fc4	0.21411043
168	0x3d092c29	0.03348938
169	0x3e2947c8	0.16531289
170	0xbba258d8	-0.0049544387
171	0xbe49037e	-0.19630238
172	0x3dd28d19	0.102808185
173	0xbda2e853	-0.079544686
174	0x3db3e5f8	0.087840974
175	0x3e03843d	0.12843414
176	0xbe9c6609	-0.30546597
177	0xbdd8ea68	-0.105915844
178	0xbe93ed62	-0.28892046
179	0x3e1b5303	0.15168385
180	0xbb85d72f	-0.00408449
181	0x3cdcc808	0.026950851
182	0xbe1ffdb8	-0.1562413
183	0x3e7f1eef	0.24914144
184	0xbed14b45	-0.4087774
185	0xbd009809	-0.031394992
186	0xbe16f92a	-0.14743486
187	0x3d0a36d4	0.033743694
188	0x3e26ff00	0.16308212
189	0x3cdce380	0.02696395
190	0xbde53bbd	-0.11193035
191	0xbdeb910b	-0.11502274
192	0xbe27340e	-0.16328451
193	0xbe30abec	-0.17253083
194	0x3e9543fc	0.2915343
195	0x39f255ec	0.00046221854
196	0x3e4d22b0	0.20032763
197	0xbd9a14d1	-0.07523502
198	0xbe008c07	-0.12553416
199	0x3de8f3eb	0.11374649
200	0x3e2371d9	0.15961398
201	0x3e863746	0.26214045
202	0x3e19b41c	0.15010113
203	0xbe7cabdc	-0.24674934
204	0xbdae1dfd	-0.085018136
205	0x3e31f862	0.17379907
206	0xbbf02099	-0.0073281047
207	0x3dab0582	0.0835066
208	0xbdeee32b	-0.116644226
209	0xbd7f7b56	-0.06237348
210	0xbea03d1c	-0.31296623
211	0xbce10706	-0.02746917
212	0xbd42c851	-0.047554318
213	0x3eb30deb	0.34971556
214	0x3d4d2cc9	0.05009154
215	0xbd950efa	-0.07278247
216	0xbd40ea80	-0.047098637
217	0x3dbaecb6	0.0912718
218	0x3ddf5e60	0.109066725
219	0xbe2c2320	-0.16810274
220	0x3dd60bda	0.10451479
221	0x3bf91dbb	0.007602421
222	0xbd9d09f5	-0.07667915
223	0x3dab97af	0.08378541
224	0x3d896f19	0.06710643
225	0x3e0913e6	0.13386497
226	0xbda5b170	-0.08090484
227	0xbe8ed5d4	-0.27897513
228	0x3de8a2ff	0.11359214
229	0xbd6da35b	-0.058017116
230	0xbd708c35	-0.05872746
231	0xbe120383	-0.14259152
232	0xbdec2359	-0.115301795
233	0xbe1c38da	-0.15256062
234	0x3e0f134c	0.13972205
235	0x3d7ecb28	0.062205464
236	0xbc9ba3b0	-0.01899895
237	0x3dc031d7	0.09384506
238	0x3e2a48da	0.16629353
239	0x3e119903	0.14218526
240	0x3dae81d4	0.085208565
241	0xbe513fbf	-0.20434473
242	0x3e68b8b6	0.22726712
243	0x3e70c917	0.2351421
244	0xbd95a208	-0.07306296
245	0x3c89c2fc	0.016816609
246	0x3dfa58bd	0.12223957
247	0xbccfa0e0	-0.025345266
248	0x3e0ee3fa	0.13954154
249	0xbe993681	-0.29924396
250	0x3ec9e24d	0.39430466
251	0xbe00c6c6	-0.12575826
252	0xbdbebd89	-0.09313495
253	0x3d7fc927	0.062447693
254	0xbe836b19	-0.25667647
255	0xbe5ce289	-0.21570791

FC.2.bias f4 [128]
0	0xbd6e185d	-0.058128703
1	0x3da12c6a	0.078697994
2	0xbd1f2aa1	-0.038859013
3	0xbcbe682e	-0.023243036
4	0xbb6404b2	-0.0034792838
5	0xbca9bd9a	-0.020720292
6	0xbc97fa87	-0.018552078
7	0xbd583c15	-0.052791674
8	0x3dddf7e3	0.10838296
9	0x3d2b48d8	0.041817516
10	0xbd967443	-0.07346394
11	0xbdd8e5f4	-0.10590735
12	0xbd090d7f	-0.033460137
13	0x3d9d0fa5	0.076689996
14	0xbc937354	-0.017999329
15	0x3df903dc	0.12158939
16	0x3d318346	0.043338083
17	0x3c6126a1	0.01374212
18	0x3dbd6f93	0.09249797
19	0x3dd056b8	0.1017279
20	0x3e00d0b8	0.1257962
21	0x3c9edb83	0.01939178
22	0x3d785658	0.06062922
23	0xbd6884a1	-0.05676711
24	0xbd3fb6a8	-0.046805054
25	0xbd37c426	-0.044864796
26	0xbd750817	-0.05982217
27	0xbd281124	-0.04103197
28	0xbd4872cb	-0.0489376
29	0xbcb174e4	-0.021662183
30	0x3cabab3b	0.020955672
31	0x3c2377ba	0.0099772755
32	0xbc915c25	-0.017744133
33	0xbd273910	-0.040825903
34	0xbcf55bc8	-0.029950991
35	0xbdb34142	-0.08752681
36	0xbd7fe404	-0.062473312
37	0x3d5b4bc7	0.053539064
38	0x3da9db7e	0.08293818
39	0x3d6d0db8	0.05787441
40	0xbe172c1b	-0.14762919
41	0xbdea9817	-0.1145479
42	0xbdbef8dd	-0.09324811
43	0x3bf1a13b	0.0073739565
44	0xbdba7854	-0.09104982
45	0xbd3c91e6	-0.046037577
46	0x3d3c9987	0.046044853
47	0x3c7bd4b7	0.015370539
48	0x3d808814	0.06275955
49	0x3d6055e4	0.05476941
50	0xbcc463b3	-0.023973322
51	0xbcf1a169	-0.029495912
52	0x3d1f7ab0	0.038935363
53	0xbd369119	-0.04457197
54	0x3d721f3f	0.05911183
55	0xbdd08f9c	-0.10183641
56	0x3c701c15	0.014655133
57	0xbd25aa20	-0.040445447
58	0xbc004f0d	-0.007831347
59	0xbda31b18	-0.07964152
60	0xbd795c12	-0.06087882
61	0xbd361b74	-0.044459775
62	0x3d805852	0.06266846
63	0xbde5283e	-0.11189316
64	0x3d52892f	0.05140036
65	0xbd869e1b	-0.06573125
66	0x3d703b29	0.05865017
67	0x3d394869	0.04523507
68	0x3ab80789	0.0014040332
69	0xbd9bc4ab	-0.07605871
70	0x3ba3d220	0.004999414
71	0xbda2ea53	-0.0795485
72	0xbda6f9f7	-0.08153146
73	0x3d8dfb19	0.06932659
74	0x3ddd55dd	0.10807393
75	0x3c15cd28	0.009143151
76	0xbd88df29	-0.066831894
77	0x3cd8c818	0.0264626
78	0xbd2ba70c	-0.041907355
79	0xbcd22fd8	-0.02565758
80	0x3cc8e37d	0.024522537
81	0xbd821df2	-0.06353368
82	0x3da149f1	0.07875431
83	0xbca067a1	-0.019580664
84	0x3ca059bd	0.01957404
85	0x3c13be38	0.00901752
86	0xbd7f466e	-0.062323026
87	0xbd20470c	-0.039130256
88	0x3d8e26f8	0.069410264
89	0x3cc51b35	0.024060825
90	0x3a2f6e0a	0.00066921173
91	0xbcb6fc7e	-0.022337195
92	0xbbc51246	-0.0060141413
93	0x3c5b496f	0.013384207
94	0x3aa9e82d	0.001296287
95	0xbd43e780	-0.047828197
96	0x3d1c54ae	0.038166694
97	0xbcdfa406	-0.027299892
98	0xbd4ceb28	-0.05002895
99	0xbdbe679a	-0.09297104
100	0xbd20a24a	-0.03921727
101	0xbdf34419	-0.11878223
102	0xbae56ec0	-0.001750432
103	0x3d7df355	0.061999638
104	0xbcef07ca	-0.029178519
105	0xbdb37c1d	-0.08763907
106	0xbd2d99f6	-0.042383157
107	0x3ad34e0d	0.0016121283
108	0xbdb0c4e4	-0.08631304
109	0xbd6abc12	-0.057308264
110	0xbd111ebc	-0.0354297
111	0x3d295105	0.041337032
112	0xbca69d88	-0.020338789
113	0x3d4f10e2	0.05055321
114	0x3dfc39e6	0.12315731
115	0x3c3f64a7	0.011681712
116	0x3d32b22d	0.043626953
117	0x3d95d7b6	0.07316534
118	0x3c8cff34	0.017211534
119	0x3da7fd88	0.08202654
120	0xbd9fce37	-0.07803004
121	0xbdf8b274	-0.12143412
122	0xbd4b7ecd	-0.049681474
123	0xbbc4ea78	-0.006009396
124	0xbd06a4d5	-0.03287204
125	0x3db40183	0.08789351
126	0x3bbaab62	0.0056967
127	0xbd8f6517	-0.07001703

FC.4.weight f4 [64, 128]
0	0xbe1d8e25	-0.15386255
1	0x3e24f607	0.16109477
2	0x3e2a2e3d	0.16619201
3	0xbe32d196	-0.17462763
4	0xbe0917d4	-0.13387996
5	0x3e0c176a	0.13680807
6	0xbd5315b5	-0.051534373
7	0x3e5480fc	0.20752329
8	0xbd9105ed	-0.070812084
9	0xbe7f269f	-0.24917077
10	0x3e1dc6b8	0.15407836
11	0x3e72e4b9	0.23720063
12	0xbe173ea5	-0.1476999
13	0xbde4e972	-0.11177339
14	0xbe78e87b	-0.24307434
15	0x3db4c228	0.08826095
16	0x3e7e08e7	0.24808083
17	0x3e6333c3	0.22187714
18	0x3d94532e	0.07242428
19	0xbcea9b96	-0.028638642
20	0xbe66a460	-0.22523642
21	0xbd72f4f3	-0.059315633
22	0x3dc04a21	0.09389139
23	0xbc59c579	-0.01329171
24	0x3c84f663	0.016230768
25	0xbe0515c8	-0.1299659
26	0x3e85771d	0.2606744
27	0xbe1b23d4	-0.15150386
28	0x3e3beb3c	0.18351454
29	0xbed6299a	-0.41828614
30	0xbdb712f1	-0.0893916
31	0xbd200cd1	-0.039074723
32	0x3d9e9cb6	0.07744734
33	0xbdfc0a86	-0.12306695
34	0x3d780922	0.060555585
35	0x3e3b85cc	0.18312758
36	0x3e3b57b5	0.18295176
37	0xbd5e0aea	-0.054209627
38	0x3bf6fa4b	0.0075371615
39	0x3e08e185	0.13367279
40	0xbd784184	-0.060609356
41	0x3e9f2c3e	0.31088442
42	0x3e0e2de9	0.13884701
43	0x3ddbced1	0.107328065
44	0x3d1ebf26	0.038756512
45	0x3da54193	0.08069148
46	0x3e85c351	0.26125577
47	0x3b2afce4	0.0026090676
48	0xbe320e6f	-0.17388318
49	0x3cfcfcf0	0.030882329
50	0x3cf2c9eb	0.029637298
51	0x3d044ac6	0.032297872
52	0xbdb6726c	-0.08908543
53	0x3cf35c7f	0.029707192
54	0xbd90bd37	-0.0706734
55	0x3db2beae	0.087277755
56	0xbbdbb7fa	-0.0067052813
57	0xbe583dc8	-0.21117318
58	0x3e5d168e	0.21590635
59	0x3d4c7999	0.049920652
60	0x3e3dbf64	0.18530041
61	0x3c7e37d9	0.015516245
62	0xbe472b02	-0.1945
63	0xbcbc5355	-0.022988955
64	0xbdb9faa2	-0.090810075
65	0xbea0fbce	-0.31442112
66	0x3caa1c3e	0.02076542
67	0x3de43738	0.11143345
68	0x3e5611da	0.20905247
69	0xbd3e5fd7	-0.04647812
70	0x3e78d8fc	0.24301523
71	0xbdad38da	-0.08458109
72	0x3d5c6767	0.05380955
73	0x3e4c38ad	0.19943495
74	0xbcc15619	-0.023600625
75	0xbe97e594	-0.29667342
76	0xbe849404	-0.25894177
77	0xbe4d6fe9	-0.20062222
78	0xbd273da8	-0.040830284
79	0x3e12b23b	0.14325802
80	0x3d523b76	0.051326238
81	0xbd14a477	-0.03628966
82	0x3dc8e044	0.098084
83	0x3dfb64b2	0.122750655
84	0x3e13b6d4	0.14425212
85	0xbe859846	-0.26092738
86	0xbd53e325	-0.051730294
87	0x3e9bda90	0.30440187
88	0xbdedb452	-0.11606659
89	0x3deb6da1	0.114955194
90	0x3d83b12f	0.064302795
91	0x3ea3b831	0.31976464
92	0xbe50802b	-0.20361392
93	0xbdc5d561	-0.096598394
94	0x3ddd347f	0.108010285
95	0xbd022eb2	-0.031782813
96	0xbe3cba55	-0.18430455
97	0x3e5cab36	0.21549687
98	0x3e1c2d84	0.15251738
99	0x3de3e550	0.11127722
100	0xbd26509f	-0.04060423
101	0xbe023f33	-0.12719421
102	0x3e1bdd64	0.15221173
103	0x3d175184	0.036942974
104	0x3e86e34c	0.2634529
105	0x3c64d82b	0.013967554
106	0x3e13cdf7	0.14434038
107	0x3e93a5eb	0.28837523
108	0x3e57173e	0.2100496
109	0xbd21b0aa	-0.03947512
110	0x3e4d0c5c	0.20024246
111	0x3e4d8fea	0.2007443
112	0x3d153f47	0.0364373
113	0xbe81300b	-0.25231966
114	0xbd85e132	-0.06537093
115	0x3df852bc	0.12125155
116	0xbe5a7c1c	-0.21336406
117	0xbeb0a93f	-0.34504125
118	0xbe868df5	-0.2628018
119	0xbde818f3	-0.11332884
120	0x3e49db25	0.19712503
121	0x3bb49b3c	0.0055116694
122	0x3e03ada7	0.12859212
123	0x3b180ec6	0.0023202165
124	0xbdb01f1d	-0.085996844
125	0xbd93fe88	-0.07226282
126	0xbd7642cb	-0.060122292
127	0xbe1685ef	-0.14699529
128	0xbe4c18cd	-0.19931336
129	0x3e771a57	0.24131142
130	0x3c2d81bf	0.010590016
131	0xbd73335f	-0.059375163
132	0xbe0e010b	-0.13867585
133	0x3db2650f	0.08710682
134	0x3d622317	0.055209246
135	0x3d1c14be	0.03810572
136	0xbe86a1d3	-0.26295337
137	0xbdd91a75	-0.106007494
138	0x3e05098e	0.12991926
139	0x3e8a59fd	0.2702178
140	0xbc1e651e	-0.009667663
141	0xbdb70e64	-0.08938292
142	0xbd1515ae	-0.03639763
143	0x3e472797	0.19448696
144	0xbdc6f6a3	-0.09715011
145	0xbe4275f4	-0.18990308
146	0xbe80bbe0	-0.25143337
147	0xbdecaea3	-0.11556747
148	0x3d09edb8	0.033673972
149	0x3d89574b	0.06706103
150	0xbdb7fe39	-0.08984036
151	0x3e4906a1	0.19631435
152	0xbde91fca	-0.113830164
153	0xbca695c1	-0.02033508
154	0x3c80ba79	0.015713917
155	0xbe62a578	-0.22133434
156	0xbe6df3c1	-0.23237516
157	0x3e46eff7	0.19427477
158	0xbe2c1d33	-0.16808014
159	0xbbb6c8d1	-0.0055781384
160	0x3e0114bd	0.12605567
161	0xbe3770e4	-0.17914158
162	0xbd9c6c9d	-0.07637904
163	0xbe13160a	-0.14363876
164	0xbe38a926	-0.18033275
165	0xbb3e3d7d	-0.002902835
166	0xbde6cf2b	-0.11269983
167	0x3d113b22	0.035456784
168	0xbdc8642e	-0.09784733
169	0xbbe61eb4	-0.007022703
170	0x3d90eb03	0.07076075
171	0x3de0f508	0.10984236
172	0xbdc805d7	-0.09766739
173	0xbe97aeb0	-0.29625463
174	0x3e7ee51d	0.24892087
175	0xbcdfe9ab	-0.027333101
176	0xbe242e66	-0.16033325
177	0x3dd1f5cc	0.1025196
178	0x3e33b96d	0.17551203
179	0xbe0b1d12	-0.13585308
180	0x3db2e7e6	0.08735637
181	0x3e412fdb	0.18865912
182	0x3e201db4	0.15636331
183	0x3e57429b	0.21021502
184	0xbd53e7dd	-0.051734794
185	0xbdccb2d3	-0.099950455
186	0x3db427a6	0.08796625
187	0xbcf88760	-0.03033799
188	0x3e51ae12	0.20476559
189	0x3d4d69cd	0.050149728
190	0xbd6c471a	-0.057684995
191	0x3d17c3c4	0.03705193
192	0xbd9164f7	-0.07099336
193	0x3d12126f	0.03566211
194	0xbde57dd6	-0.11205642
195	0x3c342b94	0.010996718
196	0xbdfe4395	-0.12415234
197	0xbc7c27ad	-0.015390319
198	0x3e83a280	0.25709915
199	0x3d579450	0.052631676
200	0xbdce02e6	-0.100591466
201	0x3e476fb2	0.19476202
202	0xbe5af945	-0.21384151
203	0xbe8d65d9	-0.27616766
204	0xbe1171ea	-0.14203611
205	0x3de73921	0.11290193
206	0xbd279774	-0.04091592
207	0xbe417ec5	-0.18896015
208	0xbe591a23	-0.21201377
209	0xbd71487d	-0.05890702
210	0xbdf77a94	-0.12083927
211	0xbccff8a3	-0.025387114
212	0xbd440868	-0.04785958
213	0xbe19bc65	-0.15013273
214	0xbe6c3969	-0.23068775
215	0xbc77d897	-0.015127323
216	0xbe8b67f8	-0.2722776
217	0xbe4fccb1	-0.20292927
218	0xbe657d67	-0.22411118
219	0x3b8ffa20	0.004393831
220	0x3b519d23	0.003198453
221	0xbdb48e41	-0.08816195
222	0xbb926160	-0.0044671744
223	0xbe2ca594	-0.16860038
224	0xbdea5afa	-0.11443134
225	0xbd2295d3	-0.039693665
226	0xbbb5ee19	-0.005552065
227	0xbe322075	-0.17395194
228	0x3e12beb3	0.14330558
229	0xbe8144b4	-0.2524773
230	0x3d46825e	0.04846417
231	0x3e91b9fa	0.284622
232	0x3dc0db64	0.094168454
233	0xbe15a2a2	-0.1461282
234	0xbcf6475f	-0.03006333
235	0xbcdda11f	-0.027054368
236	0xbdcb448c	-0.09925184
237	0x3e109cc5	0.14122303
238	0x3e451269	0.19245304
239	0x3c8a43e0	0.016878068
240	0xbce48f7e	-0.027900454
241	0x3d6fbb7e	0.058528416
242	0xbcc8bfbc	-0.024505489
243	0x3e01eee0	0.1268878
244	0xbd8a6d03	-0.067590736
245	0x3e4f241a	0.20228615
246	0xbe2f17ab	-0.17098872
247	0x3dc648ee	0.09681879
248	0xbe0fc0dd	-0.14038415
249	0x3df3edef	0.119106166
250	0x3dafe026	0.08587675
251	0xbd20bf58	-0.03924498
252	0x3c783f77	0.01515185
253	0x3daee1dc	0.08539173
254	0xbe7fbc76	-0.24974236
255	0x3e2b41c9	0.16724314

FC.4.bias f4 [64]
0	0xbde861b4	-0.113467604
1	0x3cc49154	0.02399508
2	0xbd8a66a5	-0.06757859
3	0xbe4422b8	-0.19153869
4	0xbded5091	-0.115876324
5	0x3db8cb4f	0.09023153
6	0xbd597bf7	-0.053096738
7	0x3ce25184	0.02762676
8	0x3e370b3e	0.17875382
9	0xbd8af654	-0.067852646
10	0x3d9880d2	0.074464455
11	0xbc06edbb	-0.00823539
12	0x3dbbc5ea	0.091686085
13	0xbd21b55c	-0.0394796
14	0x3ca81875	0.020519475
15	0xbd94b962	-0.072619215
16	0x3d8f878d	0.07008276
17	0xbdc7d8de	-0.09758161
18	0xbd898c55	-0.06716219
19	0x3d9037fd	0.07041929
20	0x3d02eed4	0.031966045
21	0x3cc49a5e	0.02399939
22	0xbdba1948	-0.09086853
23	0x3d5bd244	0.05366732
24	0x3daab41a	0.08335133
25	0xbbe63d1f	-0.007026329
26	0x3d1c86f2	0.03821463
27	0xbd69fca6	-0.05712571
28	0x3cd3cb63	0.025853818
29	0x3bad6036	0.0052910103
30	0x3e2d5ec4	0.16930681
31	0x3dbb796d	0.091540195
32	0xbdbe4e49	-0.092922755
33	0xbc52dab2	-0.012869524
34	0xbd2f32be	-0.042773
35	0xbcc98a1f	-0.024601994
36	0x3bce0a1a	0.0062878253
37	0xbd39d4f9	-0.045369122
38	0x3d256bb4	0.040385917
39	0xbd9c49ed	-0.07631288
40	0x3d46f330	0.048571765
41	0xbb060390	-0.00204489
42	0xbd58e8e0	-0.052956462
43	0x3db89ef3	0.09014692
44	0x3d0b0553	0.033940624
45	0x3d4a5c32	0.04940433
46	0xbd7281be	-0.059205763
47	0xbcebeb39	-0.028798686
48	0x3d703dab	0.05865256
49	0xbe0b25e4	-0.13588673
50	0xbd9daf7d	-0.07699487
51	0x3d0ccd06	0.034375213
52	0x3c53e9f7	0.0129342
53	0xbd396dc5	-0.0452707
54	0x3deb85a9	0.11500103
55	0x3bb30f20	0.0054644495
56	0xbcf9daa1	-0.030499758
57	0x3d35ba4f	0.04436713
58	0x3dff1d15	0.12456719
59	0x3c01b650	0.007917002
60	0x3c706bd9	0.01467415
61	0xbd1c938a	-0.03822664
62	0x3df24881	0.11830235
63	0xbb872991	-0.004124828

FC.6.weight f4 [10, 64]
0	0xbd886ca1	-0.06661344
1	0xba38061e	-0.00070199545
2	0xbd49f994	-0.049310282
3	0xbcdbdb5c	-0.026837997
4	0x3e9a7fb0	0.30175543
5	0xbe232a25	-0.15934046
6	0x3c7a5137	0.015278152
7	0x3e16703d	0.14691253
8	0x3d18c5e7	0.03729811
9	0x3c96c9d2	0.018406782
10	0xbeb15489	-0.34634808
11	0xbe6756ce	-0.22591707
12	0x3eb76aae	0.35823578
13	0x3dd7c06c	0.105347484
14	0x3e2b79ba	0.16745654
15	0x3d3878d1	0.045037095
16	0xbcd85039	-0.02640544
17	0x3e989f98	0.2980926
18	0x3d7a0119	0.061036203
19	0x3e295039	0.16534509
20	0xbd253ccf	-0.040341195
21	0x3e8975be	0.26847643
22	0x3d247aa6	0.04015603
23	0xbdca5ae2	-0.09880616
24	0x3e85cfac	0.26135004
25	0xbdcd6957	-0.100298576
26	0x3c2f33c7	0.010693497
27	0xbe2e939c	-0.17048496
28	0xbba38349	-0.0049900156
29	0xbd228b57	-0.039683666
30	0x3e9d8452	0.30765015
31	0xbe054928	-0.13016188
32	0x3e76591e	0.24057433
33	0xbe712ff5	-0.2355345
34	0x3e658677	0.22414576
35	0xbe000515	-0.12501939
36	0xbe39c928	-0.18143141
37	0x3cd7e49b	0.026354125
38	0xbc82becc	-0.01596012
39	0x3e8bf1a4	0.27332795
40	0xbd91efd2	-0.0712582
41	0x3e3c198b	0.18369119
42	0x3e50874b	0.2036411
43	0x3dc6ec5e	0.09713052
44	0xbe266d01	-0.16252519
45	0xbdd00928	-0.101579964
46	0xbe7f0d25	-0.24907358
47	0x3b639e29	0.0034731722
48	0xbe4b1403	-0.19831853
49	0x3d900680	0.0703249
50	0xbe52d937	-0.20590673
51	0x3bf9ccc2	0.007623286
52	0x3de9c1c0	0.11413908
53	0xbd84c315	-0.064825214
54	0xbc7a5a26	-0.015280282
55	0x3de9c867	0.11415177
56	0xbe3f4f6b	-0.1868264
57	0xbf17d0bb	-0.5930287
58	0xbe8d0f6c	-0.27550828
59	0x3e9b40a5	0.30322757
60	0x3d7cf90a	0.06176094
61	0xbd5b4bbc	-0.053539023
62	0x3d10ffd4	0.035400227
63	0xbe854b3a	-0.26033956
64	0xbdb171ca	-0.08664282
65	0xbe7f9133	-0.24957733
66	0x3d89730a	0.06711395
67	0x3d0ae59c	0.03391038
68	0x3caf10bd	0.021370286
69	0x3d99135a	0.07474394
70	0x3c96459e	0.018343743
71	0x3e21fcaf	0.15819047
72	0x3de91097	0.113801174
73	0xbda2fb39	-0.07958073
74	0xbe8a8dec	-0.27061403
75	0xbea08680	-0.31352615
76	0x3ead2b8f	0.33822295
77	0xbd919cd2	-0.07109989
78	0xbe0c289e	-0.13687369
79	0xbcdce7eb	-0.026966056
80	0xbd70bffb	-0.058776837
81	0xbd727937	-0.05919763
82	0x3dec91bc	0.11551234
83	0xbe2d0ff9	-0.16900624
84	0x3d13afac	0.036056206
85	0x3da47625	0.08030347
86	0xbe495193	-0.19660024
87	0x3df4a64a	0.119457796
88	0x3e732783	0.23745541
89	0xbd1b1d91	-0.037869994
90	0xbe21c059	-0.15796031
91	0xbd69dd7d	-0.057095993
92	0xbd509590	-0.050923884
93	0xbeb28518	-0.34867167
94	0x3e8f5d60	0.28000927
95	0xbe3fa71b	-0.1871609
96	0x3e8e5b18	0.27803874
97	0x3e9138e9	0.28363732
98	0x3dc116e3	0.094281934
99	0xbcee1fbb	-0.029067865
100	0xbe2b289c	-0.1671471
101	0x3d89fb02	0.06737329
102	0x3da971d6	0.082736656
103	0x3cbde602	0.023180965
104	0xbe84d88d	-0.25946465
105	0xbd9b15ee	-0.07572542
106	0xbe0ab026	-0.13543758
107	0xbdc13337	-0.094335966
108	0xbddfb892	-0.10923876
109	0xbeb0a841	-0.34503368
110	0xbce191dc	-0.027535371
111	0xbd7a738b	-0.061145347
112	0xbd91c580	-0.07117748
113	0xbee610ae	-0.449346
114	0xbbb43477	-0.0054994184
115	0xbd0b1d8d	-0.03396373
116	0x3e9208c5	0.28522316
117	0x3eb4618f	0.3523068
118	0xbec438ec	-0.38324678
119	0xbe5613da	-0.2090601
120	0x3ecab73f	0.3959293
121	0x3dbaa23f	0.09112977
122	0x3d3be924	0.045876637
123	0x3e0a7ee0	0.13524961
124	0xbd8cea09	-0.06880576
125	0xbe67b1d8	-0.22626436
126	0x3ee9c255	0.45656076
127	0x3dafdaad	0.08586631
128	0x3e970232	0.29493862
129	0x3e4444af	0.19166826
130	0x3a6123af	0.0008588386
131	0x3e4d55e4	0.20052296
132	0x3d2d4d2d	0.04230993
133	0xbe971a0d	-0.29512063
134	0xbecac75e	-0.3960523
135	0xbd2fe7a3	-0.042945515
136	0xbe6b32da	-0.22968617
137	0x3e2ef0eb	0.1708409
138	0xbe7e687a	-0.24844542
139	0x3e50e034	0.20398027
140	0xbbce8d66	-0.006303477
141	0xbea1895d	-0.31550112
142	0xbea80498	-0.32816005
143	0xbdb3b317	-0.08774393
144	0xbd61c6aa	-0.0551211
145	0x3da09461	0.07840801
146	0xbdd78a5e	-0.10524438
147	0x3e119e44	0.1422053
148	0xbe8c00df	-0.27344415
149	0x3e12cf8b	0.14336984
150	0xbdc87cdc	-0.0978944
151	0x3b85328b	0.004064863
152	0x3d43a82d	0.047767807
153	0xbddf294f	-0.10896551
154	0xbd6ac8f4	-0.05732055
155	0x3df81047	0.1211248
156	0xbe6b6b6a	-0.22990194
157	0xbeab2d6f	-0.334331
158	0xbdee95c1	-0.11649657
159	0xbbb0bc80	-0.0053935647
160	0xbeebc723	-0.46050367
161	0x3e097df5	0.13426955
162	0xbdf03484	-0.117287666
163	0x3ebe9377	0.37221882
164	0xbe3798d3	-0.17929392
165	0xbc59758b	-0.013272653
166	0xbe0d3044	-0.13787943
167	0xbeac340e	-0.33633465
168	0xbe6f04ff	-0.2334175
169	0x3ed758e8	0.42060018
170	0x3ddda7fb	0.10823055
171	0xbe27e6e4	-0.16396672
172	0x3e06afc4	0.13152987
173	0x3da2b874	0.07945338
174	0xbe7e062f	-0.24807046
175	0xbde25c1c	-0.11052725
176	0x3d55218b	0.052033942
177	0xbdd0725e	-0.10178064
178	0xbe1498f7	-0.14511476
179	0x3e911f73	0.28344306
180	0x3d9325fe	0.07184981
181	0x3ea738a6	0.32660407
182	0x3e8dfa1c	0.2772988
183	0xbe9ce24c	-0.306414
184	0x3e0d8a59	0.13822307
185	0x3d39fbbc	0.04540609
186	0xbe2b29a7	-0.16715108
187	0x3cacc1b5	0.02108846
188	0x3e01551d	0.12630124
189	0xbe8246bd	-0.25444594
190	0x3de12fa9	0.109954186
191	0xbd51224e	-0.051058106
192	0x3df7f25b	0.121067725
193	0xbd77f7a9	-0.06053892
194	0x3dc24e54	0.09487596
195	0x3e0f3229	0.13983978
196	0x3e96d2a7	0.2945759
197	0x3c36de2f	0.011161371
198	0xbe9fb086	-0.31189364
199	0xbc770440	-0.015076697
200	0xbe191bfc	-0.14952081
201	0x3e7a8fdb	0.24468939
202	0x3e5e3da6	0.21703205
203	0xbe0ce266	-0.13758239
204	0xbc2dde96	-0.010612151
205	0x3dc37cb5	0.0954527
206	0xbed0136f	-0.40639827
207	0xbe8327e3	-0.2561637
208	0x3ea8ab1c	0.32943046
209	0x3e5899ce	0.21152422
210	0x3d5df3f7	0.05418774
211	0x3db791ac	0.089633316
212	0xbe708d96	-0.23491511
213	0xbebcaf09	-0.3685229
214	0x3e8ed24e	0.27894825
215	0xbe967bdb	-0.2939137
216	0x3ec18dcb	0.37803492
217	0x3d926626	0.071483895
218	0x3e7565cf	0.23964618
219	0xbe456bae	-0.19279358
220	0x3e80ed3c	0.25180995
221	0x3e74531e	0.23859832
222	0x3e10fe01	0.14159395
223	0xbe0db22a	-0.13837495
224	0x3dfd58e8	0.12370473
225	0x3e8a6b15	0.27034822
226	0x3c62c048	0.013839789
227	0x3da6c91b	0.081438266
228	0x3e829283	0.25502405
229	0xbebf722b	-0.3739179
230	0x3de003bb	0.109382115
231	0xbd6353c1	-0.055499796
232	0xbe4fa829	-0.20278992
233	0xbdd6197b	-0.10454079
234	0xbec16282	-0.37770468
235	0xbe3b4af7	-0.18290316
236	0x3db5064d	0.088390924
237	0xbee5cc37	-0.44882366
238	0xbecc56a8	-0.39909863
239	0x3d93168c	0.07182035
240	0xbe486dd6	-0.19573149
241	0xbe074e54	-0.13213474
242	0x3e31d7b8	0.17367446
243	0xbe8340bf	-0.25635335
244	0xbeb8a318	-0.3606193
245	0x3e2d51a0	0.16925669
246	0x3dd190ce	0.102326974
247	0xbe875c28	-0.26437497
248	0x3e4191b6	0.1890324
249	0x3e8166a1	0.25273612
250	0x3d5fb7d8	0.054618686
251	0x3d050b0d	0.032481242
252	0x3e5a2b64	0.21305615
253	0xbe85a1d2	-0.26100022
254	0x3e85103b	0.25988945
255	0xbdb0dc2a	-0.08635743

FC.6.bias f4 [10]
0	0x3b2d55b6	0.0026448793
1	0x3c0cc89d	0.008592752
2	0x3da394ee	0.079873905
3	0xbd97494e	-0.07387029
4	0xbe2b7c20	-0.16746569
5	0x3d3ecc61	0.04658163
6	0xbe3f324c	-0.1867153
7	0xbd2c4075	-0.04205366
8	0x3c185420	0.009297401
9	0xbdca0622	-0.09864451
