Ai Elevator/Traen1/Outputs/final_weights_3000.pth (torch, 122791 bytes, 8 tensors)

FC.0.weight f4 [128, 33]
-0.44502258 -0.085303135 0.26211748 0.3872702 0.32447347 0.51721084 0.11246074 -0.048143893
-0.34694797 0.14668852 -0.037324004 -0.33957997 -0.32585704 0.033577174 0.26796606 0.23946898
-0.09866646 -0.0008445167 0.06043186 -0.6420183 -0.11104943 -0.064961426 -0.47207028 0.08483909
0.1572764 -0.00456001 -0.06783313 0.17348093 -0.8182631 -0.20666574 -0.30308297 -0.3422395
0.24332416 0.22975603 0.20387386 0.28215843 -0.1323134 -0.552274 -0.30674917 -0.11549106
0.11492815 -0.050410252 0.037465587 -0.1157719 -0.43534955 0.25531444 0.23385793 -0.18805854
-0.6617742 -0.036381863 0.4404069 -0.676058 -0.28818855 0.37525588 -0.41580474 0.26177052
-0.62355745 -0.07458719 -0.31058285 -0.27366114 -0.044282768 -0.5152104 -0.39162716 -0.360828
0.2718063 0.3719747 0.015908014 -0.09768736 0.19683625 -0.49610898 -0.49956673 -0.14938085
0.4225358 0.61994016 -0.5759462 -0.12514493 -0.347672 0.42330387 -0.027472379 0.18479764
-0.026666356 -0.20141253 -0.35585722 -0.30091587 -0.380706 -0.11414092 0.44686183 -0.29827258
-0.03159064 -0.3292972 -0.6348781 -0.048122153 0.24957883 -0.08777244 -0.3004696 0.2870015
0.0588218 -0.0823896 0.045242846 0.17651863 -0.23681228 0.37786487 0.07968048 0.29587784
0.29877636 -0.07311246 -0.4233645 -0.2983768 -0.009090301 0.32754436 -0.22071965 -0.35190102
-0.26562798 -0.3579522 0.054594453 -0.31189653 -0.101460464 0.110085584 -0.29068264 -0.2816204
-0.16862257 -0.072484665 0.15987723 0.37117794 -0.30103558 0.21310936 0.16169599 -0.36702248
-0.40788975 -0.5364569 0.16903083 0.23917115 -0.04941118 0.36872765 -0.13748732 0.34937727
0.4403178 0.18519333 -0.3650009 0.21427715 0.49409276 0.2838293 0.15306148 0.3004287
0.35243672 -0.018217087 -0.055232693 -0.1447847 0.18172178 -0.17370468 0.039603043 0.25653964
0.030856615 -0.05038042 -0.18650581 -0.4550267 -0.42731962 -0.6495654 -0.1293836 -0.07502298
0.19944614 0.060076732 -0.23624134 -0.24978365 -0.0869565 -0.2548259 0.12467998 0.28667352
-0.34536526 -0.38488588 0.27832353 0.14737959 -0.06750116 -0.37290746 -0.034532946 -0.25809506
-0.42621514 -0.05576057 -0.41229182 0.14645791 -0.24399526 -0.3618821 -0.35689932 0.0046893233
0.12517144 0.33664626 -0.144949 -0.007706769 0.32531282 0.3468512 -0.53150785 0.1887608
-0.44520557 -0.19835521 0.1546189 0.80506533 -0.19921798 -0.13268042 -0.2600182 -0.21220157
-0.1714537 0.01592872 -0.3473531 -0.13829884 0.22834262 0.21033463 0.13770558 0.072371215
0.28475085 -0.310109 -0.29105678 0.23065275 0.47863877 0.19803475 0.20774433 0.24383317
0.23096089 -0.07826901 -0.062753685 0.20842017 0.3038751 0.23601602 0.3503904 0.5190024
0.23260278 0.51702 0.05695005 0.50687265 0.407905 0.41369775 0.0017390251 0.23097219
0.33191097 0.26549637 -0.09127279 0.33917105 0.16666515 0.15925169 -0.05919247 -0.09439411
0.15965526 0.049149107 -0.08992235 -0.012188311 0.0217174 0.2236205 -0.18946841 -0.6129917
0.2807361 0.17486295 -0.46999174 -0.07448991 0.41142625 -0.001190776 -0.4124369 -0.30331394
00000000: 00da e3be 69b3 aebd 4334 863e 4848 c63e
00000010: 6321 a63e ee67 043f d151 e63d 8832 45bd
00000020: 2aa3 b1be 8435 163e 0ee1 18bd 6ddd adbe
00000030: bcd6 a6be 3888 093d d932 893e 5b37 753e
00000040: a411 cabd 8e62 5dba 6687 773d 505b 24bf
00000050: e26d e3bd 7f0a 85bd 32b3 f1be 1ec0 ad3d
00000060: 110d 213e 236c 95bb 19ec 8abd fca4 313e
00000070: b179 51bf 2fa0 53be b12d 9bbe 043a afbe
00000080: f829 793e 2a45 6b3e 4fc4 503e 1277 903e
00000090: 2a7d 07be d461 0dbf 3a0e 9dbe 9486 ecbd
000000a0: 735f eb3d fb7a 4ebd 8475 193d d119 edbd
000000b0: 23e6 debe 93b8 823e 7478 6f3e 6b92 40be
000000c0: 096a 29bf 2605 15bd 037d e13e 2312 2dbf
000000d0: 738d 93be 8a21 c03e 5ce4 d4be c906 863e
000000e0: 76a1 1fbf 2bc1 98bd b704 9fbe 501d 8cbe
000000f0: d961 35bd d4e4 03bf 5b83 c8be 73be b8be
00000100: 322a 8b3e 7873 be3e 8651 823c 5010 c8bd
00000110: 718f 493e ff01 febe 36c7 ffbe 4bf7 18be
00000120: 9d56 d83e 66b4 1e3f 3671 13bf fe25 00be
00000130: 1002 b2be 49bb d83e c10d e1bc 983b 3d3e
00000140: 6773 dabc 163f 4ebe eb32 b6be a511 9abe
00000150: e6eb c2be b7c2 e9bd 13cb e43e 2fb7 98be
00000160: 3065 01bd a599 a8be 5f87 22bf bc1b 45bd
00000170: 9891 7f3e 09c2 b3bd 27d7 99be dcf1 923e
00000180: 21ef 703d e1bb a8bd 9050 393d 4dc1 343e
00000190: eb7e 72be 8177 c13e 852f a33d 4d7d 973e
000001a0: 37f9 983e fcbb 95bd 3bc3 d8be d8c4 98be
000001b0: 7cef 14bc e5b3 a73e 5504 62be 5f2c b4be
000001c0: 6400 88be 8345 b7be 6f9e 5f3d e7b0 9fbe
000001d0: 81ca cfbd 8d74 e13d 5bd4 94be 8d30 90be
000001e0: 65ab 2cbe d772 94bd dbb6 233e 090b be3e
000001f0: 5621 9abe 5739 5a3e a293 253e 5fea bbbe
00000200: edd6 d0be 3d55 09bf 6b16 2d3e 48e9 743e
00000210: 6163 4abd dfc9 bc3e 7ac9 0cbe 94e1 b23e
00000220: 5671 e13e 52a3 3d3e 66e1 babe 786b 5b3e
00000230: baf9 fc3e 1352 913e 26bc 1c3e cad1 993e
00000240: 9672 b43e 003c 95bc ad3b 62bd 7142 14be
00000250: 4615 3a3e a4df 31be cd36 223d 2a59 833e
00000260: 03c7 fc3c b35b 4ebd 61fb 3ebe 42f9 e8be
00000270: a3c9 dabe eb49 26bf 227d 04be a6a5 99bd
00000280: 9c3b 4c3e 0513 763d 40e9 71be 49c7 7fbe
00000290: 4016 b2bd 8a78 82be 3858 ff3d dfc6 923e
000002a0: b7d3 b0be c30f c5be 6c80 8e3e adea 163e
000002b0: 0c3e 8abd baed bebe 6b72 0dbd 0925 84be
000002c0: df38 dabe 3265 64bd ea17 d3be 10f9 153e
000002d0: e5d9 79be 9c48 b9be 82bb b6be e5a8 993b
000002e0: f12c 003e e65c ac3e 836d 14be 1089 fcbb
000002f0: 678f a63e 7b96 b13e e610 08bf 834a 413e
00000300: fcf1 e3be a11d 4bbe 6b54 1e3e c318 4e3f
00000310: ccff 4bbe 60dd 07be 1b21 85be 5e4b 59be
00000320: 8f91 2fbe f27c 823c 44d8 b1be 369e 0dbe
00000330: a6d2 693e f661 573e b102 0d3e 5c37 943d
00000340: ddca 913e 9bc6 9ebe 6505 95be 3c30 6c3e
00000350: 2410 f53e 9fc9 4a3e eeba 543e 67af 793e
00000360: 0381 6c3e 814b a0bd 0185 80bd 196c 553e
00000370: 8495 9b3e 2fae 713e 5f66 b33e 57dd 043f
00000380: 6c2f 6e3e 6c5b 043f 7544 693d 68c2 013f
00000390: edd8 d03e 31d0 d33e 00f0 e33a f983 6c3e
000003a0: 3cf0 a93e 24ef 873e 3bed babd d4a7 ad3e
000003b0: 45aa 2a3e e012 233e ce73 72bd b351 c1bd
000003c0: ab7c 233e 9350 493d 3629 b8bd 7bb1 47bc
000003d0: b0e8 b13c c6fc 643e 0204 42be 06ed 1cbf
000003e0: a4bc 8f3e 460f 333e c2a2 f0be 2a8e 98bd
000003f0: 76a6 d23e d013 9cba ee2a d3be f74b 9bbe

FC.0.bias f4 [128]
0.043491933 0.07992438 -0.1562511 0.06647434 0.23155847 -0.025966275 -0.12336055 0.12969863
0.21900187 -0.22526221 -0.09344462 0.10381738 0.1369017 -0.05571279 -0.21602698 0.08250828
-0.014444416 -0.09145798 -0.0058851223 -0.124925345 0.11050979 -0.092750154 -0.069108725 -0.1627028
0.21373683 -0.056207117 -0.05462782 0.08570384 -0.10653735 -0.0041080834 0.043388814 0.07192511
-0.06711542 0.1720689 -0.03381231 -0.11177703 -0.018896395 -0.14068927 -0.17783037 -0.032101765
0.037256893 0.002394561 -0.052473012 0.14483348 0.12405942 -0.15699463 0.07187464 0.02847414
-0.14921217 -0.15590021 0.04061972 -0.12265881 -0.010966777 0.013424646 -0.009881128 -0.014168156
0.13425116 -0.13557445 -0.03660343 0.18337333 0.0031207495 0.08132611 -0.19323182 0.16743036
0.08118954 -0.20306697 0.011540868 0.09716938 0.04823857 -0.1652939 -0.21225463 -0.16863862
0.10380389 -0.089302115 0.07619065 -0.048118636 -0.20297064 -0.119972505 0.023744196 0.011519086
0.03236677 -0.152447 -0.10543487 -0.043071724 -0.025843726 -0.07350187 -0.111645095 -0.04022394
-0.126784 -0.083785444 -0.0043322826 -0.095881835 0.06268602 -0.06785643 -0.2897298 -0.11485599
0.04932728 -0.14581978 -0.1352393 0.08599636 0.020623377 -0.14866443 -0.10510853 0.062429126
-0.012798334 -0.068752654 -0.13683301 -0.009436103 -0.024159797 0.15515183 -0.020675113 0.04386552
0.14955416 -0.023024473 -0.0042187762 -0.023096396 0.057014473 -0.121428594 -0.14734222 0.10693506
0.008101665 -0.051701795 0.24877332 -0.14717136 0.082571805 -0.025431031 -0.11484219 -0.07755168
00000000: 9924 323d 65af a33d 4a00 20be b323 883d
00000010: aa1d 6d3e 3ab7 d4bc 75a4 fcbd b8cf 043e
00000020: 0742 603e 23ab 66be e55f bfbd 359e d43d
00000030: f62f 0c3e 1833 64bd 2d36 5dbe 1afa a83d
00000040: 46a8 6cbc 524e bbbd fcd7 c0bb dcd8 ffbd
00000050: f552 e23d cbf3 bdbd e088 8dbd 909b 26be
00000060: d4dd 5a3e 6f39 66bd 6cc1 5fbd 7f85 af3d
00000070: 4130 dabd 1a9d 86bb 78b8 313d 794d 933d
00000080: cf73 89bd d432 303e c77e 0abd 5beb e4bd
00000090: 9dcc 9abc d910 10be 2a19 36be 247d 03bd
000000a0: af9a 183d 11ee 1c3b f1ed 56bd 3a4f 143e
000000b0: dd12 fe3d 33c3 20be 0333 933d 9a42 e93c
000000c0: 13cb 18be 4ea4 1fbe dd60 263d 8b34 fbbd
000000d0: ffad 33bc 0cf3 5b3c 74e4 21bc 8e21 68bc
000000e0: 2379 093e 07d4 0abe 7aed 15bd 38c6 3b3e
000000f0: 7d85 4c3b 4e8e a63d 90de 45be dd72 2b3e
00000100: b446 a63d caf0 4fbe e915 3d3c bd00 c73d
00000110: cf95 453d ce42 29be 4759 59be 9aaf 2cbe
00000120: 2297 d43d 07e4 b6bd d809 9c3d 0c18 45bd
00000130: 89d7 4fbe 25b4 f5bd 3083 c23c 8cba 3c3c
00000140: 0593 043d 111b 1cbe 3dee d7bd fa6b 30bd
00000150: 39b6 d3bc 2688 96bd 2fa6 e4bd dcc1 24bd
00000160: aad3 01be b497 abbd d2f5 8dbb b25d c4bd
00000170: 8761 803d 50f8 8abd 7757 94be 9e39 ebbd
00000180: 670b 4a3d c851 15be 2c7c 0abe dc1e b03d
00000190: 5bf2 a83c 7d3b 18be 2443 d7bd afb5 7f3d
000001a0: 1ab0 51bc 31ce 8cbd f41d 0cbe e299 1abc
000001b0: c4ea c5bc 1fe0 1e3e db5e a9bc 55ac 333d
000001c0: ba24 193e d29d bcbc a93d 8abb a734 bdbc
000001d0: 0288 693d 8eaf f8bd e1e0 16be c500 db3d
000001e0: d9bc 043c 43c5 53bd 6fbe 7e3e 17b4 16be
000001f0: 681b a93d bd54 d0bc 6232 ebbd 6ad3 9ebd

FC.2.weight f4 [128, 128]
-0.1939287 0.09947917 0.123584 0.028374767 -0.10241222 -0.054230977 -0.2136983 -0.11559066
-0.13105306 0.17902349 0.099895254 -0.011914188 0.08546495 0.1166108 -0.09771568 -0.042689458
-0.01673506 0.07576701 -0.05809999 -0.0060887276 -0.72609854 -0.3759884 -0.42588913 -0.1819797
0.010717538 -0.17272124 0.20308746 -0.023488872 -0.057142552 -0.33307055 -0.06972376 0.035186414
0.072936706 -0.26815593 0.054207757 -0.038493678 0.07272424 0.019184172 0.08871894 -0.18979128
-0.42015475 0.1673099 0.30159456 0.23689601 -0.010749261 -0.18637834 0.07463077 -0.013395177
-0.0048744427 0.20184547 0.13236903 -0.3078464 -0.42589524 -0.37440556 0.013991214 0.07321452
-0.53819805 -0.0072294017 -0.105008766 0.113698885 0.16852932 0.079932116 0.12793183 0.17310123
0.20556535 -0.17079014 0.21058297 -0.1633876 0.24240033 0.30322203 -0.26523262 0.06788918
-0.036975335 0.038150173 -0.25009462 -0.5270523 -0.1242251 0.12532836 -0.08014381 0.09883894
0.18098079 0.14026606 -0.04672826 0.2390975 -0.11145657 0.3138697 -0.10091859 -0.4247652
-0.19533868 -0.124428704 0.056177717 0.08394337 -0.12961611 -0.05009169 0.19050306 -0.11613416
-0.08739708 -0.16764756 0.0011309019 -0.5506534 0.2256855 -0.27137777 -0.12938122 0.088274
0.100435205 0.14640331 0.2084978 -0.018765396 -0.15441202 -0.03854509 -0.06514002 0.013415585
-0.12665352 -0.024211785 -0.09837149 -0.20793878 0.30941018 0.16381955 -0.17088729 0.0971821
-0.052629784 0.20071311 0.2776094 0.20284104 -0.1823521 0.14044474 -0.12356397 0.014600091
0.21967703 0.36386374 0.07257078 -0.121572316 -0.18133391 -0.025956007 -0.14916533 0.0499996
0.0076821996 0.075966 -0.04010984 0.08196369 0.014331176 -0.42038918 0.15624 0.03414189
-0.05707028 0.04614167 -0.48618037 0.09725217 -0.16317141 -0.0024078223 0.15649115 -0.15342431
0.042313725 0.1758709 0.25041562 0.35018137 -0.42186844 0.051632848 -0.06285924 -0.0135994395
-0.055902977 0.0400822 0.20841953 -0.2000042 -0.13169 0.19560473 -0.25588763 -0.07364551
0.024280656 0.022491647 -0.15286168 0.0015776202 -0.08220034 -0.24562486 -0.025254214 -0.017700283
-0.057225537 -0.3360882 -0.6028958 0.08933021 -0.027443541 0.048020966 -0.08555177 0.044432897
-0.21596007 0.046594385 -0.33749774 -0.04044917 0.33765063 0.31155416 -0.018230664 -0.27777958
-0.02332365 -0.16738415 0.09191353 -0.15894026 0.1697172 -0.059207812 0.028073676 -0.10213122
0.17277585 0.22499143 0.25644517 -0.06766727 -0.39198926 0.28750098 0.30207437 0.17789231
-0.38012993 0.09510459 -0.3498234 0.032405324 -0.1561659 -0.096798144 0.112706386 -0.03184615
0.05984948 -0.35424933 0.3677922 0.017648946 0.09644727 -0.17067598 -0.11761656 0.20372003
0.15706806 0.16374074 0.0065277526 -0.040717103 0.09275341 -0.2557787 -0.1431763 -0.30156913
-0.052525543 -0.16051951 0.10108402 0.04860802 0.025037687 0.053735487 0.35211283 0.2263872
0.10077041 -0.16152094 0.21803413 0.08294847 0.109673604 0.057799306 0.104097664 0.22639073
-0.04300819 -0.22920507 -0.019917717 -0.08431188 0.07643568 0.05573786 -0.19846715 0.022033343
00000000: 3f95 46be bcbb cb3d 9c19 fd3d 3372 e83c
00000010: 7fbd d1bd 4d21 5ebd bad3 5abe ccba ecbd
00000020: c632 06be ef51 373e e295 cc3d ba33 43bc
00000030: 3f08 af3d a5d1 ee3d 291f c8bd 24db 2ebd
00000040: f717 89bc bc2b 9b3d 41fa 6dbd f383 c7bb
00000050: 98e1 39bf 8d81 c0be 240e dabe e358 3abe
00000060: 9d98 2f3c d6dd 30be 29f6 4f3e bc6b c0bc
00000070: 4f0e 6abd 3988 aabe 55cb 8ebd a11f 103d
00000080: d75f 953d bc4b 89be f408 5e3d 8cab 1dbd
00000090: 72f0 943d 2028 9d3c 47b2 b53d a558 42be
000000a0: 861e d7be 4953 2b3e 9a6a 9a3e de94 723e
000000b0: ab1d 30bc f7d9 3ebe 04d8 983d 7277 5bbc
000000c0: cab9 9fbb 94b0 4e3e bf8b 073e 0b9e 9dbe
000000d0: f10e dabe 16b2 bfbe 683b 653c 7ff1 953d
000000e0: 59c7 09bf 9ee4 ecbb d60e d7bd f6da e83d
000000f0: f392 2c3e 73b3 a33d 9000 033e 7341 313e
00000100: b97f 523e 9ce3 2ebe 10a3 573e 144f 27be
00000110: cb37 783e eb3f 9b3e 92cc 87be 7b09 8b3d
00000120: 7373 17bd 5b43 1c3d 670c 80be e6ec 06bf
00000130: bb69 febd 1456 003e 7022 a4bd 126c ca3d
00000140: 0753 393e e8a1 0f3e 2266 3fbd fad5 743e
00000150: 5843 e4bd 88b3 a03e 68ae cebd d37a d9be
00000160: dd06 48be 7ad4 febd 9b1a 663d 80ea ab3d
00000170: 16ba 04be f22c 4dbd 3c13 433e bfd7 edbd
00000180: 3efd b2bd cdab 2bbe c53a 943a 9ff7 0cbf
00000190: 1a1a 673e 07f2 8abe 837c 04be 00c9 b43d
000001a0: f9b0 cd3d c0ea 153e 7380 553e e3b9 99bc
000001b0: 2f1e 1ebe 75e1 1dbd 2168 85bd 0bcd 5b3c
000001c0: 76b1 01be cb57 c6bc fe76 c9bd e7ed 54be
000001d0: 036b 9e3e 50c0 273e 14fd 2ebe 6907 c73d
000001e0: 5492 57bd bd87 4d3e d222 8e3e 90b5 4f3e
000001f0: 82ba 3abe bfd0 0f3e 1b0f fdbd 3835 6f3c
00000200: 04f3 603e 594c ba3e fd9f 943d e8fa f8bd
00000210: 99af 39be b1a1 d4bc ccbe 18be 61cc 4c3d
00000220: f6ba fb3b 1094 9b3d 374a 24bd 94dc a73d
00000230: 4fcd 6a3c 403d d7be 61fd 1f3e 5ed8 0b3d
00000240: 87c2 69bd 0cff 3c3d a2ec f8be 252c c73d
00000250: 6816 27be 8ecc 1dbb 373f 203e 431b 1dbe
00000260: 2851 2d3d 8017 343e 7a36 803e f94a b33e
00000270: 24ff d7be f77c 533d 58bc 80bd 2fd0 5ebc
00000280: 85fa 64bd 3c2d 243d ee6b 553e e7cd 4cbe
00000290: bed9 06be 9b4c 483e b403 83be 75d3 96bd
000002a0: 3ae8 c63c 6740 b83c c687 1cbe 26c8 ce3a
000002b0: a758 a8bd 1585 7bbe ede1 cebc 2f00 91bc
000002c0: 5365 6abd c113 acbe 6157 1abf c2f2 b63d
000002d0: 47d1 e0bc a2b1 443d c435 afbd 45ff 353d
000002e0: a324 5dbe c1d9 3e3d 81cc acbe 07ae 25bd
000002f0: 8be0 ac3e 0784 9f3e 7958 95bc 2039 8ebe
00000300: 3d11 bfbc c066 2bbe 293d bc3d 3cc1 22be
00000310: 58ca 2d3e e483 72bd c4fa e53c 2c2a d1bd
00000320: 27ec 303e 2764 663e c84c 833e 2395 8abd
00000330: d1b2 c8be 5433 933e 7ea9 9a3e 6729 363e
00000340: 64a0 c2be 32c6 c23d 0d1c b3be 72bb 043d
00000350: f4e9 1fbe 1b3e c6bd 9bd2 e63d 1c71 02bd
00000360: ba24 753d 2b60 b5be 424f bc3e 8694 903c
00000370: 2586 c53d afc5 2ebe f3e0 f0bd fc9b 503e
00000380: 73d6 203e a7ab 273e c2e6 d53b fac6 26bd
00000390: 80f5 bd3d 6df5 82be cf9c 12be 4567 9abe
000003a0: 0625 57bd 3a5f 24be 2405 cf3d 3419 473d
000003b0: d61b cd3c be19 5c3d 2248 b43e 0cd2 673e
000003c0: b760 ce3d bf65 25be 5744 5f3e e3e0 a93d
000003d0: 8e9c e03d f7be 6c3d 2831 d53d f9d2 673e
000003e0: 5b29 30bd bcb4 6abe 7b2a a3bc b5ab acbd
000003f0: 4f8a 9c3d 624d 643d f93a 4bbe 457f b43c

FC.2.bias f4 [128]
-0.08674985 0.11736373 -0.09298841 -0.0016227337 0.022529306 -0.06495462 -0.007370969 -0.10304435
-0.03050809 0.03131309 -0.09084129 -0.050369155 0.004990945 0.0769693 -0.058275215 0.02112054
0.038832918 0.12337962 0.048761092 0.055964306 0.035353206 -0.098687336 0.03866693 -0.060521454
-0.13554047 -0.10272177 0.035776533 0.034752473 -0.082251534 -0.03722434 -0.002032811 0.0109958
-0.08895412 -0.03369548 -0.057529308 -0.086381786 -0.101770185 0.07421617 0.068696424 0.060832705
-0.09037014 -0.055100247 -0.089494675 -0.078487515 -0.05804584 -0.049082726 0.080270626 -0.04012302
0.0057457797 -0.020297386 -0.032490548 -0.09624689 -0.04460704 -0.06335284 0.011506832 -0.14417285
-0.047755677 -0.13261572 -0.024163349 -0.015031876 -0.038075015 -0.017277058 0.03283295 -0.14806245
-0.0076678866 -0.058317047 -0.03170998 -0.0044191577 0.04194559 -0.002108614 -0.01252049 -0.02789645
-0.10338579 0.077243276 0.025559964 -0.044604126 -0.08608714 0.04324271 -0.14271818 0.019027626
0.054054286 -0.0049547576 0.06146995 0.031515703 -0.062118795 0.030675732 -0.1648074 -0.08045554
0.053668868 0.06562387 -0.07810464 0.04635057 0.10815628 -0.12717018 -0.0051824315 -0.037182137
0.03876171 -0.04522776 -0.02474773 -0.15783575 -0.058534335 -0.088930026 -0.09442264 0.06885384
-0.105813816 -0.14054331 -0.022744032 -0.066917956 -0.08320707 -0.04119931 0.012483484 0.081091926
-0.055970196 0.15147693 -0.03712223 0.10681701 -0.034550365 0.029438082 0.052183654 -0.061733052
-0.15413254 -0.10865593 0.0014551237 -0.041170232 -0.10234869 0.08773464 0.03426966 -0.0550503
00000000: e8a9 b1bd 655c f03d b570 bebd e8b1 d4ba
00000010: 618f b83c ee06 85bd 2b88 f1bb eb08 d3bd
00000020: 1aec f9bc 2842 003d 000b babd e34f 4ebd
00000030: 158b a33b 15a2 9d3d feb1 6ebd fc04 ad3c
00000040: 440f 1f3d 74ae fc3d b6b9 473d d43a 653d
00000050: 86ce 103d 961c cabd 3761 1e3d 58e5 77bd
00000060: 1fcb 0abe cb5f d2bd 6a8a 123d 9c58 0e3d
00000070: 7e73 a8bd 8d78 18bd e938 05bb ba27 343c
00000080: 942d b6bd 4604 0abd daa3 6bbd efe8 b0bd
00000090: e36c d0bd a6fe 973d b6b0 8c3d b72b 793d
000000a0: fb13 b9bd ccb0 61bd fc48 b7bd 10be a0bd
000000b0: 7ac1 6dbd f80a 49bd ed64 a43d 0958 24bd
000000c0: 1847 bc3b b446 a6bc cf14 05bd 171d c5bd
000000d0: dfb5 36bd 22bf 81bd 2787 3c3c 0ca2 13be
000000e0: 759b 43bd 6acc 07be 37f2 c5bc 4248 76bc
000000f0: 8cf4 1bbd 9e88 8dbc d87b 063d af9d 17be
00000100: e542 fbbb dbdd 6ebd 53e2 01bd 95ce 90bb
00000110: 24cf 2b3d ac30 0abb be22 4dbc 1987 e4bc
00000120: eebb d3bd b931 9e3d 2163 d13c d1b2 36bd
00000130: 744e b0bd 451f 313d b724 12be d3df 9b3c
00000140: 0768 5d3d 855b a2bb eac7 7b3d 9c16 013d
00000150: 4770 7ebd ac4b fb3c 45c3 28be e0c5 a4bd
00000160: e3d3 5b3d cf65 863d 53f5 9fbd 18da 3d3d
00000170: 0a81 dd3d e638 02be 63d1 a9bb 4c4c 18bd
00000180: 99c4 1e3d be40 39bd c0bb cabc b29f 21be
00000190: b3c1 6fbd f220 b6bd a860 c1bd 3e03 8d3d
000001a0: eab4 d8bd 96ea 0fbe b151 babc 480c 89bd
000001b0: 7868 aabd 9cc0 28bd 8787 4c3c 8613 a63d
000001c0: 0141 65bd c51c 1b3e 7b0d 18bd e0c2 da3d
000001d0: af84 0dbd 2228 f13c 87be 553d ccdb 7cbd
000001e0: ecd4 1dbe 0087 debd d9b9 be3a 1ea2 28bd
000001f0: 319c d1bd 38ae b33d 585e 0c3d 6c7c 61bd

FC.4.weight f4 [64, 128]
-0.056751527 -0.13782805 -0.05978736 -0.20251553 0.13678682 0.030413497 -0.32588595 0.17088269
-0.08709227 0.0438379 -0.084449835 0.20603937 -0.048213582 -0.18874624 0.06427792 0.14211155
0.020089498 -0.17491938 0.29987293 -0.022728832 -0.16822189 -0.14136682 -0.015111597 0.15927774
0.05665032 -0.03787698 0.14882344 -0.026020076 0.15913208 -0.37036118 -0.11414981 -0.099786475
-0.18836662 -0.109304756 0.08397256 -0.010039426 -0.05800017 -0.19627912 0.124064386 -0.06328554
-0.014293354 0.18695194 -0.006120124 -0.063813694 -0.22891277 0.18983917 0.16411568 -0.07294355
-0.0876655 0.12493575 -0.12911227 -0.0987798 -0.17027228 -0.1060352 -0.46179345 -0.0697444
0.18443918 -0.37810758 0.16702084 0.021019697 0.18073879 -0.0048433132 -0.073469184 -0.3263792
0.14281024 -0.054733835 -0.09083554 0.091461346 -0.021350631 -0.24028777 -0.063789606 -0.05129359
-0.255852 0.33189255 0.08771533 -0.058227677 -0.9401606 -0.16180894 -0.18937182 0.03493441
0.059852123 -0.07938044 0.07529613 0.109280474 0.044393446 -0.32223424 -0.17481622 0.17317119
-0.12171232 0.16084936 -0.03995834 0.20323028 0.0007126012 -0.20688054 0.14463569 -0.12535453
-0.17653456 -0.058563627 0.001743751 -0.30452606 0.13478403 -0.10445163 0.17325917 0.10876039
0.28741315 0.25495082 0.08780966 0.051934212 0.22597413 -0.29143366 0.20667377 -0.08663933
0.21600527 -0.07431174 -0.21108848 0.34597173 -0.026972258 -0.21374804 -0.28263274 -0.25566828
0.13772899 -0.05607527 -0.109105095 -0.24196257 0.08789547 -0.05000094 -0.010396779 -0.40530843
-0.14426756 0.23207463 0.08843679 -0.10540251 0.12923422 -0.063624546 0.043463152 0.011160078
-0.11475618 -0.07578953 0.16585031 0.32243666 -0.369939 -0.23028886 -0.48037106 0.17391798
-0.20090449 -0.16211852 -0.38676888 -0.32833004 0.16771477 0.07076791 -0.18744195 0.405613
-0.0027857246 0.0028699292 0.03855528 -0.09312681 -0.088737756 -0.23786625 -0.123218946 -0.31102526
0.26186046 -0.46651128 -0.21383356 -0.109899074 -0.26881605 0.039902616 0.17123276 -0.21443598
0.06564855 -0.25984588 -0.058500983 -0.2823224 -0.19281927 -0.41030857 -0.028421326 0.04283931
-0.21373573 0.13021655 0.06875788 -0.25253236 -0.017823488 -0.18345897 0.09235647 -0.14473443
0.037997287 -0.12996319 0.30473384 -0.09788086 0.18048725 0.016975489 0.090703875 -0.002767502
-0.6077847 -0.049705718 -0.09125951 -0.08958638 -0.2756563 -0.09057019 0.089491755 0.025613118
-0.016572023 0.10472575 0.16777563 -0.19663467 -0.17469455 0.09083016 -0.043246068 -0.1836211
-0.027591083 -0.4939264 -0.324876 -0.18931219 0.12157892 -0.04630176 0.18061945 -0.03147411
-0.46681604 -0.15586112 -0.11215665 0.06912606 -0.36178935 -0.2745638 0.010563452 -0.011627235
-0.085320815 -0.358357 0.017663524 -0.001533341 0.021888215 -0.25504673 0.07769102 -0.08763547
-0.043906987 -0.31952366 -0.0695984 0.091839924 -0.14704347 0.08469487 0.1622148 0.020319903
0.15391637 -0.33545077 -0.23200715 -0.14313003 -0.34857866 0.255128 -0.566757 0.086580805
-0.03291843 0.06999807 0.11672533 0.035544105 0.07816839 0.17979571 -0.31880125 0.12511358
00000000: 4a74 68bd cc22 0dbe 97e3 74bd 3b60 4fbe
00000010: d811 0c3e ba25 f93c 86da a6be dffb 2e3e
00000020: 6f5d b2bd 5f8f 333d 09f4 acbd fcfb 523e
00000030: 9b7b 45bd b246 41be 24a4 833d b185 113e
00000040: bb92 a43c 111e 33be f288 993e d131 babc
00000050: 5c42 2cbe 77c2 10be a296 77bc b419 233e
00000060: 2a0a 683d e424 1bbd 2c65 183e 0e28 d5bc
00000070: 85f3 223e fb9f bdbe 60c7 e9bd da5c ccbd
00000080: 2ee3 40be 2cdb dfbd cef9 ab3d 687c 24bc
00000090: 9691 6dbd 65fd 48be 7815 fe3d d99b 81bd
000000a0: ac2e 6abc 5470 3f3e 528b c8bb c1b0 82bd
000000b0: 1c68 6abe 3365 423e f10d 283e 6e63 95bd
000000c0: f889 b3bd 51de ff3d 0236 04be 104d cabd
000000d0: db5b 2ebe fc28 d9bd 3170 ecbe 27d6 8ebd
000000e0: a0dd 3c3e 5197 c1be 8307 2b3e 8031 ac3c
000000f0: 9713 393e a8b4 9ebb 0377 96bd 2d1b a7be
00000100: d93c 123e 9630 60bd fc07 babd 1650 bb3d
00000110: 85e7 aebc ff0d 76be 20a4 82bd 3a19 52bd
00000120: 09ff 82be d2ed a93e 18a4 b33d 2580 6ebd
00000130: 5dae 70bf 3eb1 25be b0ea 41be 6217 0f3d
00000140: 8027 753d 3692 a2bd db34 9a3d 71ce df3d
00000150: e7d5 353d e3fb a4be 0603 33be ca53 313e
00000160: 4f44 f9bd b2b5 243e 5bab 23bd 991b 503e
00000170: dbcd 3a3a 7ed8 53be 611b 143e f05c 00be
00000180: 7ac5 34be 6ae0 6fbd 938e e43a d7ea 9bbe
00000190: d304 0a3e bcea d5bd da6a 313e c4bd de3d
000001a0: d127 933e ea88 823e 8dd5 b33d f8b8 543d
000001b0: c365 673e cb36 95be 4aa2 533e f66f b1bd
000001c0: 7c30 5d3e c130 98bd 9427 58be 3523 b13e
000001d0: edf4 dcbc c4e0 5abe 3db5 90be f4e6 82be
000001e0: d408 0d3e 2faf 65bd 7e72 dfbd 09c5 77be
000001f0: 8a02 b43d c9cd 4cbd 4057 2abc 9684 cfbe
00000200: e0ba 13be f9a4 6d3e 591e b53d 45dd d7bd
00000210: fa55 043e 964d 82bd 6b06 323d c3d8 363c
00000220: 4a05 ebbd 8b37 9bbd aad4 293e 6b16 a53e
00000230: a568 bdbe d8d0 6bbe 32f3 f5be 8e17 323e
00000240: e8b9 4dbe 6602 26be 9206 c6be e01a a8be
00000250: 6cbd 2b3e c4ee 903d c8f0 3fbe 82ac cf3e
00000260: b490 36bb 6c15 3c3b 24ec 1d3d 45b9 bebd
00000270: 24bc b5bd 3693 73be 375a fcbd b43e 9fbe
00000280: 9312 863e 91da eebe 2ff7 5abe c412 e1bd
00000290: 42a2 89be ed70 233d a457 2f3e 1b95 5bbe
000002a0: bf72 863d 850a 85be ba9e 6fbd 908c 90be
000002b0: 6a72 45be f713 d2be d7d3 e8bc 4678 2f3d
000002c0: 8add 5abe 7d57 053e eed0 8c3d ec4b 81be
000002d0: 9002 92bc abdc 3bbe 6425 bd3d 4335 14be
000002e0: 0ba3 1b3d 1215 05be 1306 9c3e c375 c8bd
000002f0: a6d1 383e 2e10 8b3c f4c2 b93d fb5e 35bb
00000300: c797 1bbf 3998 4bbd 44e6 babd 1079 b7bd
00000310: d322 8dbe dd7c b9bd 7447 b73d 9ad2 d13c
00000320: 0dc2 87bc 747a d63d 60cd 2b3e 995a 49be
00000330: 21e3 32be 2a05 ba3d ca22 31bd 2b07 3cbe
00000340: b206 e2bc ece3 fcbe 2656 a6be 0edb 41be
00000350: 5efe f83d eaa6 3dbd 4ef4 383e ffea 00bd
00000360: 8302 efbe 0f9a 1fbe 63b2 e5bd f791 8d3d
00000370: 743c b9be a093 8cbe 5412 2d3c 2980 3ebc
00000380: aebc aebd 927a b7be 18b3 903c 63fa c8ba
00000390: ea4e b33c 7c95 82be 781c 9f3d 3a7a b3bd
000003a0: d0d7 33bd 9b98 a3be 9b89 8ebd 9216 bc3d
000003b0: 9092 16be 8174 ad3d a31b 263e ed75 a63c
000003c0: 419c 1d3e 34c0 abbe 4893 6dbe ae90 12be
000003d0: e778 b2be 23a0 823e fd16 11bf 4751 b13d
000003e0: 7ad5 06bd 265b 8f3d b10d ef3d b296 113d
000003f0: c016 a03d 5e1c 383e eb39 a3be c61d 003e

FC.4.bias f4 [64]
-0.17614596 -0.05314842 -0.07651849 -0.05963805 -0.14244875 0.08479809 -0.103965886 0.012355088
-0.030685857 -0.06618381 -0.008669553 -0.07536859 0.14391671 -0.11085979 0.008855714 -0.059237275
0.07434569 -0.043285575 -0.0275112 0.053410005 0.11699543 0.072781526 -0.061257295 -0.03144017
0.112870365 -0.061241806 0.039404694 -0.10334677 0.053276457 -0.11730495 0.12227292 0.0104989875
-0.12691206 -0.047059603 -0.05472505 0.047943998 -0.019741151 -0.038490284 0.007683061 -0.13495038
-0.0146827 0.02165004 -0.16371895 0.018757453 0.098157704 0.025005871 -0.04816017 -0.10615348
-0.030104084 0.01582318 0.028533474 0.007169771 -0.02573308 -0.027116476 0.054990813 -0.026836334
0.044453327 0.0019275134 0.02750354 0.0070807687 0.025112692 -0.07512594 0.076216154 -0.11683696
00000000: 9b5f 34be 28b2 59bd bab5 9cbd 0747 74bd
00000010: 16de 11be 9faa ad3d 11ec d4bd ff6c 4a3c
00000020: e860 fbbc 618b 87bd be0a 0ebc d95a 9abd
00000030: e75e 133e 750a e3bd 8f17 113c c9a2 72bd
00000040: 8e42 983d 374c 31bd 2b5f e1bc 73c4 5a3d
00000050: 4d9b ef3d 7b0e 953d eee8 7abd 68c7 00bd
00000060: 9428 e73d b0d8 7abd d166 213d 79a7 d3bd
00000070: 6a38 5a3d 943d f0bd 3a6a fa3d f203 2c3c
00000080: 3cf5 01be 92c1 40bd 6027 60bd ed60 443d
00000090: 32b8 a1bc fda7 1dbd 30c2 fb3b 6f30 0abe
000000a0: b58f 70bc 6d5b b13c f1a5 27be 3ba9 993c
000000b0: e806 c93d 1dd9 cc3c 9943 45bd ff66 d9bd
000000c0: d79c f6bc 9d9f 813c 08bf e93c 66f0 ea3b
000000d0: 2ece d2bc 5f23 debc 0c3e 613d dfd7 dbbc
000000e0: b114 363d 9ea4 fc3a 1b4f e13c cb05 e83b
000000f0: 22b9 cd3c a1db 99bd 3717 9c3d 3748 efbd

FC.6.weight f4 [10, 64]
0.027220745 0.11177338 -0.33631006 -0.13665824 0.034118358 -0.13933705 0.021935718 0.13517122
-0.059419822 0.11606079 -0.026694806 0.09999886 0.48577878 -0.05943393 0.102443926 -0.22495973
-0.23606095 0.28658912 0.29927322 0.23027192 -0.29748902 0.032860693 -0.32233718 -0.1049139
0.13094288 -0.18399417 -0.21470778 -0.2972874 0.017875219 -0.3367812 0.2707279 -0.24020253
0.169321 0.045827605 0.03588455 -0.19702339 -0.16264625 -0.22093494 -0.16585693 -0.1425142
-0.44363227 0.057781894 0.53050166 0.1075442 -0.19371621 -0.097980306 -0.204566 -0.060585372
-0.044228543 0.21320817 -0.44222134 0.015407894 0.34100977 0.18211351 -0.11911343 0.03245553
0.17272672 -0.5356587 -0.20997244 0.074795 0.08293658 -0.22814636 -0.1961608 -0.38410154
-0.32493332 -0.19070739 0.1645896 -0.044291038 -0.0771074 0.29973024 0.10622269 -0.012988702
0.22737631 -0.14827909 -0.20408104 -0.40552723 0.1110397 0.14155434 -0.29109165 -0.50955397
-0.018654304 -0.054470323 0.4604198 -0.17848505 -0.13108547 0.11139799 -0.27419472 0.14811699
0.29199663 -0.20075281 -0.25854394 -0.15047513 -0.047887526 -0.5958147 0.39934403 -0.10882588
0.55822283 0.21234864 -0.46550572 -0.04096032 -0.15620814 0.05684793 0.15441166 -0.24381314
-0.26785862 -0.16230287 -0.04075589 -0.10267328 -0.39722595 -0.48568976 -0.11560019 -0.02033976
-0.05266815 -0.07060699 -0.2518618 -0.017948208 0.4342581 0.32427213 -0.49118975 -0.29420036
0.23598427 0.110700645 -0.1107408 -0.3764891 0.21450485 -0.13196084 0.36800727 -0.43907836
-0.022195501 0.46162704 -0.18299276 -0.02785185 0.06325955 -0.18857358 -0.42600808 -0.0048771743
-0.4169368 0.38143227 -0.381217 0.17162554 0.033110075 -0.32744566 -0.32118165 -0.1345034
-0.1624726 -0.17704083 -0.023814961 0.08280697 -0.26337278 -0.20741312 -0.21757714 -0.09186547
0.14447993 -0.6108066 -0.103604004 0.1712021 -0.42268145 -0.2755416 0.064755104 -0.095477074
0.048610397 0.47303617 0.19939719 0.3063675 -0.29630527 -0.13634863 -0.17797276 -0.30325365
-0.28729463 0.3043987 -0.103253976 0.3825958 0.041156143 -0.18610968 -0.27451766 0.14675805
0.44697624 0.1577901 -0.33855549 0.10482898 0.032738905 0.09783396 0.18222083 -0.4224515
0.2768001 0.20395139 -0.33161867 -0.02821641 0.30109417 -0.33515948 0.1271858 -0.14528424
0.023261707 -0.1273775 0.07672184 0.06998825 0.24687245 -0.036460306 -0.13372168 0.2402236
-0.33027998 0.33622238 0.34690958 -0.39350072 0.1986218 0.13248909 -0.41990635 -0.0028426393
0.103656225 0.3154701 0.086591125 0.1095386 -0.13005102 -0.13741909 0.13557205 -0.20565338
0.38299698 0.024620846 0.024014857 -0.2090753 0.21338011 0.27514675 0.10484472 -0.2531245
0.20883371 0.43399125 0.15594687 -0.05987322 -0.12468918 -0.14464417 0.20141202 0.10714609
-0.48553562 -0.16771308 -0.58888704 0.24245198 -0.18816055 -0.3496032 -0.39238024 -0.41656408
-0.17378272 -0.059037652 0.19800138 -0.37363806 -0.34531352 0.24396777 0.010580648 -0.37314984
0.25316924 0.4457295 0.06800347 -0.044840936 0.4472205 -0.03825766 0.22314343 0.025692051
00000000: 0afe de3c 71e9 e43d d530 acbe 23f0 0bbe
00000010: b1bf 0b3d 5fae 0ebe 89b2 b33c 536a 0a3e
00000020: 3362 73bd 48b1 ed3d 11af dabc 34cc cc3d
00000030: ffb7 f83e fe70 73bd 1fce d13d d85b 66be
00000040: f6b9 71be cfbb 923e 573a 993e 67cc 6b3e
00000050: 7b50 98be ef98 063d 6109 a5be 19dd d6bd
00000060: e415 063e f868 3cbe 5bdc 5bbe 0e36 98be
00000070: 0d6f 923c 966e acbe d99c 8a3e a7f7 75be
00000080: 7c62 2d3e bab5 3b3d aefb 123d 80c0 49be
00000090: bd8c 26be c53c 62be 66d6 29be 3eef 11be
000000a0: c523 e3be b5ac 6c3d f5ce 073f 2240 dc3d
000000b0: 8b5d 46be e6a9 c8bd c079 51be 5e28 78bd
000000c0: fd28 35bd 3e53 5a3e d66a e2be 6471 7c3c
000000d0: d598 ae3e f77b 3a3e bef1 f3bd 17f0 043d
000000e0: 46df 303e ee20 09bf 0403 57be 1f2e 993d
000000f0: a7da a93d 339f 69be 60de 48be f5a8 c4be
00000100: a95d a6be cc48 43be 2d8a 283e 856a 35bd
00000110: 7cea 9dbd 3e76 993e 488b d93d 91ce 54bc
00000120: 56d5 683e 79d6 17be 9ffa 50be 44a1 cfbe
00000130: c868 e33d 9ff3 103e f709 95be 2172 02bf
00000140: e9d0 98bc 461c 5fbd 25bc eb3e c9c4 36be
00000150: 453b 06be a124 e43d 4063 8cbe fbab 173e
00000160: 9580 953e 2592 4dbe df5f 84be 2716 1abe
00000170: b625 44bd 5087 18bf d276 cc3e 1ae0 debd
00000180: b1e7 0e3f ec71 593e c456 eebe 02c6 27bd
00000190: 07f5 1fbe 60d9 683d 171e 1e3e 27aa 79be
000001a0: c424 89be b932 26be a6ef 26bd 5e46 d2bd
000001b0: 3361 cbbe 54ac f8be cbbf ecbd 929f a6bc
000001c0: 8fba 57bd 669a 90bd 08f4 80be 1f08 93bc
000001d0: 1457 de3e ff06 a63e 397d fbbe 6ea1 96be
000001e0: dca5 713e 05b7 e23d 13cc e2bd 2ec3 c0be
000001f0: 29a7 5b3e be20 07be 736b bc3e e1ce e0be
00000200: 57d3 b5bc 615a ec3e 7462 3bbe 9029 e4bc
00000210: 398e 813d 6f19 41be bb1d dabe b4d0 9fbb
00000220: be78 d5be 174b c33e e02e c3be 9bbe 2f3e
00000230: 6e9e 073d f5a6 a7be ec71 a4be 42bb 09be
00000240: 385f 26be 314a 35be 9817 c3bc b396 a93d
00000250: ccd8 86be 1b64 54be 8bcc 5ebe f723 bcbd
00000260: 8cf2 133e d25d 1cbf 562e d4bd 9a4f 2f3e
00000270: b469 d8be ca13 8dbe 539e 843d 7c89 c3bd
00000280: b21b 473d cc31 f23e c72e 4c3e 33dc 9c3e
00000290: 53b5 97be fa9e 0bbe 7e3e 36be 1044 9bbe
000002a0: 4818 93be 25da 9b3e d276 d3bd 99e3 c33e
000002b0: 5893 283d 8993 3ebe 948d 8cbe be47 163e
000002c0: 12da e43e ba93 213e 2557 adbe 94b0 d63d
000002d0: 3b19 063d 2c5d c83d 1998 3a3e 904b d8be
000002e0: beb8 8d3e a2d8 503e ecc9 a9be 1a26 e7bc
000002f0: 0429 9a3e 069a abbe ff3c 023e 64c5 14be
00000300: 568f be3c 3f6f 02be 5720 9d3d 0056 8f3d
00000310: 22cc 7c3e 6757 15bd 56ee 08be 2dfd 753e
00000320: 751a a9be 5725 ac3e 229e b13e ed78 c9be
00000330: 8363 4b3e 38ab 073e f7fd d6be 934b 3abb
00000340: b749 d43d 4c85 a13e b056 b13d c655 e03d
00000350: 182c 05be 97b7 0cbe 66d3 0a3e cd96 52be
00000360: 2e18 c43e a8b1 c93c ceba c43c d617 56be
00000370: 5180 5a3e 09e0 8c3e d4b8 d63d 8999 81be
00000380: 81d8 553e 1a34 de3e 89b0 1f3e 9f3d 75bd
00000390: 0a5d ffbd 9a1d 14be f43e 4e3e 696f db3d
000003a0: 2098 f8be fabc 2bbe 4dc1 16bf 5545 783e
000003b0: 29ad 40be 31ff b2be 10e6 c8be e347 d5be
000003c0: 19f4 31be 77d1 71bd e0c0 4a3e 7d4d bfbe
000003d0: efcc b0be b0d2 793e 745a 2d3c 7f0d bfbe
000003e0: 669f 813e a836 e43e 6745 8b3d 21ab 37bd
000003f0: 16fa e43e 10b4 1cbd b67f 643e 2378 d23c

FC.6.bias f4 [10]
-0.09381601 0.059903122 -0.06036934 -0.10004642 -0.10046341 -0.009763046 -0.15522167 -0.040942203
-0.037780832 -0.16864173
00000000: 9c22 c0bd fa5c 753d d745 77bd 23e5 ccbd
00000010: c3bf cdbd 2ff5 1fbc 6ef2 1ebe 03b3 27bd
00000020: 13c0 1abd 6bb0 2cbe
