Ai Elevator/Traen1/Outputs/final_weights_5000.pth (torch, 122791 bytes, 8 tensors)

FC.0.weight f4 [128, 33]
-0.30203775 -0.22683135 0.03339132 0.3559655 0.5356713 0.23758414 0.31737453 -0.43401828
-0.25960973 -0.1703941 -0.4494869 -0.3825043 -0.05200875 0.033577174 -0.10277092 0.61011827
-0.11248148 0.40016076 -0.2572894 -0.5262372 0.008803211 0.12279642 -0.42056867 -0.06451255
0.007644946 0.02746565 -0.069993205 0.25694832 -0.19122028 0.15552273 -0.24621998 -0.33959258
0.24332416 0.31407294 0.30625075 0.2564082 -0.008457055 0.12356475 -0.62138164 -0.8425042
0.39474413 -0.2770245 0.1757319 -0.6600599 -0.022771869 0.090921275 0.23385793 -0.4119047
-0.24603836 -0.21928754 0.00055009284 -0.22380696 -0.39514297 0.129291 -0.19485617 0.40600574
-0.31009603 0.11001576 0.2546425 -0.054072972 -0.41412023 -0.32840234 -0.270618 -0.27562833
-0.06856045 0.3719747 0.13099241 -0.06324855 0.23399661 -0.68714505 -0.11519454 0.4064558
0.33136076 0.79324883 0.023823803 -0.058616135 0.020209003 0.32443812 -0.22933432 0.18479764
-0.35749954 0.057739012 -0.29139516 -0.25638142 0.38111037 0.068762936 -0.0064766216 -0.29201624
-0.42183352 -0.33791503 -0.6656425 0.013738619 -0.06689563 -0.3866135 0.011227303 0.6142164
-0.11850929 -0.18760918 0.045242846 -0.07744056 0.28813505 0.28052494 0.014170709 0.5019798
0.2827163 -0.11716094 -0.41051817 -0.36807334 -0.16597994 0.15087813 -0.22557381 -0.31252998
-0.26562798 -0.098654784 0.43375975 0.12806423 -0.060740434 0.11104215 0.094831236 -0.29584166
0.017533898 0.13109982 0.062714 0.30866277 -0.32448992 0.116493665 0.303154 -0.83243847
-0.6965003 -0.356476 0.06656128 0.23917115 -0.06581185 0.20116499 -0.33165193 0.08275198
0.33789822 0.29387355 -0.556178 0.10840791 0.8010513 0.6389898 -0.27683774 0.0956092
0.27251804 -0.018217087 -0.10749514 -0.045535497 -0.044256486 0.02867645 -0.06276287 0.31138754
0.23737165 -0.051383644 -0.09000927 -0.737209 -0.43918929 -0.054202802 -0.07972293 0.07322154
0.0782736 -0.21660931 -0.08474389 -0.13341373 -0.0869565 -0.11510309 0.083525494 0.09764562
-0.23228681 -0.35821828 -0.11471676 0.08560765 -0.25686386 -0.17663985 0.013391304 0.048510533
-0.3632331 -0.22990118 -0.41229182 0.079835184 -0.4895501 -0.016786534 -0.35638312 0.0919666
0.5154086 0.6412949 -0.052898556 0.023425281 0.055546876 0.4680164 -0.46831787 0.3164841
-0.56860554 -0.060993083 0.28916243 0.40669858 -0.28002733 -0.13268042 -0.21480557 -0.15482345
-0.10884835 0.16524774 -0.44880015 -0.2005026 0.11460157 0.22213687 0.017791444 0.13625336
0.23003528 -0.049641468 0.04369679 0.23065275 0.28912795 0.18649755 0.3044062 0.14052817
0.4157922 -0.033969272 0.092687495 0.2057625 0.045324653 0.39361477 0.22389843 0.31024852
0.22987925 0.011395687 -0.09376438 0.52199835 0.23924994 0.3722313 0.0017390251 0.19743082
-0.010323634 0.17141649 -0.09993064 0.19605567 0.23708361 0.007043107 0.15928465 -0.41401467
0.1448175 0.24937893 -0.6661094 -0.3206739 0.0217174 0.10533618 -0.03988718 -0.07915649
0.3184252 0.3273339 -0.36551964 0.23682232 0.37732816 0.09847242 -0.22078711 -0.27087188
00000000: b1a4 9abe 7a46 68be 56c5 083d 1c41 b63e
00000010: c121 093f 4249 733e ea7e a23e a537 debe
00000020: 91eb 84be ca7b 2ebe 2623 e6be 9bd7 c3be
00000030: 2107 55bd 3888 093d 8f79 d2bd b630 1c3f
00000040: b15c e6bd dfe1 cc3e 70bb 83be 7bb7 06bf
00000050: 583b 103c b07c fb3d c754 d7be 281f 84bd
00000060: 7582 fa3b a5ff e03c 9958 8fbd bb8e 833e
00000070: 40cf 43be 5a41 1f3e 1721 7cbe 14df adbe
00000080: f829 793e 2bce a03e e6cc 9c3e f047 833e
00000090: 768f 0abc 840f fd3d de12 1fbf 5bae 57bf
000000a0: e71b ca3e 28d6 8dbe 10f3 333e b0f9 28bf
000000b0: 128c babc ef34 ba3d 7478 6f3e 2ce5 d2be
000000c0: 7bf1 7bbe ea8c 60be 1b34 103a a72d 65be
000000d0: 2e50 cabe dc64 043e 6088 47be fcdf cf3e
000000e0: e8c4 9ebe f14f e13d 8060 823e 9f7b 5dbd
000000f0: 9107 d4be 5a24 a8be 718e 8abe 281f 8dbe
00000100: 6c69 8cbd 7873 be3e e022 063e 7588 81bd
00000110: cf9c 6f3e bde8 2fbf 1deb ebbd fa1a d03e
00000120: 1ea8 a93e 5b12 4b3f 232a c33c 7917 70bd
00000130: 5a8d a53c c11c a63e 9ed6 6abe 983b 3d3e
00000140: 2e0a b7be be7f 6c3d bf31 95be 6d44 83be
00000150: e620 c33e 95d3 8c3d d739 d4bb 2783 95be
00000160: 90fa d7be 3303 adbe 8c67 2abf f217 613c
00000170: 9300 89bd 34f2 c5be b9f2 373c 493d 1d3f
00000180: 00b5 f2bd 9f1c 40be 9050 393d 2899 9ebd
00000190: 7086 933e f7a0 8f3e 432c 683c c081 003f
000001a0: 31c0 903e 13f2 efbd 702f d2be 1c74 bcbe
000001b0: a5f6 29be cc7f 1a3e d2fc 66be ee03 a0be
000001c0: 6400 88be 850b cabd c215 de3e 4523 033e
000001d0: f6ca 78bd 116a e33d e136 c23d 8f78 97be
000001e0: 40a3 8f3c 083f 063e 3370 803d 0c09 9e3e
000001f0: 8b23 a6be 3b94 ee3d 0037 9b3e b01a 55bf
00000200: d84d 32bf 0684 b6be 4851 883d 48e9 743e
00000210: 5dc8 86bd 32fe 4d3e 48ce a9be df79 a93d
00000220: ff00 ad3e 9876 963e ae61 0ebf f704 de3d
00000230: b311 4d3f d694 233f adbd 8dbe c2ce c33d
00000240: 7c87 8b3e 003c 95bc 6926 dcbd 6e83 3abd
00000250: 4a46 35bd e0ea ea3c d289 80bd 306e 9f3e
00000260: 8e11 733e a877 52bd c856 b8bd bbb9 3cbf
00000270: 6bdd e0be c203 5ebd c745 a3bd 2df5 953d
00000280: e94d a03d d5ce 5dbe 348e adbd 9c9d 08be
00000290: 4016 b2bd 2bbb ebbd 6a0f ab3d 6dfa c73d
000002a0: 98dc 6dbe 6368 b7be 9ff0 eabd 1053 af3d
000002b0: a983 83be 14e1 34be 3367 5b3c fbb2 463d
000002c0: b0f9 b9be 376b 6bbe ea17 d3be a180 a33d
000002d0: 50a6 fabe ea83 89bc d977 b6be fc58 bc3d
000002e0: d1f1 033f e72b 243f 28ac 58bd 60e6 bf3c
000002f0: 1f85 633d d89f ef3e 5cc7 efbe 340a a23e
00000300: 2290 11bf e2d3 79bd 190d 943e cc3a d03e
00000310: be5f 8fbe 60dd 07be fef5 5bbe 0a8a 1ebe
00000320: e2eb debd b436 293e 22c9 e5be 8e50 4dbe
00000330: 3ab4 ea3d d977 633e 5dbf 913c 0086 0b3e
00000340: 5e8e 6b3e da54 4bbd 68fb 323d 3c30 6c3e
00000350: 9408 943e 37f9 3e3e 21db 9b3e 9ee6 0f3e
00000360: b7e2 d43e 5d23 0bbd f1d2 bd3d 68b3 523e
00000370: 58a6 393d e087 c93e a145 653e e5d8 9e3e
00000380: 7765 6b3e fab4 3a3c 8a07 c0bd afa1 053f
00000390: f0fd 743e 1a95 be3e 00f0 e33a 4e2b 4a3e
000003a0: 7624 29bc ce87 2f3e 6fa8 ccbd d1c2 483e
000003b0: 0cc6 723e ddc9 e63b 841b 233e bbf9 d3be
000003c0: 0a4b 143e 315d 7f3e 2586 2abf 5f2f a4be
000003d0: b0e8 b13c 7fba d73d bd60 23bd cc1c a2bd
000003e0: a108 a33e 4f98 a73e 6425 bbbe 8d81 723e
000003f0: 2831 c13e e8ab c93d 0416 62be b8af 8abe

FC.0.bias f4 [128]
-0.08263129 0.12008964 -0.0765511 -0.037665654 0.03446452 -0.13897856 -0.008726321 -0.07322788
0.076504156 -0.30109894 -0.05918189 0.09246423 -0.008215134 -0.056140278 -0.28219613 0.018015074
-0.046719998 -0.12190576 -0.09305359 -0.1362025 0.07759945 -0.110220894 -0.23637384 -0.17611952
0.1819159 -0.18764815 -0.2503241 -0.0661667 0.015993625 -0.28567594 -0.07472 -0.03458502
-0.3416009 -0.09770344 -0.2043112 0.15881002 0.06592152 -0.18225168 -0.12203908 -0.21872209
0.15106739 -0.1441963 -0.0084748985 0.008943424 0.08808307 -0.101550564 0.089509726 0.024879934
-0.1351349 -0.12793997 0.0058618207 -0.09069668 -0.1055868 -0.20733173 -0.1966945 -0.006492345
-0.1658802 -0.33074677 -0.017593872 0.0062873615 -0.05344091 0.044491995 -0.30505896 -0.018819174
0.025125647 -0.24960773 -0.23638615 -0.05536179 0.0196297 -0.10008553 -0.1902997 -0.1315618
-0.017211175 -0.04565893 -0.12268984 0.073520735 -0.23037598 0.06690571 -0.057838794 -0.069045246
-0.068831444 -0.10089068 0.017147966 -0.04143574 -0.15799923 -0.07073657 -0.11894234 -0.111168176
-0.36298606 -0.006773887 -0.005207404 -0.1360815 -0.12498538 -0.11900778 -0.24996269 -0.26106197
-0.17888834 -0.2634165 -0.2252866 0.004938637 -0.055939466 -0.18250194 -0.23663397 -0.12007038
-0.08629862 -0.09190538 -0.2274461 -0.08232908 -0.060880605 0.11363624 0.026460035 -0.005348771
0.10368205 -0.09203625 -0.085911244 -0.18474574 -0.07813095 -0.14384435 -0.36780968 0.017178698
-0.16771787 -0.17721686 0.04934807 -0.23708582 0.07051781 -0.2996929 0.008250567 0.02471026
00000000: 983a a9bd 8ff1 f53d d3c6 9cbd 4d47 1abd
00000010: ab2a 0d3d 6550 0ebe d8f8 0ebc 80f8 95bd
00000020: 36ae 9c3d a429 9abe b668 72bd e35d bd3d
00000030: c598 06bc 59f3 65bd 037c 90be 5994 933c
00000040: 785d 3fbd baa9 f9bd e192 bebd ab78 0bbe
00000050: 76ec 9e3d 7ebb e1bd fc0b 72be ad58 34be
00000060: 2948 3a3e d626 40be 7b2a 80be 6882 87bd
00000070: 1005 833c 1e44 92be cd06 99bd 06a9 0dbd
00000080: 50e6 aebe be18 c8bd f536 51be 189f 223e
00000090: dd01 873d 2fa0 3abe a0ef f9bd aff8 5fbe
000000a0: 69b1 1a3e 32a8 13be 4dda 0abc 7087 123c
000000b0: e664 b43d bef9 cfbd e050 b73d 01d1 cb3c
000000c0: ce60 0abe b202 03be 8414 c03b 2ebf b9bd
000000d0: e43d d8bd c54e 54be 486a 49be bdbd d4bb
000000e0: 80dc 29be a457 a9be 0621 90bc 3606 ce3b
000000f0: dbe4 5abd 3d3d 363d b030 9cbe ab2a 9abc
00000100: 4dd4 cd3c 2b99 7fbe 360f 72be 0bc3 62bd
00000110: 77ce a03c a4f9 ccbd eddd 42be 23b8 06be
00000120: 73fe 8cbc dc04 3bbd d044 fbbd 0a92 963d
00000130: aee7 6bbe dc05 893d 5fe8 6cbd 9867 8dbd
00000140: 80f7 8cbd c69f cebd e479 8c3c 86b8 29bd
00000150: 8dca 21be 56de 90bd 0b98 f3bd 24ac e3bd
00000160: 4fd9 b9be 7cf7 ddbb dfa2 aabb f358 0bbe
00000170: 56f8 ffbd 5aba f3bd 38f6 7fbe eaa9 85be
00000180: 812e 37be 87de 86be 88b1 66be 4ad4 a13b
00000190: c820 65bd cae1 3abe 2d50 72be 76e7 f5bd
000001a0: 55bd b0bd e338 bcbd a1e7 68be 269c a8bd
000001b0: f15d 79bd 1eba e83d b7c2 d83c be44 afbb
000001c0: 4157 d43d 807d bcbd 3cf2 afbd fd2d 3dbe
000001d0: 1f03 a0bd ef4b 13be 8d51 bcbe 57ba 8c3c
000001e0: 3cbe 2bbe 5678 35be 3421 4a3d a0c6 72be
000001f0: a46b 903d 5971 99be 632d 073c 2c6d ca3c

FC.2.weight f4 [128, 128]
-0.07121398 -0.009377889 0.1702222 0.15368508 -0.33138728 -0.13711657 -0.34542283 -0.5596518
-0.26512927 0.04316786 -0.21562392 -0.35114497 0.04844342 0.0137041 0.058805186 -0.3383781
0.13651738 0.09142234 0.10219211 0.16084804 -0.45150536 -0.026703194 -0.46080956 -0.08845419
-0.08804004 -0.10122853 0.18856442 -0.45730415 0.051320434 -0.23321615 -0.10841323 -0.06287879
0.20886405 -0.050018817 -0.009493778 -0.21078609 -0.29937756 0.08650485 0.2740105 0.16680594
-0.023241408 -0.03756976 -0.019773897 0.09357668 0.2160066 0.105421506 -0.11401179 -0.05994688
0.14366375 0.17481504 0.11867056 -0.3662246 -0.20834053 -0.11135288 0.10191388 -0.13633433
-0.1202163 0.1727309 -0.18490815 0.21816495 -0.11629391 0.07756174 -0.20419446 0.09340946
-0.09733643 -0.1895275 -0.23020333 -0.11160173 0.2165707 0.17436007 -0.17383775 -0.2980729
0.14983387 0.3228892 0.076351404 -0.1653356 -0.10865926 0.33016944 -0.43150213 -0.15500262
-0.4295537 -0.2372949 -0.067455955 0.15381871 -0.35008815 0.027605033 0.1228389 -0.41713265
-0.14474444 0.09758455 -0.14180271 0.036735218 -0.43772832 -0.34677625 -0.11404127 -0.36806613
-0.12944451 0.025589611 -0.010336274 0.33597806 -0.19002521 -0.3188856 -0.021380404 0.33766007
0.24853387 0.014814048 -0.44754937 0.26482147 -0.3439441 -0.2990968 -0.47901344 -0.02882534
-0.062461223 -0.06440043 -0.12575458 0.25307506 -0.45605582 0.30927143 -0.083778344 0.20956656
-0.55388796 -0.13641787 0.33272764 -0.035882175 -0.11320402 0.14369823 -0.0055200835 0.07875319
0.19935015 0.3485015 -0.06532165 -0.10280197 -0.0744467 0.14033405 -0.13146096 -0.17601913
-0.050828286 0.17971268 -0.13356116 0.051276773 -0.02088609 -0.026151659 0.32698688 -0.4966622
-0.29217455 0.37010196 -0.65836644 -0.5264053 -0.3051447 0.020445317 -0.036466982 0.2854343
-0.010851158 -0.054381806 0.14429763 0.3435425 -0.37888294 -0.128208 -0.3930564 0.27919987
-0.2525975 0.23464145 -0.14647868 -0.41945535 -0.13391347 0.08573025 -0.12123146 0.25497282
-0.15264453 0.14731702 -0.14358982 -0.42877796 0.07980156 0.068623446 -0.5446095 0.35518909
-0.19726168 0.13347645 -0.40517274 0.3488839 -0.004005601 -0.037494387 0.019698607 -0.026196754
-0.36005417 -0.25161767 -0.11126935 0.22061786 0.15141551 0.31916904 -0.23901701 -0.11953721
-0.10672708 -0.23548335 -0.028581424 -0.1730601 0.12624434 -0.07893522 -0.013195049 -0.12505527
0.23502778 0.12651253 -0.14033544 -0.6611723 -0.20610881 -0.05008184 0.015220857 0.058414917
-0.5195542 -0.03473184 -0.22098197 -0.03474824 0.25778714 0.31691393 0.046389166 0.042629905
-0.3452788 -0.07675227 0.36254036 -0.075722046 -0.07076349 -0.3582297 -0.10275387 0.13662514
0.10776402 0.1870744 -0.21065156 -0.15957022 -0.0015963543 -0.06130549 -0.0840722 -0.084435225
-0.24617071 0.08002052 -0.064058416 0.023094554 -0.006378814 -0.06250778 0.23088528 0.13833804
-0.049452502 0.198502 0.07677193 0.10096504 -0.070760004 0.19181 0.13111618 0.2037771
-0.09503743 -0.1195365 0.20093824 -0.2606945 -0.09695788 0.2512664 -0.03497504 -0.10817697
00000000: a3d8 91bd b8a5 19bc ba4e 2e3e 9f5f 1d3e
00000010: 98ab a9be 4968 0cbe 43db b0be 5745 0fbf
00000020: 06bf 87be c8d0 303d 84cc 5cbe 46c9 b3be
00000030: 9c6c 463d 2987 603c b5dd 703d e53f adbe
00000040: 36cb 0b3e a33b bb3d 194a d13d 59b5 243e
00000050: b62b e7be a8c0 dabc 3bef ebbe 7827 b5bd
00000060: 564e b4bd e750 cfbd 0817 413e c523 eabe
00000070: 6035 523d 37d0 6ebe c107 debd 98c6 80bd
00000080: 75e0 553e 88e0 4cbd cb8b 1bbc 4fd8 57be
00000090: 0448 99be 7429 b13d 1b4b 8c3e 2dcf 2a3e
000000a0: c464 bebc c0e2 19bd defc a1bc 21a5 bf3d
000000b0: d630 5d3e 3be7 d73d 037f e9bd dc8a 75bd
000000c0: 971c 133e b702 333e 8d09 f33d ca81 bbbe
000000d0: 3857 55be fb0c e4bd 39b8 d03d 3a9b 0bbe
000000e0: f733 f6bd 5ee0 303e 9058 3dbe a266 5f3e
000000f0: 802b eebd b1d8 9e3d 5a18 51be 754d bf3d
00000100: 5258 c7bd 7f13 42be 6cba 6bbe 738f e4bd
00000110: b6c4 5d3e 728b 323e 8602 32be 039d 98be
00000120: 0d6e 193e bc51 a53e 205e 9c3d bc4d 29be
00000130: bf88 debd f80b a93e d9ed dcbe 02b9 1ebe
00000140: 76ee dbbe 6ffd 72be 5926 8abd a782 1d3e
00000150: c13e b3be f323 e23c f692 fb3d 6992 d5be
00000160: e337 14be 69da c73d bb34 11be ab77 163d
00000170: ed1d e0be a88c b1be 788e e9bd 2a73 bcbe
00000180: 1a8d 04be 4ea1 d13c 7a59 29bc 5105 ac3e
00000190: f895 42be f944 a3be f525 afbc c8e1 ac3e
000001a0: aa7f 7e3e 9fb6 723c 3125 e5be ae96 873e
000001b0: 7119 b0be 3723 99be 4041 f5be 1f23 ecbc
000001c0: 57d7 7fbd 5fe4 83bd cfc5 00be 0e93 813e
000001d0: 2680 e9be d358 9e3e fb93 abbd 9e98 563e
000001e0: 9acb 0dbf 20b1 0bbe 475b aa3e 30f9 12bd
000001f0: 82d7 e7bd a125 133e d1e1 b4bb 5a49 a13d
00000200: 7222 4c3e ca6e b23e 5bc7 85bd d789 d2bd
00000210: 8377 98bd bbb3 0f3e b49d 06be 5c3e 34be
00000220: 5231 50bd 9a06 383e 42c4 08be 9807 523d
00000230: 4e19 abbc 013c d6bc d36a a73e 824a febe
00000240: e797 95be 017e bd3e b48a 28bf 7fc2 06bf
00000250: ed3b 9cbe f07c a73c 675e 15bd 7224 923e
00000260: 0ec9 31bc 75bf 5ebd c2c2 133e cde4 af3e
00000270: f2fc c1be f548 03be b03e c9be 49f3 8e3e
00000280: 7654 81be d945 703e 82fe 15be dac2 d6be
00000290: 9d20 09be 5793 af3d 3348 f8bd cc8b 823e
000002a0: d94e 1cbe 46da 163e 3609 13be c988 dbbe
000002b0: 006f a33d 738a 8c3d 876b 0bbf 58db b53e
000002c0: f7fe 49be 0dae 083e cd72 cfbe e9a0 b23e
000002d0: 6b41 83bb b793 19bd f95e a13c 939a d6bc
000002e0: 0559 b8be 08d4 80be 2fe1 e3bd a6e9 613e
000002f0: ab0c 1b3e 206a a33e e0c0 74be edcf f4bd
00000300: ba93 dabd 8c22 71be 9723 eabc ab36 31be
00000310: 3246 013e caa8 a1bd 0c30 58bc 7d0e 00be
00000320: 1fab 703e 808c 013e 18b4 0fbe 9642 29bf
00000330: 300e 53be 9e22 4dbd e760 793c 7b44 6f3d
00000340: 8101 05bf f942 0ebd 1949 62be 2c54 0ebd
00000350: adfc 833e 8b42 a23e 9102 3e3d b29c 2e3d
00000360: 62c8 b0be 4b30 9dbd e49e b93e 2914 9bbd
00000370: 73ec 90bd e269 b7be 9f70 d2bd 76e7 0b3e
00000380: 62b3 dc3d 6e90 3f3e 0bb5 57be 6066 23be
00000390: c33c d1ba 771b 7bbd 0c2e acbd 60ec acbd
000003a0: 2d14 7cbe cce1 a33d 0f31 83bd ca30 bd3c
000003b0: 5f05 d1bb 1404 80bd 316d 6c3e 7da8 0d3e
000003c0: b58e 4abd 1c44 4b3e 9a3a 9d3d c2c6 ce3d
000003d0: 9fea 90bd d769 443e 5243 063e f2aa 503e
000003e0: fca2 c2bd 8dcf f4bd c1c2 4d3e c079 85be
000003f0: da91 c6bd fda5 803e fd41 0fbd e38b ddbd

FC.2.bias f4 [128]
-0.17130862 0.035434626 -0.09894145 -0.09923578 0.03981848 0.028309904 -0.010365322 -0.12767754
0.074182436 -0.0320338 -0.14388756 -0.094025455 0.05615175 0.14631002 0.00047571404 0.023930475
0.0015904437 0.033040028 0.04159435 0.07050664 0.013489798 -0.011391577 -0.024525402 -0.062555335
-0.15852842 -0.098556094 -0.13440752 -0.029673165 -0.23170069 -0.066667356 0.04502718 -0.1411231
-0.14074874 -0.13228638 -0.048589513 -0.030132426 -0.08219675 0.12140685 -0.021258898 -0.031190028
-0.13972612 -0.04904813 -0.12669827 -0.018758357 0.010270527 -0.10860167 -0.02412174 0.023455655
-0.09974417 -0.05540363 -0.108149245 -0.10392609 -0.0017135394 -0.099762745 -0.019647457 -0.19258483
-0.044948604 -0.096987635 -0.1924386 -0.17101839 -0.1753819 -0.068636104 0.09784981 -0.13975768
-0.03411439 -0.06487681 -0.049761288 0.027846243 -0.004905092 -0.053774998 -0.0116261495 0.012475565
-0.03271382 -0.00680075 -0.0031697939 -0.044141702 -0.042200234 0.017818587 -0.06562605 -0.03329387
0.0067336657 -0.017541148 0.18836725 -0.051946145 -0.16455601 -0.13566947 -0.19185196 -0.08639442
-0.04031217 0.010996822 -0.0051189773 -0.1240749 0.122452065 -0.012059958 -0.13607381 -0.080963664
-0.041224375 -0.019959139 -0.009121029 -0.1766896 -0.064121835 -0.14328355 0.039956838 0.12005938
-0.1859195 -0.11563168 0.008203816 0.00752943 -0.10066535 -0.031838167 -0.023899844 -0.023609333
-0.027264507 -0.058138628 -0.008528127 -0.004891741 0.046678394 -0.0083176615 -0.042908825 -0.0331746
-0.09944217 -0.13595493 -0.051178496 -0.0034216435 -0.14742239 -0.08648531 -0.005614699 -0.080580495
00000000: 876b 2fbe e623 113d d1a1 cabd 213c cbbd
00000010: b418 233d 2cea e73c 50d3 29bc e7bd 02be
00000020: f6ec 973d e035 03bd 4357 13be 6b90 c0bd
00000030: 61ff 653d 4bd2 153e 4269 f939 d809 c43c
00000040: 6f76 d03a fb54 073d d65e 2a3d c965 903d
00000050: 5004 5d3c bda3 3abc 7fe9 c8bc 031d 80bd
00000060: 4655 22be c7d7 c9bd 20a2 09be 2315 f3bc
00000070: f242 6dbe e588 88bd 6c6e 383d 9382 10be
00000080: 7020 10be 1576 07be cc05 47bd 47d8 f6bc
00000090: c556 a8bd 28a4 f83d 2427 aebc 3b82 ffbc
000000a0: 5d14 0fbe b1e6 48bd 31bd 01be 20ab 99bc
000000b0: b645 283c 8d6a debd f59a c5bc 1326 c03c
000000c0: ac46 ccbd ebee 62bd 5a7d ddbd 34d7 d4bd
000000d0: d798 e0ba 6950 ccbd b4f3 a0bc f534 45be
000000e0: 071c 38bd 74a1 c6bd a00e 45be 721f 2fbe
000000f0: 5097 33be 1691 8cbd 7b65 c83d a31c 0fbe
00000100: 88bb 0bbd 22de 84bd 7ed2 4bbd ce1d e43c
00000110: e5ba a0bb 2c43 5cbd 9b7b 3ebc 5066 4c3c
00000120: edfe 05bd d3d8 debb 51bc 4fbb eecd 34bd
00000130: 27da 2cbd 49f8 913c f366 86bd 275f 08bd
00000140: 15a6 dc3b 74b2 8fbc 58e3 403e 7bc5 54bd
00000150: 5f81 28be f0ec 0abe d774 44be 8fef b0bd
00000160: 601e 25bd 042c 343c 18bd a7bb fb1a febd
00000170: 26c8 fa3d 2197 45bc ef56 0bbe 47d0 a5bd
00000180: e4da 28bd 5981 a3bc 5e70 15bc 1eee 34be
00000190: 4f52 83bd ecb8 12be c8a9 233d b1e1 f53d
000001a0: ae61 3ebe 4dd0 ecbd 4c69 063c 70b9 f63b
000001b0: a329 cebd bd68 02bd 9bc9 c3bc 5c68 c1bc
000001c0: d159 dfbc c522 6ebd 8fb9 0bbc e64a a0bb
000001d0: d831 3f3d cd46 08bc 2ac1 2fbd 17e2 07bd
000001e0: 56a8 cbbd c537 0bbe 8ba0 51bd a73d 60bb
000001f0: e5f5 16be 361f b1bd 82fb b7bb 6307 a5bd

FC.4.weight f4 [64, 128]
-0.19502306 0.101629734 0.056001138 -0.38072482 -0.07706007 -0.005452062 0.062237635 -0.13760635
-0.3533809 -0.08611408 0.08753614 0.16663253 -0.28265935 -0.16717643 -0.1410625 -0.07937569
0.15339625 0.1266692 0.27802688 -0.4576354 -0.029058566 -0.25697124 -0.3148769 -0.13386518
0.093477525 -0.055875536 0.08222491 0.016175102 -0.047542546 0.090844706 -0.19792485 0.023355568
0.16131903 -0.30715135 0.004803383 -0.040440954 -0.04280906 -0.19518037 0.11894056 0.28987414
-0.042485993 0.10772651 0.08221978 0.016728744 -0.18079695 0.083961025 0.20343311 0.04572178
-0.14326732 0.33080468 -0.38544762 -0.18549718 -0.16072112 -0.016332354 -0.36805403 0.00041527554
0.08921669 -0.10995839 0.2883981 -0.23529549 0.29739836 0.04109393 -0.14515099 -0.22855118
-0.15008914 0.02697396 0.07865792 -0.10953787 -0.21590015 -0.048862085 0.066120826 0.3179465
0.11938888 0.18476811 -0.058383435 -0.25666657 -0.15402757 -0.207702 -0.127652 0.3416762
0.21308605 -0.19734882 0.030349527 -0.10868326 0.08512619 0.286049 0.09923623 0.008016298
-0.18706514 0.26827025 -0.19703329 0.10722989 -0.3371891 -0.09900834 -0.23602432 0.047426783
-0.1886942 0.13275425 0.105098404 -0.10977937 0.3018217 0.071890354 0.1523197 -0.09178513
0.15342347 0.06767024 0.28765938 -0.31053793 0.34932116 0.064577915 0.39685753 -0.03543063
0.26776418 -0.2894165 0.044901457 0.20198497 -0.033277053 0.12987755 -0.17119512 -0.42323467
0.10595917 -0.31012508 0.25570518 0.11375539 -0.048103597 0.114295185 -0.31836897 -0.4842391
-0.12074269 0.21459436 -0.016002651 -0.015531151 0.096614115 0.010319389 0.13185187 -0.042628895
-0.19646063 -0.11528992 0.37400573 0.09484072 -0.08884622 -0.28875905 -0.40219113 -0.29187015
-0.25675622 -0.13005668 -0.48518428 -0.25860292 0.042468697 -0.05900194 -0.010880647 -0.081028566
-0.04377712 -0.032238327 0.11215901 -0.21019901 -0.22258091 0.102133274 -0.13161539 -0.100325406
0.3747634 -0.3227974 0.02203455 -0.34810668 -0.026450727 0.21392444 0.04146188 -0.4111638
-0.20495209 -0.24808908 0.026520012 0.22313607 -0.556126 -0.5317017 0.3116993 0.21391936
-0.027558386 -0.3247067 0.21018311 -0.3957518 -0.20501828 0.10434928 0.085882366 0.1828354
0.1525468 -0.2116523 -0.19007353 -0.208488 0.08996623 -0.10717527 -0.5606957 0.013984628
-0.4592518 0.2529863 -0.49837172 -0.043868408 -0.08794942 -0.0061031994 0.09164819 0.18486826
-0.285879 0.07147409 0.0010906503 -0.20113899 0.07299746 0.2433416 -0.11161995 0.012460318
-0.24567096 -0.14348128 -0.14097571 -0.042024758 0.34101224 -0.31163195 -0.12829295 0.11281265
-0.09220011 -0.016273655 0.23374785 -0.09726693 -0.1448926 -0.18509644 -0.12789983 -0.21728976
-0.32503176 0.028265446 -0.2942866 0.3737375 0.114590615 -0.27997506 -0.17586562 0.04024622
-0.12117183 -0.012981871 0.050084244 0.24538247 0.026050258 -0.1048439 0.026341256 -0.0959972
-0.06584557 -0.29908112 -0.16613413 0.12856933 -0.19207619 0.2358023 0.06040974 -0.052489456
0.025878992 0.13970722 -0.052922916 0.31284326 0.018327784 -0.3987327 -0.21483156 0.255107
00000000: 20b4 47be 4023 d03d 7361 653d 5dee c2be
00000010: acd1 9dbd 36a7 b2bb e4ec 7e3d aee8 0cbe
00000020: 57ee b4be 945c b0bd 2646 b33d b8a1 2a3e
00000030: bab8 90be 4c30 2bbe b072 10be b98f a2bd
00000040: e813 1d3e 92b5 013e 8a59 8e3e 304f eabe
00000050: 3b0c eebc bc91 83be 8c37 a1be f413 09be
00000060: 2571 bf3d bfdd 64bd 8965 a83d a681 843c
00000070: f9bb 42bd ca0c ba3d d0ac 4abe 2d54 bf3c
00000080: d130 253e f142 9dbe b265 9d3b 6aa5 25bd
00000090: 8e58 2fbd 5ddd 47be 1c97 f33d 626a 943e
000000a0: cb05 2ebd b79f dc3d d862 a83d b80a 893c
000000b0: d622 39be c2f3 ab3d c550 503e c346 3b3d
000000c0: abb4 12be 3b5f a93e 6459 c5be f9f2 3dbe
000000d0: 1494 24be 6ecb 85bc 9471 bcbe 57b9 d939
000000e0: 3db7 b63d dd31 e1bd eaa8 933e 4df1 70be
000000f0: 9944 983e 1c52 283d 76a2 14be 5209 6abe
00000100: f8b0 19be 7ff8 dc3c 6717 a13d 6455 e0bd
00000110: ee14 5dbe 9c23 48bd 5b6a 873d e2c9 a23e
00000120: 2882 f43d da33 3d3e 7823 6fbd cd69 83be
00000130: 67b9 1dbe d5af 54be 35b7 02be 2ff0 ae3e
00000140: 3b33 5a3e cf15 4abe 929f f83c 5495 debd
00000150: a456 ae3d 0475 923e 5d3c cb3d ca56 033c
00000160: 018e 3fbe b85a 893e 18c3 49be 589b db3d
00000170: 0da4 acbe e2c4 cabd 5cb0 71be 9642 423d
00000180: 0d39 41be bbf0 073e d53d d73d 02d4 e0bd
00000190: 6088 9a3e 403b 933d b2f9 1b3e d8f9 bbbd
000001a0: 0b1b 1d3e b296 8a3d 1748 933e d4fe 9ebe
000001b0: 39da b23e 6d41 843d e930 cb3e b51f 11bd
000001c0: 6318 893e 662e 94be 97ea 373d 26d5 4e3e
000001d0: 854d 08bd 9ffe 043e c64d 2fbe 37b2 d8be
000001e0: 1f01 d93d b7c8 9ebe caeb 823e 96f8 e83d
000001f0: 4708 45bd 9813 ea3d 4201 a3be 30ee f7be
00000200: f247 f7bd a0be 5b3e fe17 83bc 5e76 7ebc
00000210: 9fdd c53d a812 293c 2d04 073e a39b 2ebd
00000220: fa2c 49be 1f1d ecbd ae7d bf3e da3b c23d
00000230: 02f5 b5bd 3ad8 93be ffeb cdbe 0170 95be
00000240: 8d75 83be 942d 05be 136a f8be 9a67 84be
00000250: a8f3 2d3d 05ac 71bd be44 32bc 4ef2 a5bd
00000260: a34f 33bd 560c 04bd 9fb3 e53d 693e 57be
00000270: 40ec 63be 402b d13d 2fc6 06be 6877 cdbd
00000280: fde0 bf3e b345 a5be cd81 b43c 0a3b b2be
00000290: 32af d8bc 020f 5b3e efd3 293d 1084 d2be
000002a0: f6de 51be 100b 7ebe 7f40 d93c c87d 643e
000002b0: 465e 0ebf 9a1d 08bf 0d97 9f3e ad0d 5b3e
000002c0: 20c2 e1bc f53f a6be 3e3a 573e fb9f cabe
000002d0: 50f0 51be 13b5 d53d 18e3 af3d 3439 3b3e
000002e0: 3a35 1c3e 61bb 58be a3a2 42be e17d 55be
000002f0: 3740 b83d b57e dbbd c189 0fbf c81f 653c
00000300: 0d23 ebbe 6c87 813e 942a ffbe 5caf 33bd
00000310: d31e b4bd 59fd c7bb 0cb2 bb3d 1b4e 3d3e
00000320: bb5e 92be 0261 923d 27f4 8e3a 61f7 4dbe
00000330: b17f 953d 8a2e 793e 0099 e4bd 5d26 4c3c
00000340: 2b91 7bbe c2ec 12be f05b 10be 2722 2cbd
00000350: 2899 ae3e 398e 9fbe 3a5f 03be 520a e73d
00000360: 69d3 bcbd 5450 85bc 995b 6f3e e233 c7bd
00000370: ba5e 14be ec89 3dbe 2cf8 02be 3581 5ebe
00000380: 906a a6be f08c e73c bcac 96be 865a bf3e
00000390: 7cae ea3d e458 8fbe 1e16 34be 38d9 243d
000003a0: f028 f8bd eab1 54bc 2325 4d3d 8b45 7b3e
000003b0: 5a67 d53c 66b8 d6bd 9ec9 d73c 2e9a c4bd
000003c0: 0bda 86bd 2921 99be 111f 2abe aea7 033e
000003d0: 9faf 44be 2876 713e 3470 773d 2fff 56bd
000003e0: 2e00 d43c 690f 0f3e b3c5 58bd fe2c a03e
000003f0: 2624 963c b126 ccbe cefc 5bbe 629d 823e

FC.4.bias f4 [64]
0.024474518 0.004120009 -0.15047178 0.044350505 -0.042369626 -0.060287114 -0.14509389 0.12999183
0.083292596 0.004595383 0.032849647 -0.033987164 -0.01649338 -0.04305917 -0.045659866 0.0043460564
-0.026538275 0.13707894 -0.011621093 0.091379575 0.0010512067 0.04021262 -0.15634435 0.017982809
-0.15876085 -0.04425592 0.06993232 -0.0074852244 -0.16199966 -0.13183971 -0.026111506 -0.07350721
-0.16813916 0.21662419 -0.05651892 -0.16786176 -0.12145212 -0.12419791 -0.032725554 -0.12929034
-0.03782417 0.1625421 -0.04391387 0.25361025 -0.129759 0.19914117 -0.05409055 -0.08611189
0.089231305 -0.2314633 -0.10126689 0.09780603 0.05134923 0.16931692 0.18034025 -0.08032326
0.25808108 0.03673078 0.060405225 0.047509197 -0.043062206 -0.052995734 0.11697777 -0.031304576
00000000: c97e c83c 2401 873b 4615 1abe e0a8 353d
00000010: c68b 2dbd 9fef 76bd 7e93 14be 941c 053e
00000020: 4f95 aa3d de94 963b 5a8d 063d 2036 0bbd
00000030: 201d 87bc d05e 30bd d705 3bbd 5d69 8e3b
00000040: cc66 d9bc 6c5e 0c3e 6666 3ebc 3725 bb3d
00000050: a5c8 893a fdb5 243d bc18 20be af50 933c
00000060: 3492 22be b245 35bd ad38 8f3d 9d46 f5bb
00000070: 3de3 25be fd00 07be cce7 d5bc f38a 96bd
00000080: ac2c 2cbe bbd2 5d3e 6280 67bd f4e3 2bbe
00000090: e4bb f8bd 795b febd 3b0b 06bd b064 04be
000000a0: 84ed 1abd 7071 263e 08df 33bd 34d9 813e
000000b0: 8bdf 04be aaeb 4b3e 0d8e 5dbd 6e5b b0bd
000000c0: e7be b63d b704 6dbe 0465 cfbd 874e c83d
000000d0: 9253 523d 6a61 2d3e 1dab 383e 8580 a4bd
000000e0: 3423 843e 0473 163d 786b 773d 0199 423d
000000f0: ff61 30bd 0e12 59bd 0b92 ef3d 3a39 00bd

FC.6.weight f4 [10, 64]
0.035553202 0.2878575 -0.2434355 0.33345556 0.13868949 -0.3966103 0.050090916 0.278563
-0.19608895 0.009756512 0.10501588 -0.36727175 0.16945001 0.2364784 0.20014307 0.30272847
0.16532688 0.061180502 -0.32657838 0.12201629 -0.011468821 0.10361914 0.21322697 0.034604754
0.097370006 -0.09134349 0.09838277 -0.368356 -0.07214242 0.029280365 0.21164036 -0.14927407
0.14475991 0.05627739 -0.12694542 0.043266945 -0.15044384 -0.29552472 0.12560503 0.059113618
-0.19893345 0.10554623 0.25219408 0.020229481 0.23922475 -0.12424505 -0.058125835 -0.044216778
-0.16724692 -0.2862649 0.08262968 0.08242293 0.23684713 0.18690825 0.18699108 0.03445102
0.17849952 -0.554616 0.010743697 0.2779911 0.22069235 -0.32336503 -0.28856313 -0.2723477
-0.03502873 -0.25653893 0.14386144 0.116712235 0.103772916 0.20670164 0.087229356 0.11898319
0.101400726 -0.048467524 -0.06615523 -0.15508026 0.28604335 -0.09053743 0.1561934 -0.2723101
-0.12423222 0.023087932 0.07334503 -0.11351903 0.124539465 0.18412958 -0.23577851 0.17045195
0.2571 0.13156831 -0.1433261 0.04210637 -0.19808863 -0.46756506 0.18897259 -0.074959464
0.32066312 0.13771173 -0.1717028 -0.16998203 -0.32665336 0.015717695 -0.18901654 0.13930158
-0.37282234 0.047287676 0.124501176 -0.08559201 -0.057834607 0.09193232 0.19215846 -0.23221488
-0.15646234 0.06796212 -0.18642297 -0.027050596 0.2508816 0.27567273 -0.00857046 -0.6224061
0.2509493 -0.14364466 -0.08950029 0.21923992 -0.20415893 -0.12722601 0.29784638 -0.095769964
0.108100265 -0.10881732 -0.02913105 0.13147682 0.043337956 -0.31092232 -0.024800392 -0.007662808
-0.07252794 0.23853672 -0.41360348 -0.28321493 0.38500452 0.24179731 -0.52357143 -0.045477793
-0.23767334 -0.17144863 0.1913501 -0.047845334 -0.11351297 -0.27353105 -0.25515112 -0.1722714
0.34665406 -0.270295 -0.0554529 0.02637261 -0.35943648 0.07918245 -0.035899766 -0.271613
0.095487945 0.0975615 0.18235324 0.094338246 0.16756858 -0.21824595 -0.12669465 -0.41714853
-0.12225075 0.2782208 0.21318775 0.19777799 0.18634582 -0.031059906 -0.31553346 0.37909666
0.20383294 -0.086780354 -0.28679597 0.26232854 -0.07308529 0.23269455 0.15095885 -0.14892767
0.23917013 0.094173014 -0.25130755 0.04412609 0.12339129 -0.027628778 -0.16204228 -0.12228316
0.077277005 -0.3615268 0.14622459 0.14483394 -0.24488024 -0.2162711 -0.15099367 0.25397855
-0.14826863 0.22552541 0.04048894 -0.060573537 0.21234788 0.08444253 -0.42897516 -0.10810278
0.35032013 0.1030927 0.15581478 0.13816126 -0.26168734 -0.21162263 0.2608197 -0.32104895
0.49438268 0.007739628 -0.1771207 0.07032364 0.0250663 0.26460406 0.13026714 0.0015642227
0.1585685 0.27100384 0.26637816 0.26947248 -0.14688152 -0.12966847 0.3054834 -0.19932823
-0.020653687 -0.14354806 -0.3134666 0.007139375 0.36201477 -0.1259354 -0.39467055 -0.21379687
0.15457681 0.21958609 -0.026045848 -0.19764957 -0.014535691 0.1689059 0.2373454 -0.2604946
0.304355 0.23282668 0.12393151 0.1464821 0.17592704 -0.33816314 0.21256624 0.18290305
00000000: 3ca0 113d 0f62 933e 2847 79be b0ba aa3e
00000010: 9e04 0e3e 8110 cbbe 222c 4d3d cf9f 8e3e
00000020: 8bcb 48be c7d9 1f3c 9112 d73d 0b0b bcbe
00000030: 4e84 2d3e 6527 723e 4ef2 4c3e 3aff 9a3e
00000040: 734b 293e 6898 7a3d 4835 a7be ade3 f93d
00000050: b9e7 3bbc 4636 d43d 2c58 5a3e b7bd 0d3d
00000060: ed69 c73d 4c12 bbbd e87c c93d 2899 bcbe
00000070: 68bf 93bd 60dd ef3c 40b8 583e 4ddb 18be
00000080: f13b 143e 1f83 663d fbfd 01be ae38 313d
00000090: f30d 1abe 044f 97be 9b9e 003e 1f21 723d
000000a0: 36b5 4bbe 9f28 d83d 951f 813e 4cb8 a53c
000000b0: 55f7 743e 3074 febd 5b15 6ebd a71c 35bd
000000c0: c742 2bbe 5091 92be c039 a93d 5acd a83d
000000d0: 0e88 723e e064 3f3e 977a 3f3e 831c 0d3d
000000e0: 94c8 363e 50fb 0dbf 5506 303c d954 8e3e
000000f0: 2dfd 613e 1a90 a5be 8cbe 93be 2871 8bbe
00000100: 497a 0fbd 1259 83be 6a50 133e d306 ef3d
00000110: e586 d43d 98a9 533e 4ea5 b23d 75ad f33d
00000120: 2fab cf3d e285 46bd 657c 87bd 5ccd 1ebe
00000130: 4674 923e b06b b9bd 2af1 1f3e 3b6c 8bbe
00000140: 766d febd e722 bd3c eb35 963d aa7c e8bd
00000150: 8c0e ff3d 778c 3c3e ec6f 71be f58a 2e3e
00000160: 9ca2 833e d8b9 063e 14c4 12be bb77 2c3d
00000170: bfd7 4abe b064 efbe 0882 413e 5984 99bd
00000180: f52d a43e 4e04 0d3e dcd2 2fbe c50f 2ebe
00000190: 1c3f a7be 65c2 803c 8d8d 41be 13a5 0e3e
000001a0: 92e2 bebe b9b0 413d 79fa fe3d dd4a afbd
000001b0: fbe3 6cbd 0347 bc3d 30c5 443e bdc9 6dbe
000001c0: aa37 20be b92f 8b3d aae5 3ebe 3699 ddbc
000001d0: 8e73 803e fa24 8d3e 1d6b 0cbc 0256 1fbf
000001e0: 6d7c 803e 9617 13be ee4b b7bd 6e80 603e
000001f0: 0a0f 51be 8947 02be 527f 983e 0b23 c4bd
00000200: ac63 dd3d 9ddb debd 3da4 eebc dca1 063e
00000210: 2483 313d 3631 9fbe 312a cbbc 4b18 fbbb
00000220: 8789 94bd f842 743e d6c3 d3be 8c01 91be
00000230: 501f c53e b799 773e c708 06bf ec46 3abd
00000240: a460 73be 3b90 2fbe 48f1 433e 78f9 43bd
00000250: 7d79 e8bd 430c 8cbe 2ba3 82be ea67 30be
00000260: a47c b13e 1b64 8abe 9422 63bd 5f0b d83c
00000270: 0f08 b8be 692a a23d a20b 13bd dc10 8bbe
00000280: 2f8f c33d 53ce c73d cfba 3a3e 6934 c13d
00000290: 1997 2b3e de7b 5fbe 3ebc 01be 7e94 d5be
000002a0: 9a5e fabd f572 8e3e e44d 5a3e 5086 4a3e
000002b0: 70d1 3e3e 5871 febc 9a8d a1be f518 c23e
000002c0: 95b9 503e e6b9 b1bd ecd6 92be ed4f 863e
000002d0: bead 95bd 7b47 6e3e f594 1a3e 7f80 18be
000002e0: 04e9 743e c8dd c03d 62ab 80be 8fbd 343d
000002f0: 93b4 fc3d bf55 e2bc 69ee 25be 986f fabd
00000300: 6843 9e3d 0a1a b9be e6bb 153e 594f 143e
00000310: e3c1 7abe 2c76 5dbe 169e 1abe 7a09 823e
00000320: bbd3 17be 22f0 663e bbd7 253d f51b 78bd
00000330: b971 593e 35f0 ac3d a2a2 dbbe fe64 ddbd
00000340: 295d b33e 4422 d33d e98d 1f3e 257a 0d3e
00000350: e2fb 85be 9ab3 58be 298a 853e 8760 a4be
00000360: ba1f fd3e b59c fd3b 215f 35be d705 903d
00000370: d757 cd3c 2f7a 873e c064 053e 9b06 cd3a
00000380: c85f 223e 04c1 8a3e b862 883e 4cf8 893e
00000390: 1c68 16be d0c7 04be 5268 9c3e b31c 4cbe
000003a0: ec31 a9bc 43fe 12be b27e a0be 6bf1 e93b
000003b0: 005a b93e 36f5 00be 4212 cabe 91ed 5abe
000003c0: 6249 1e3e 2ddb 603e 1a5e d5bc a664 4abe
000003d0: 1b27 6ebc abf5 2c3e ac0a 733e 8c5f 85be
000003e0: 6bd4 9b3e 1e6a 6e3e cecf fd3d 67ff 153e
000003f0: 3826 343e b823 adbe f7aa 593e f04a 3b3e

FC.6.bias f4 [10]
0.0068873265 0.07972645 0.1278801 -0.018899027 0.06826926 0.14696893 0.12057761 0.11731127
0.035220996 0.1109624
00000000: 15af e13b 9f47 a33d 00f3 023e 22d2 9abc
00000010: c1d0 8b3d 067f 163e 65f1 f63d e440 f03d
00000020: e443 103d 4140 e33d
