Ai Elevator/Traen1/Outputs/final_weights_25000.pth (torch, 122805 bytes, 8 tensors)

FC.0.weight f4 [128, 33]
000000 44 bd bb be 58 b2 86 be d1 4b a2 3d ee 11 38 3e
       -0.36667836 -0.2630794 0.07924617 0.1797559
000010 5b a7 71 3e 3e c9 35 3e 42 52 04 3e f9 a1 e2 be
       0.23598997 0.17752549 0.12922004 -0.442642
000020 9c 13 36 3e b2 0a 0b be 04 e5 c8 be 10 50 1b bf
       0.17780918 -0.13578299 -0.39237225 -0.6066904
000030 6b 8f 5d 3d 38 88 09 3d 8a 14 95 3e 9b 96 d7 3e
       0.054091852 0.033577174 0.29117233 0.4210709
000040 78 93 9b 3d cb a5 01 3f 28 99 14 bf f4 ba cb be
       0.07596487 0.50643605 -0.580462 -0.3979107
000050 67 d1 f0 bc b0 7c fb 3d c7 54 d7 be 55 64 23 3d
       -0.029396726 0.12279642 -0.42056867 0.039890606
000060 1a 66 49 3e ac c8 a3 be 6b b6 2f 3e 0d f0 7c 3f
       0.19667855 -0.31989038 0.1715943 0.9880379
000070 65 a9 b2 be a7 a0 ad 3e 17 21 7c be 14 df ad be
       -0.34894863 0.3391163 -0.24621998 -0.33959258
000080 f8 29 79 3e 10 0e 3f 3d 42 1c 16 3e 20 ae 0f 3e
       0.24332416 0.04664427 0.14659217 0.14031267
000090 33 ae a1 be 0e 20 d4 3c 28 c3 03 bf 58 0a f0 be
       -0.31578216 0.025894191 -0.5146966 -0.46882892
0000a0 f2 dc 18 3f 4e 6a c8 be 50 71 73 3e 6d ca 88 3d
       0.59712136 -0.39143604 0.23773694 0.06679235
0000b0 c6 68 6f bd 55 29 43 3e 74 78 6f 3e 4a 46 34 bf
       -0.05844953 0.19058736 0.23385793 -0.7041975
0000c0 21 df 13 bf 1a b4 25 3e e7 c9 09 be ab 6e 65 bf
       -0.5776234 0.16181985 -0.13455926 -0.8962199
0000d0 dc 70 40 be 1d c4 ee 3d 60 88 47 be fc df cf 3e
       -0.18793052 0.116584994 -0.19485617 0.40600574
0000e0 82 32 8d be df 27 b7 3d c0 fc da bd 8d 99 e4 be
       -0.27577597 0.08943152 -0.106927395 -0.446484
0000f0 97 81 97 be 3f 5a 48 bf a6 33 7d 3e 28 1f 8d be
       -0.29591057 -0.78262705 0.24726734 -0.27562833
000100 6c 69 8c bd 78 73 be 3e aa 72 93 bc 52 88 1e be
       -0.06856045 0.3719747 -0.017999012 -0.1548169
000110 44 6d a7 3e 04 4a 26 be 4f 89 0d be 93 e8 cf 3e
       0.3270055 -0.16239172 -0.1382191 0.40607128
000120 d3 20 be bd 47 43 1d 3f 3c d6 60 be a8 84 9b 3b
       -0.092836045 0.6143078 -0.21956724 0.0047460385
000130 87 01 c8 bd 45 57 30 3e 77 9c 13 bf 98 3b 3d 3e
       -0.09765916 0.1722079 -0.5766062 0.18479764
000140 63 9a 5c bf 1c 79 c9 bd b1 f1 c6 3e e1 37 76 bd
       -0.86173075 -0.09837553 0.3885627 -0.060111884
000150 9e bd a6 be cc b5 b6 be a4 06 80 be 27 83 95 be
       -0.3256654 -0.35685575 -0.25005066 -0.29201624
000160 90 fa d7 be 26 9e 5b be be b8 13 bf 9c ce 41 3e
       -0.42183352 -0.21447048 -0.5770377 0.18926471
000170 d7 2f 0c be c5 b9 e1 3e f0 20 16 bf b0 49 b1 3e
       -0.13690124 0.44087043 -0.5864401 0.34626532
000180 00 b5 f2 bd 9f 1c 40 be 90 50 39 3d f2 4b 31 3d
       -0.11850929 -0.18760918 0.045242846 0.043285318
000190 ea 2d b3 be 9d 37 93 3e c8 b7 bc bd f4 5f d4 3e
       -0.34995967 0.28753367 -0.09214741 0.41479456
0001a0 3e c6 f7 3e bb d9 79 bd df 98 51 bf e5 4c 1d bf
       0.48393434 -0.06099866 -0.8187389 -0.61445457
0001b0 8c 7f 8d be 7c e4 c1 3d b0 75 0f bf b9 38 c4 be
       -0.27636373 0.09467408 -0.5603895 -0.38324526
0001c0 64 00 88 be 8c 6d 33 bf ee 7c 69 3e 29 f8 9f 3e
       -0.26562798 -0.7008903 0.22801563 0.3124402
0001d0 e9 8f 17 bf e8 9e e2 3d c7 03 e3 be 0c 92 7f bf
       -0.59203964 0.11065465 -0.4433882 -0.99832225
0001e0 40 a3 8f 3c 08 3f 06 3e e0 06 b7 3e e0 a9 08 3e
       0.017533898 0.13109982 0.35747433 0.13346052
0001f0 c4 a7 95 be 52 ce ac 3c 51 e5 2e 3d 64 ef 23 be
       -0.29229558 0.021094475 0.042699162 -0.16009289
000200 df 01 b4 be 06 84 b6 be 48 51 88 3d 48 e9 74 3e
       -0.35157678 -0.356476 0.06656128 0.23917115
000210 d9 08 09 3e 74 b7 13 3e f4 4c 15 be bd e4 a6 3e
       0.13382281 0.1442545 -0.14580137 0.32596388
000220 5b c5 bb 3e a8 8f f9 3e eb 5d fd bd 0c a2 41 3d
       0.36674008 0.48742414 -0.12371429 0.04727368
000230 c3 e2 2c 3f 0e 26 0d 3f 37 93 8c 3e e8 c1 89 be
       0.6753351 0.5513619 0.27456066 -0.2690575
000240 4f 6a 94 3e 00 3c 95 bc 0f 47 20 3d a6 70 42 be
       0.28987357 -0.018217087 0.039130267 -0.18988284
000250 0f c7 4f 3e b2 94 6c be 1f e6 22 3e 2b fb 9f 3c
       0.20290779 -0.23103598 0.15908097 0.019528946
000260 3d 08 ef 3e a8 77 52 bd c8 56 b8 bd e6 07 e0 be
       0.46685973 -0.051383644 -0.09000927 -0.43756026
000270 eb 06 36 be 1d d9 fb be 74 b2 de 3d 93 7f 46 be
       -0.17776076 -0.49189082 0.10873881 -0.19384603
000280 d9 e4 1b 3d cb 90 c3 be 34 8e ad bd 9c 9d 08 be
       0.038060043 -0.38196406 -0.08474389 -0.13341373
000290 40 16 b2 bd e2 76 02 bf 3d 05 e3 bc 72 2a 00 3e
       -0.0869565 -0.5096265 -0.027712459 0.12516192
0002a0 49 86 b6 be 61 c2 07 bf ee dc 5d 3e 3b f8 fb 3d
       -0.35649326 -0.53030974 0.21666309 0.123032056
0002b0 31 fa 25 3e 60 22 37 bf af 11 13 bf 4c 2c 31 bf
       0.16208722 -0.7153683 -0.5744886 -0.69208217
0002c0 85 2f db be 35 ab 79 be ea 17 d3 be 59 e2 9e 3e
       -0.42809692 -0.24381717 -0.41229182 0.31032065
0002d0 9a d8 0a bf 0e 1d c9 be 2c 06 1b 3e da 22 ce 3e
       -0.5423676 -0.3927998 0.15139073 0.40260965
0002e0 aa ad bf 3e fd 23 03 3f 28 ac 58 bd 60 e6 bf 3c
       0.37437183 0.5122679 -0.052898556 0.023425281
0002f0 67 b0 40 be 0f 59 16 3f 61 24 b1 be f6 41 40 bd
       -0.18817292 0.5872964 -0.34598067 -0.046937905
000300 a8 89 8b be 01 67 91 be ca 30 84 3e cc 3a d0 3e
       -0.2725346 -0.28398898 0.25818473 0.40669858
000310 be 5f 8f be 60 dd 07 be 90 3a d4 be 38 b0 99 be
       -0.28002733 -0.13268042 -0.4145093 -0.30017257
000320 ef 8f 3d be 86 16 bf be 48 27 32 bf c1 74 1f bf
       -0.18511938 -0.37321872 -0.6959119 -0.6228753
000330 6c 4b 01 be ce 29 d7 3e 51 2c 4d 3e 9c 4d 33 bd
       -0.12626427 0.42024082 0.20036437 -0.043775186
000340 ae 80 1b 3f d2 7c ee be 90 91 81 3e 3c 30 6c 3e
       0.60743225 -0.46579605 0.25306368 0.23065275
000350 1e 16 bf 3c 21 ef a4 3e 12 88 8c bc 9b dc 30 3d
       0.023325976 0.3221369 -0.017154727 0.043179136
000360 c7 21 94 3e 42 da 26 bf 17 f8 ac be 68 b3 52 3e
       0.2893202 -0.65176785 -0.33783028 0.2057625
000370 58 a6 39 3d 33 92 cc 3e 9f 43 8b 3d 98 73 92 3e
       0.045324653 0.3995529 0.06800007 0.28603816
000380 39 9d 4f 3e 71 11 74 3e e0 de 8e 3e 8c cd d3 3e
       0.2027482 0.23834778 0.27904415 0.41367757
000390 f0 fd 74 3e 1a 95 be 3e 00 f0 e3 3a 7b 80 ab 3e
       0.23924994 0.3722313 0.0017390251 0.3349646
0003a0 9c b8 f7 3d e8 0c 36 3e 7a ea a1 3e b7 cb 0f 3f
       0.12095758 0.17778361 0.31624204 0.5617022
0003b0 67 f9 73 3e c0 c1 bf 3e 94 e8 6d 3e 6b b8 f5 be
       0.23825608 0.37452507 0.23233253 -0.47992262
0003c0 da 5f d3 be 35 de b0 3d 8c 80 10 bf 81 36 3c bf
       -0.41284066 0.08636133 -0.56446147 -0.73520666
0003d0 b0 e8 b1 3c db b4 c4 bd 08 80 f8 bd e2 de e0 be
       0.0217174 -0.09604808 -0.12133795 -0.43920046
0003e0 1c 4c f3 3d 4a e2 54 3e 5e 0d 59 be 21 1e ac 3d
       0.11879751 0.20789447 -0.21196505 0.08404184
0003f0 28 31 c1 3e e8 ab c9 3d 38 67 2b bf 6a 6e 2e bf
       0.37732816 0.09847242 -0.66954374 -0.6813723

FC.0.bias f4 [128]
000000 e6 a3 e7 bd 05 a7 58 be 7e ec 3d be 08 ff 18 be
       -0.11310558 -0.21157463 -0.18547246 -0.14941037
000010 d6 25 62 3e c6 55 5e be c3 30 a0 be df 5c 59 3d
       0.22084746 -0.21712407 -0.31287202 0.053067084
000020 d1 98 7b 3d 24 bc a7 be 1c 27 d1 bd 41 0b 06 3e
       0.061425034 -0.32760727 -0.10212538 0.1309023
000030 25 93 8f bc 0e 80 d2 be da 33 ae be c6 20 ca 3c
       -0.017526219 -0.41113323 -0.34023935 0.02467383
000040 d5 77 be bd 5b 58 5f be d8 b6 20 be 25 62 2b 3d
       -0.093002 -0.21811049 -0.1569475 0.041841645
000050 da 54 1d 3d 8a 95 5a be 60 67 02 3e 26 f8 dd bd
       0.038411 -0.21346107 0.12734747 -0.10838346
000060 bb 8b fc 3d 6c cb 70 be a3 94 4b be 18 f9 8c bc
       0.12331339 -0.235151 -0.19880919 -0.01720862
000070 ea 14 80 be 45 df f0 bd b0 83 15 bd 6a ea 7b 3c
       -0.25015956 -0.11761335 -0.03650254 0.015375713
000080 6b 67 2d be 3c e8 64 bd ba 91 c5 bd 40 e3 32 3e
       -0.16933982 -0.05588554 -0.09646936 0.17469501
000090 66 03 e4 bd fd f7 67 be 5d b8 29 bc dc 03 8c be
       -0.11133461 -0.22653194 -0.010358897 -0.27346694
0000a0 e0 05 2f be 71 9f fd bd ba a2 60 be c3 8b 7c 3e
       -0.17092085 -0.12383927 -0.21937075 0.2466269
0000b0 ba 03 1d 3e ec d5 9b be 0b 6b b4 3b 02 9b 81 3d
       0.15333453 -0.30436647 0.0055059246 0.063283935
0000c0 8f 00 eb bd 5d 3f 2c be 39 2a 34 be 7c eb a8 bd
       -0.11474716 -0.16821046 -0.17594232 -0.0824804
0000d0 e0 55 1d bd 43 ca 66 be e6 83 71 be 0f 92 1b be
       -0.038411975 -0.22538094 -0.23585472 -0.15192436
0000e0 fa b2 a3 be 5a 51 83 be 56 a1 b9 be ee 93 c6 bc
       -0.31972486 -0.25648004 -0.36255902 -0.02424046
0000f0 13 ac 77 be 85 a8 b1 3c 60 3e 2c be ad bb b8 bd
       -0.24186735 0.021686802 -0.16820669 -0.09020171
000100 77 73 45 be 74 f8 55 be 7d 6f 82 be 31 65 95 bd
       -0.19282328 -0.20895559 -0.25475684 -0.07294691
000110 d6 25 85 bd 29 a4 b2 be 4e d9 28 bd c4 8b 9b be
       -0.06501357 -0.3489087 -0.041222863 -0.3038007
000120 7b 68 3b be f5 c7 80 be 78 fb 09 3c 6d 7d 8d 3d
       -0.18301575 -0.25152555 0.008421771 0.06908689
000130 47 df b3 be 25 8d b4 3d 18 58 ef bd ba 37 0c be
       -0.35131285 0.08815984 -0.116867244 -0.13693133
000140 c3 f3 c6 bd fe 2f 55 be 79 58 cf bd 53 bc d7 bd
       -0.097144626 -0.20819089 -0.10124297 -0.10533967
000150 f7 95 84 bd fd 79 92 bc 09 36 7f be d6 67 c5 3d
       -0.06473916 -0.017880434 -0.24922957 0.09638946
000160 b8 61 56 be 7c 08 30 be 4e 42 b2 bd d2 b0 29 be
       -0.20935714 -0.17190737 -0.08704053 -0.16571358
000170 d9 52 97 3d 34 c1 78 be c2 ba e7 be 47 90 a5 be
       0.07388849 -0.24292451 -0.45259672 -0.32336637
000180 39 3a ad be 05 21 a8 be 07 8c 4f be 90 52 ad bd
       -0.33833483 -0.32837692 -0.2026826 -0.08463013
000190 bd 29 1a be 71 ee 2c be 00 fb c7 bd f0 88 ec bd
       -0.15054984 -0.16887833 -0.09764671 -0.11549556
0001a0 fd a1 7c be d6 de ad be 12 2f c0 be 70 a5 bc bd
       -0.24671169 -0.33959073 -0.37535912 -0.09211242
0001b0 df 9b b8 be 23 96 0e 3e 43 f6 27 be a8 7a e6 bc
       -0.3605642 0.1392446 -0.16402535 -0.028134659
0001c0 e8 53 bf 3b 82 dc 95 be 0a e8 80 be c7 1f 42 be
       0.00583886 -0.29269797 -0.25177032 -0.18957435
0001d0 01 71 34 bd 85 58 8b be 47 1d 6b be 92 21 19 bd
       -0.04405308 -0.27215973 -0.22960387 -0.03738553
0001e0 36 d8 aa be d9 b8 ad be 36 3a 36 be 2c e7 8c be
       -0.3336808 -0.3393009 -0.17795643 -0.2752012
0001f0 92 98 ca 3d 2b cf 67 be 03 30 06 3c e2 ae 26 bd
       0.09892382 -0.22637622 0.008190158 -0.040694125

FC.2.weight f4 [128, 128]
000000 02 a2 b4 be 02 84 18 bf de e9 1e be bb 16 5c be
       -0.35279852 -0.5957643 -0.15518901 -0.21493046
000010 ff 1f 51 3d 90 b3 8a 3e e2 e1 e0 3c 91 c1 d2 3d
       0.051055904 0.2709012 0.02745146 0.10290826
000020 86 23 51 3e 51 a8 bc 3d 2b 0d 07 be c7 4c 2d bf
       0.20423707 0.09211791 -0.13188617 -0.6769528
000030 77 54 a5 be b1 ab fb 3d 87 78 bb 3d 82 46 27 bf
       -0.32291004 0.12288607 0.09153848 -0.6534196
000040 f3 09 be be d5 74 94 3e 15 51 c2 bc 2f 89 fd 3e
       -0.37116966 0.28995386 -0.023720304 0.49518725
000050 b4 d7 94 be 3c 8a d0 be 02 c2 cc bf 64 e0 f8 3e
       -0.29070818 -0.40730464 -1.5996706 0.48608696
000060 b9 ae 37 be ab 0c 87 be 52 88 c3 3e 97 63 47 3e
       -0.17937745 -0.26376852 0.38189942 0.19471584
000070 05 6a b1 3e 8d 41 05 3f 4e cd b4 be bc cf eb 3b
       0.346512 0.5205315 -0.35312885 0.0071963947
000080 41 ee 0e 3f ea a4 62 be f6 bf d9 be dd 3a 02 bf
       0.55832297 -0.22133222 -0.42529267 -0.5087107
000090 80 be 76 be cb e6 17 bf 47 fb 72 be b2 40 01 bd
       -0.24096107 -0.5933654 -0.23728667 -0.03155584
0000a0 21 97 ea bd 5c 67 cb 3d 10 c5 2e 3d 59 e8 00 bf
       -0.11454607 0.099318236 0.042668402 -0.50354534
0000b0 36 d5 c2 3e 64 c3 c0 3e fc 20 f0 be 6b 9f ca be
       0.38053292 0.3764907 -0.46900165 -0.3957475
0000c0 80 ce 27 bc 86 c0 00 bd c8 5b f7 ba 69 31 54 be
       -0.0102421045 -0.031433605 -0.0018871957 -0.20721973
0000d0 1d bb c6 bd cf 44 e0 be 52 64 b9 3c 0a 1c 65 3e
       -0.09703658 -0.43802497 0.022630844 0.22373977
0000e0 53 cc d8 bd 0e 0a ba be 71 d0 0e be 81 25 2d bd
       -0.10585847 -0.36335796 -0.13946702 -0.042272095
0000f0 7e 9b 0d 3e d6 6e 30 3e bb 5b 11 bf b7 13 41 be
       0.13828847 0.1722978 -0.56780595 -0.18855177
000100 46 35 44 3e be 53 1c be c3 03 a3 3e f4 fc 0b be
       0.19160947 -0.1526632 0.31838807 -0.13670713
000110 a5 2e fd 3d 81 31 d3 3e 2e fa d1 bd ab b6 80 be
       0.12362412 0.41248706 -0.10252796 -0.25139365
000120 58 50 ac bc 6a a9 21 3f b8 48 60 be 2d 13 16 bf
       -0.021034405 0.6314913 -0.2190274 -0.5862301
000130 14 54 3d bf fd c3 54 3e 37 d2 6d bf 5b 4c af 3d
       -0.7395642 0.20777889 -0.9289889 0.085594855
000140 7c d1 01 3e c5 ea f9 3e e5 2e 70 3d 5f 27 5b 3e
       0.12677568 0.48811927 0.058638472 0.21401738
000150 13 b3 47 3e 88 eb cb 3c 8a b9 20 3e 28 c4 34 bd
       0.19501905 0.024892583 0.15695778 -0.04413238
000160 ab d9 a5 be 1e 8f 3c 3d 0e 4c 7a bf 5c 17 f5 3d
       -0.3239263 0.046034925 -0.977723 0.11967346
000170 09 29 80 be 0c 52 4b be e9 65 27 3e 44 2c 41 3e
       -0.25031307 -0.19855517 0.1634747 0.18864542
000180 61 81 1e bf ec 12 68 be 1b f2 52 3e 1b cc 3a bf
       -0.61916167 -0.22663468 0.20600168 -0.7296769
000190 9d 8b a9 be 10 6f a0 be 6f 11 07 be de 50 60 be
       -0.3311433 -0.31334734 -0.13190244 -0.21905848
0001a0 c7 b9 49 be 81 d9 c1 bd 60 00 6d be 76 c9 9e 3c
       -0.19699775 -0.09465314 -0.23144674 0.019383173
0001b0 c9 7c d2 be d9 d9 be be 77 a5 f1 be 2f dc 82 bd
       -0.4111083 -0.3727558 -0.47196552 -0.06389653
0001c0 57 89 2b bf 5e 69 64 3e a0 04 1d bf 02 b4 59 3e
       -0.6700644 0.2230582 -0.6133518 0.21260074
0001d0 6c d3 c9 be 62 a2 48 bd 89 8f 0d be 69 0a 4e 3e
       -0.39419115 -0.048982985 -0.13824286 0.20121159
0001e0 17 68 70 be 81 aa 91 3e a9 43 50 be eb cd 1c bf
       -0.23477207 0.28450397 -0.2033831 -0.61251706
0001f0 b7 ec 19 3d e7 d9 63 3e 83 26 a0 be 88 39 be be
       0.037579264 0.22251092 -0.31279382 -0.37153268
000200 ad 8a 88 3d 83 b8 33 be 4c ca c1 bd 2e 16 6f be
       0.06667075 -0.17550854 -0.09462413 -0.23348305
000210 38 1b 33 bf 41 72 9e 3d f3 d5 67 be eb a3 10 3e
       -0.6996341 0.07736636 -0.22640209 0.1412503
000220 23 43 52 be 88 21 93 3d 2a 4b ab 3d a3 e5 72 be
       -0.20533423 0.0718413 0.08363946 -0.23720412
000230 34 47 0d bd fd c0 d2 be dc 12 36 3e 65 7f 82 be
       -0.034491733 -0.41162863 0.17780632 -0.2548782
000240 45 18 90 be 4e 5b 05 be 86 90 1e 3d 84 d9 8b be
       -0.28143516 -0.13023111 0.038712047 -0.2731439
000250 9a b3 6c be 52 8f 90 3e 7a 2d 7f 3e c9 4b 2e 3e
       -0.23115388 0.28234345 0.24919692 0.17021097
000260 e7 e4 5b be 64 52 48 3e 0b 87 8b bc ce 16 f6 bd
       -0.21474038 0.1956268 -0.017032167 -0.120160684
000270 d2 45 00 bf 2f 42 29 3e 07 d1 40 be 66 a4 30 bf
       -0.5010654 0.16529153 -0.18829738 -0.6900085
000280 cf 95 15 bf 88 48 b4 bd 90 8a f1 be a0 5a 3a bd
       -0.58431715 -0.08802897 -0.47176027 -0.045496583
000290 36 e0 88 3d 43 51 8d 3d 5a 8d 0b bf 1f ab 93 3d
       0.0668339 0.06900265 -0.5451256 0.07210373
0002a0 a3 b4 6e bc b9 9f b5 be fd 3e 47 bf ec cc 4a bf
       -0.014569434 -0.3547342 -0.7783049 -0.79218936
0002b0 db 0f 4b bd 64 5d cb be 35 39 c0 bd 7a 40 84 be
       -0.049575668 -0.3971969 -0.093859114 -0.25830442
0002c0 5f 7b 3d bf 90 9a 39 be 62 c1 b0 bd fc 74 98 be
       -0.74016374 -0.18125367 -0.08630635 -0.29776752
0002d0 82 49 f2 bc dc 2b ca bd a1 ad ed be 3d d5 50 bd
       -0.029576067 -0.09871647 -0.4642153 -0.05098461
0002e0 c0 6e 3c bf fd ec 4b 3e 02 86 18 bf c4 0b da be
       -0.7360649 0.19914623 -0.5957948 -0.425871
0002f0 51 ce 84 bd 00 c5 c6 be 88 6f d6 3d f0 17 67 be
       -0.06484664 -0.38822174 0.10470492 -0.22567725
000300 15 c9 2b bf ac d1 89 3b 19 35 a3 3d 5f 04 d9 be
       -0.671037 0.004205903 0.07969112 -0.42386147
000310 e5 11 ef 3c e6 bb 6f be fe 2e 98 be c0 56 35 3d
       0.029183337 -0.23411521 -0.29723352 0.044272184
000320 6c 9d 42 be 69 09 45 3d 40 8c 1f 3e 26 59 31 bd
       -0.19005364 0.048104677 0.15580845 -0.04329791
000330 ac 54 b6 be b1 fa cd 3e 28 c8 e6 bd 02 ba c6 3e
       -0.35611475 0.40230325 -0.112686455 0.38813788
000340 ba ee 75 be 29 67 7b bd 64 21 95 bd 7f cc 56 3e
       -0.24016848 -0.061377678 -0.072817594 0.20976447
000350 e4 a7 8c be 3a 24 08 be 50 e8 84 3e 73 54 c0 bd
       -0.2747184 -0.1329507 0.2595849 -0.093911074
000360 8f 05 ca bd 35 5a d8 be 4b 17 d9 3e 32 ff 64 3e
       -0.098643415 -0.42256323 0.42400584 0.22362974
000370 22 cf b1 bd c5 10 96 3d e2 33 2e be a7 42 06 3f
       -0.086820856 0.07327417 -0.17011979 0.52445453
000380 91 a7 3f 3e 9b 5d c8 3e 41 13 24 3c 5d 31 e2 bc
       0.18716265 0.39133915 0.010014356 -0.027611429
000390 7b 46 a0 bd 16 ba 8a be 42 22 c9 be cf 16 4c bf
       -0.07825943 -0.27095097 -0.3928395 -0.79722303
0003a0 51 e6 ad be 25 9f 92 be b8 a7 84 3e 35 1d 8d be
       -0.3396478 -0.28637043 0.2590921 -0.27561346
0003b0 06 66 42 3e 77 30 0b be 01 b1 bf 3e 66 eb 3b 3e
       0.18984231 -0.13592707 0.3743973 0.18351516
0003c0 d7 8f bc be 8e f0 0c bf b8 00 1a 3e f4 84 89 be
       -0.3682849 -0.5505456 0.15039337 -0.26859248
0003d0 8a db 7c 3d e0 31 22 3d ae 76 3b be b8 e4 82 bd
       0.061732806 0.039598346 -0.18306991 -0.06391281
0003e0 ff 93 43 be 0c e7 a5 be 07 a8 17 3e 9f cc f9 3c
       -0.19099425 -0.32402837 0.14810191 0.030493079
0003f0 8b c1 bd be 03 23 b0 be 0e db 1e be b6 93 97 3d
       -0.37061724 -0.34401712 -0.1551325 0.074012205

FC.2.bias f4 [128]
000000 5d 3c 1b be fb 53 08 be e5 b5 59 be b9 24 7e 3c
       -0.15159746 -0.13313286 -0.21260794 0.015511685
000010 87 95 b4 be 3a bf 99 3d 81 b4 2c bd 91 76 56 be
       -0.3527033 0.07507177 -0.04216433 -0.20943667
000020 92 1a 11 be 04 b1 dd 3d 53 ff 9d bc 50 05 22 bd
       -0.14170292 0.10824779 -0.019286787 -0.039555848
000030 e2 d7 4b 3c 0d b7 6e bd b1 96 47 be 84 03 cc 3d
       0.012441607 -0.05828004 -0.19491078 0.09961608
000040 39 7a 1c be ac e2 cb bd 35 97 86 3d f0 52 d1 bd
       -0.15280999 -0.099553436 0.06571809 -0.10220897
000050 4a 79 66 3c f0 97 47 be f4 33 d0 bd 2f c3 5e 3d
       0.0140670035 -0.19491553 -0.10166159 0.05438536
000060 71 8e 55 be 2f 67 a8 bd bb 88 bd 3b 6f 91 56 be
       -0.20855118 -0.08222806 0.005784122 -0.20953916
000070 b8 e5 7f be fd 8b 1b be ca 8c 3d 3e b8 f3 15 be
       -0.24989974 -0.1519012 0.18510738 -0.14643753
000080 22 51 25 be ed 08 da bd 2e a2 b5 3d 7b 76 1b be
       -0.16144231 -0.10646234 0.08868824 -0.15181915
000090 b4 e7 fa bd 59 5b c1 3d 13 2f 8f bc 87 7f 84 bd
       -0.12251225 0.09441251 -0.017478501 -0.064696364
0000a0 cb d2 94 be aa 5d 3c be 9d 82 19 be 49 0b d4 3d
       -0.29067072 -0.18395105 -0.14991231 0.10353715
0000b0 fa 8e 00 3d e5 e0 7e be 38 e2 d4 3d 1a 0f 78 bd
       0.031386353 -0.24890478 0.1039471 -0.060561277
0000c0 1d e6 e8 bb dc 09 21 3d a7 c5 3b be 42 1a 2a be
       -0.0071075098 0.039316043 -0.18337117 -0.16611579
0000d0 58 4b 03 be 00 58 a5 bd 12 c3 4e 3e e7 19 f6 bd
       -0.1282171 -0.08073425 0.20191601 -0.12016659
0000e0 fa 97 ee bc 9a 0a bf 3d 0a 62 f7 bc de 79 78 be
       -0.029125202 0.09328194 -0.030198116 -0.24265239
0000f0 17 65 02 be 85 61 bf bd d4 a8 88 3e ab c8 ff bd
       -0.12733875 -0.09344772 0.26691306 -0.12489446
000100 2a 59 26 bd cd e1 03 3e 42 ca ce bc 60 92 22 be
       -0.040612377 0.12879105 -0.025242928 -0.1587615
000110 df e6 83 3d 7e da cc bd 74 b1 24 3e 90 6d 2c be
       0.064405195 -0.100026116 0.16083318 -0.1683867
000120 0c e1 42 bd 83 9a 8b 3d 61 01 bb 3d 0f ae f7 bc
       -0.047577903 0.0681658 0.091311224 -0.030234365
000130 f8 35 26 be 38 e9 b1 bc 52 71 55 bd e7 70 ea 3d
       -0.16231525 -0.021717653 -0.052110024 0.11447316
000140 7a a6 31 bb db a5 1a be e8 e2 c3 bd 61 2b 10 3e
       -0.0027107284 -0.15102331 -0.09564763 0.14079048
000150 5f 78 07 be 33 06 89 bc ac e6 50 be bf 38 0c be
       -0.13229512 -0.016726589 -0.20400494 -0.13693522
000160 bf 75 a6 bb 86 15 87 bd 72 ea 42 be dc 74 01 bc
       -0.0050799544 -0.06595902 -0.19034746 -0.007901397
000170 43 65 ba bc c5 13 e8 bd d5 34 3d bb fd d7 d9 bd
       -0.022753363 -0.11331896 -0.0028870602 -0.106368996
000180 6a cd 50 be 08 29 a6 be 9e 22 c9 be 1f 38 5e bd
       -0.20390859 -0.3245318 -0.39284223 -0.05425274
000190 0a 65 82 be 79 84 75 be 58 1c 58 3d b8 f5 91 bd
       -0.25467712 -0.23976316 0.052761406 -0.07126945
0001a0 17 2d 6a be d7 4c 20 be b5 37 5e be 42 30 fc bd
       -0.22868763 -0.15654312 -0.21700938 -0.12313892
0001b0 05 9c 98 be 37 3b 3b bd 23 9d 40 bd e6 bc 2b be
       -0.29806533 -0.04571077 -0.047024857 -0.16771278
0001c0 ea 42 73 bd be 9e 73 3d 98 e1 8c bd 1f 79 52 be
       -0.059389986 0.05947756 -0.06878966 -0.20554017
0001d0 3e eb 8a bb 25 bd 7d be 34 8b e3 bc a2 a6 2b be
       -0.004239469 -0.24779184 -0.027776338 -0.16762784
0001e0 8e c8 33 be 71 c1 84 be 83 71 27 be 9b 3b 3c be
       -0.17556974 -0.25928834 -0.16351895 -0.18382113
0001f0 cc 4e 42 bd 6d e9 c1 bb 7a ff ec bd 2f fc 58 3d
       -0.047438428 -0.005917719 -0.11572166 0.052974876

FC.4.weight f4 [64, 128]
000000 ea 65 97 39 6d 3f 8f 3d a9 64 84 3d c4 45 af be
       0.00028876896 0.069945194 0.06464512 -0.34232914
000010 a6 d2 c1 bd 34 7f 4a 3e 14 7c 1d be 1a e1 c4 bd
       -0.09464006 0.19775087 -0.15379363 -0.09613247
000020 d6 30 24 be 09 54 31 be c8 c6 c8 bd 37 c4 1e 3c
       -0.16034254 -0.17317213 -0.098035395 0.009690336
000030 8e fa 8c be de 7e 29 be 70 bc 4b be 8d bb 8e bc
       -0.27534908 -0.16552302 -0.19896102 -0.017423416
000040 95 e2 ed bd a5 9d a3 bd 34 39 58 bd 6b 96 b5 bd
       -0.11615483 -0.07989053 -0.05278893 -0.088665806
000050 d6 eb 03 bf 8f 0e 8f bd 5d 12 99 be bb 28 ef be
       -0.5153173 -0.06985199 -0.29896823 -0.46710762
000060 bd bb 54 3d 3b 29 87 be 23 d0 b2 3d db eb a6 bd
       0.051936854 -0.26398644 0.08731105 -0.081504546
000070 eb a8 55 3e e4 04 c6 3c 54 f6 13 bf 1b 1f 36 be
       0.20865218 0.024172254 -0.5779774 -0.17785303
000080 30 8e 85 3e 96 bc a2 be d7 c4 18 be 44 20 17 bf
       0.26085043 -0.31784505 -0.14918838 -0.5903361
000090 c6 51 72 3d fe 32 02 bf 95 be 56 be c7 27 7f 3e
       0.059160016 -0.5085906 -0.20971139 0.24917518
0000a0 76 5e 2b be c7 e2 60 bd 34 dd 90 3d 88 9f 7d be
       -0.16735253 -0.05490377 0.07073441 -0.24767888
0000b0 0f 84 89 be 54 85 46 3d ea c3 94 bd 84 31 a2 be
       -0.26858565 0.048466995 -0.0726393 -0.31678402
0000c0 89 ea 1d bf 35 aa c3 3c 21 f8 49 bd 63 aa 34 be
       -0.61686 0.023884872 -0.0493089 -0.17643122
0000d0 3d 97 24 bf 1e df 72 bd 20 d9 63 be 3d fa e8 3c
       -0.6429327 -0.059294812 -0.22250795 0.028439635
0000e0 25 0a 38 be 89 96 05 bd 95 c3 17 3e 56 0e 96 be
       -0.1797262 -0.032614265 0.14820702 -0.29307812
0000f0 fa 96 c4 3e c9 6c 13 be 0b c0 53 3d e4 5c 55 be
       0.38396436 -0.14396967 0.05169682 -0.20836216
000100 29 72 a5 be 1a 41 26 3e 3d 78 52 bf 1c b3 27 be
       -0.3231366 0.16235772 -0.8221472 -0.16376919
000110 66 06 97 be 82 22 b1 bd af 9e 91 be dd 49 13 3e
       -0.2949707 -0.0864916 -0.28441378 0.14383645
000120 60 15 c4 bd 06 4a 06 bd 0e 33 a1 be 46 14 81 be
       -0.095743895 -0.032785438 -0.31484264 -0.2521078
000130 56 f9 64 be e2 31 29 bf 52 65 aa be 38 e2 2a 3e
       -0.22360739 -0.6609174 -0.33280426 0.16687858
000140 db e0 03 3d dc 04 71 be 83 b6 73 3e 9a e3 31 3d
       0.03219686 -0.2353701 0.23800091 0.04342995
000150 a4 ce 08 3e 2a b4 00 be fd 44 17 3e 85 8e b1 bd
       0.13360077 -0.12568727 0.1477241 -0.086697616
000160 a4 48 a6 be 6a 85 4f bd 0a db a0 bd 09 48 1e 3d
       -0.32477295 -0.050664343 -0.078542784 0.038642917
000170 ed c5 d1 be 45 57 f8 be e1 21 39 bd 1e 86 6e be
       -0.40971318 -0.4850408 -0.045198325 -0.23293349
000180 f2 0a eb bd e5 04 de 3d 2e 3e 49 3d 40 31 32 be
       -0.11476697 0.10840777 0.049131565 -0.174016
000190 52 f4 ac be 71 5e 4c be ee 31 01 ba 57 46 68 ba
       -0.33780152 -0.19957902 -0.00049283996 -0.0008860579
0001a0 0d 9d 80 3e 7c c0 d3 bd 61 bd 48 be 68 51 da 3d
       0.2511982 -0.10339448 -0.19603492 0.10660058
0001b0 68 88 b1 3e b7 26 7d bd d6 0c 3c 3e 79 cf a1 be
       0.34674382 -0.0618045 0.18364272 -0.31603602
0001c0 42 5c 0c 3e 9c 50 f8 be b0 b4 1a bd 81 0a 9c be
       0.13707069 -0.48499 -0.037769973 -0.30476764
0001d0 1f 39 d3 be fb 24 9a be d8 61 e5 be 2e 57 aa be
       -0.41254517 -0.3010634 -0.4480121 -0.33269638
0001e0 e5 05 d1 bd ff 34 c2 bd 3c 38 18 be b4 62 18 3d
       -0.102062024 -0.094827645 -0.14865202 0.037203506
0001f0 24 84 a4 be 4d 79 dc 3d 33 b8 ae be c4 9a 17 3e
       -0.32132065 0.10765324 -0.34124908 0.14805132
000200 12 87 ce 3d 36 d3 80 3e 2b 5e 07 3e e6 29 75 bc
       0.10084356 0.2516114 0.13219516 -0.014963603
000210 47 59 c1 3d c6 b4 20 bf ef 42 60 be 96 f7 11 be
       0.094408564 -0.6277584 -0.21900533 -0.14254603
000220 4e 0e f5 be ff 99 ea be cd 43 95 be c5 34 07 bd
       -0.47862476 -0.45820615 -0.2915329 -0.03300931
000230 d7 33 81 3e 4b a5 db be 6b ca 19 3e aa b1 83 3e
       0.25234863 -0.42899546 0.15018623 0.25721484
000240 02 ba 1f 3e 2b 42 0d bf fd a8 bc 3d 98 74 cd be
       0.155983 -0.5517909 0.092119195 -0.40128016
000250 c1 ba 34 3e 2f e8 46 be a1 f7 16 be 99 e7 d5 bd
       0.17649366 -0.19424509 -0.147429 -0.10444564
000260 24 88 a1 be 90 03 ca bd b5 89 3f be 8d eb bf be
       -0.3154918 -0.09863961 -0.18704875 -0.37484398
000270 04 6f d3 be e1 d6 ae 3e 7b 2e a7 be 68 42 6c bd
       -0.41295636 0.34148315 -0.3265265 -0.057680517
000280 ef 5e 46 3e 5b 69 95 be 41 6c f0 be a4 65 c1 be
       0.19372152 -0.29181942 -0.4695759 -0.37772858
000290 02 0d 2a bf 56 c3 49 be 9d ec ca bd ab e9 22 bf
       -0.664261 -0.19703421 -0.09908412 -0.636378
0002a0 a7 62 c4 3e cf 88 48 be a9 6e 1d be e6 f2 7b bd
       0.38356516 -0.19583438 -0.15374245 -0.061510943
0002b0 f3 ba 0d bf 59 04 32 3e 67 21 43 3e 40 11 40 bf
       -0.55363387 0.17384471 0.1905571 -0.7502632
0002c0 4e 1c 82 bc c5 f4 3a 3e 27 d4 84 bd f1 28 a4 be
       -0.015882637 0.18257435 -0.06485777 -0.32062486
0002d0 8f fd 43 3e ec 23 83 3e 96 8f 06 be b6 2e d6 bd
       0.19139694 0.25613344 -0.13140711 -0.10458128
0002e0 f2 61 a1 be 39 38 b4 bd 2e 0f 96 3d ef ac 8c bc
       -0.3152004 -0.08799786 0.07327114 -0.017172305
0002f0 ca e5 86 3e 46 14 69 3d a2 26 23 3d 0f 9e cd bc
       0.2634719 0.0569041 0.039831765 -0.025099782
000300 12 b9 0b be 16 54 9e bd 65 50 14 bf e1 89 7e 3e
       -0.13644817 -0.07730882 -0.5793517 0.24857284
000310 26 d0 79 be 48 0f 59 bd 05 37 21 3e 94 a6 01 be
       -0.24395809 -0.05299309 0.15743645 -0.12661201
000320 5c 92 82 be 24 1d a4 bc fb 88 57 bf 6a 1f ea be
       -0.25502288 -0.020033427 -0.8419339 -0.45727092
000330 4e f5 ad bc 66 a1 8c bd 42 4f 3d bf 1d 15 6c be
       -0.021235134 -0.06866722 -0.7394906 -0.23054929
000340 5d 08 b8 bd 27 37 cf bd e7 49 4f 3d 53 ad e7 bd
       -0.0898597 -0.10117941 0.05060759 -0.11312356
000350 20 95 8e be 33 6d 1e 3c 74 ac 7e be 05 dc 45 bf
       -0.27848148 0.00966959 -0.24870473 -0.7728885
000360 d0 ce 15 bc ca 3c 3c 3e c1 fa 01 bf da dd 86 3e
       -0.009143546 0.18382564 -0.50773245 0.26341134
000370 74 95 fb 3d 66 3f e7 be aa eb a3 be 00 37 8b bf
       0.12284365 -0.45165557 -0.32015735 -1.087616
000380 04 af fa 3e 94 9c 1f bf 62 b9 d9 3e fd 29 89 bf
       0.4896165 -0.62348294 0.42524248 -1.0715939
000390 f4 26 2b bf f0 ee b8 bd f6 2d 20 be 3b 08 03 3e
       -0.6685631 -0.09029949 -0.15642533 0.12796108
0003a0 7c 27 d1 bd 98 91 e6 be 22 56 ae 3e 19 b0 82 be
       -0.10212609 -0.45032954 0.3405009 -0.25524977
0003b0 dd 94 1e bf 11 cb a4 3d c4 e3 02 3d 07 85 f8 bd
       -0.619459 0.08046544 0.031955495 -0.12134748
0003c0 16 83 5a 3e d2 02 dd be 7e 86 e5 be 48 a1 13 be
       0.21339068 -0.43166214 -0.44829172 -0.14416993
0003d0 c1 d9 c1 be ff a8 8d 3e bf 60 c0 be f1 76 05 be
       -0.37861446 0.27667996 -0.3757381 -0.13033654
0003e0 b9 4b 14 3f 96 73 7c bd 34 0e 43 be 32 38 ad bd
       0.57928044 -0.06163367 -0.19048387 -0.08457984
0003f0 3d af 04 bd ab 53 33 3c 97 48 5e 3e 80 4e 01 be
       -0.032393683 0.010945241 0.21707378 -0.12627602

FC.4.bias f4 [64]
000000 68 36 d6 be 98 5d 23 be 14 d1 89 be e0 05 0e 3e
       -0.41838384 -0.15953672 -0.26917326 0.13869429
000010 0d d6 56 be e1 3b 8d bd 0f 3c e7 3a bf db be bc
       -0.20980091 -0.068961866 0.00176418 -0.023298142
000020 f4 77 a0 3e 43 ea 3a 3e c1 07 1e 3e b1 a9 8c be
       0.31341517 0.18253426 0.15432645 -0.27473214
000030 28 5c 44 be bb 2b a7 3d 70 03 23 bd 73 92 90 bd
       -0.1917578 0.08162638 -0.0397982 -0.07059183
000040 6a 5a 81 3e fc 9b 93 3e 27 e7 e5 bd 53 30 a2 3e
       0.25264293 0.28829944 -0.112257294 0.31677493
000050 ec 04 86 3d 23 ba 82 3d f4 e0 9d bc 36 df 7f bb
       0.065439075 0.06383159 -0.019272305 -0.0039042956
000060 c6 6d a1 bd ba e6 7b be 20 27 84 bc dc 97 c0 3c
       -0.07882266 -0.24599734 -0.016131938 0.023509912
000070 db de be 3d 14 11 21 3e 99 e5 fc 3e 8e 08 a2 3e
       0.0931985 0.15729171 0.4939392 0.31647152
000080 67 65 85 be ef b1 c6 3e bd 71 e6 3c c3 d7 b7 3e
       -0.26053926 0.38807628 0.028130407 0.359068
000090 0d 70 02 be 5a 7f 6a 3c 6d 86 c0 3e 4c dc 49 bd
       -0.12738056 0.01431259 0.3760256 -0.049282357
0000a0 6f 12 a1 bd 65 81 4b be ea e4 e9 be 68 41 12 3e
       -0.07864844 -0.19873579 -0.4568246 0.14282763
0000b0 93 9f 89 3e 58 f0 5d bd 6e 90 f7 3d 2a d6 4f 3d
       0.26879558 -0.054184288 0.12088095 0.050741352
0000c0 54 69 e0 bd 08 b6 d8 bd 27 2c 13 be 93 c6 53 3e
       -0.1095759 -0.10581595 -0.14372312 0.20681219
0000d0 b6 d4 95 be 70 dc cf 3e ea a4 ae 3d 25 14 1c 3e
       -0.29263848 0.40597868 0.085275486 0.1524206
0000e0 d3 56 00 3e 98 b5 8e 3d 8b 3e 95 3d a7 83 e6 bd
       0.12533121 0.0696823 0.0728732 -0.112555794
0000f0 7a 47 55 bd b2 b8 43 be 1b 0a ce bd 92 40 e6 bd
       -0.05207012 -0.19113424 -0.10060521 -0.112427846

FC.6.weight f4 [10, 64]
000000 96 c4 1e bd ab 11 e9 3b 0c 5c 9d bd 67 ab 55 3e
       -0.038761698 0.007112702 -0.07683572 0.20866166
000010 66 ce ad 3e bd 34 5a be a6 09 04 3e 28 3c f7 3c
       0.33946532 -0.2130918 0.12894306 0.030180052
000020 54 40 ce 3c d3 e6 6a 3e 66 45 14 bf ce ce 14 be
       0.025177158 0.22939615 -0.57918394 -0.14532015
000030 70 6c 05 3e 43 a8 34 3e 1b 30 a4 bd 01 69 e5 be
       0.13029647 0.17642312 -0.08016988 -0.44806674
000040 5e 87 8a be 59 25 7d be 55 76 5c bd 7e 0a 34 3d
       -0.27056402 -0.24721278 -0.053823788 0.04395532
000050 99 68 9c bc 89 d4 b7 bd 02 74 08 3e 23 d5 b2 3e
       -0.019092845 -0.08976085 0.13325503 0.34928235
000060 d0 35 3d 3d 79 5a 56 be ba 8c bb 3e 65 73 c8 bd
       0.046193898 -0.2093295 0.36630803 -0.09787635
000070 ff d7 4c bc 7c 14 82 be 30 71 38 3e 11 71 c5 3b
       -0.012502669 -0.25406253 0.18011928 0.0060254415
000080 83 af 31 3e e5 71 ec be e6 fa db bd 7f b7 30 bf
       0.17352109 -0.46180645 -0.107412145 -0.6902999
000090 b8 f7 91 be d4 aa fb bd 76 9b d3 3c 7c 53 03 3e
       -0.28509307 -0.12288442 0.025830965 0.12824816
0000a0 02 69 43 be 84 97 a6 3d 60 d1 38 3e be a3 69 3e
       -0.19083026 0.08134368 0.1804862 0.22816369
0000b0 07 c0 10 bd 2e 5b 4f 3d 6b 6c 80 bd cb fe 1b 3c
       -0.03533938 0.050624065 -0.06270679 0.009521197
0000c0 2f d1 61 be 4b 6f 36 3d b0 b7 21 be 50 b6 31 b9
       -0.22052453 0.04453973 -0.15792727 -0.00016947952
0000d0 83 f6 04 3e 57 fe 8f 3e 14 00 51 3e 12 9e 31 bc
       0.12984662 0.28123733 0.20410186 -0.01084091
0000e0 dc 7a e5 3e 3e 52 08 bf 5d f8 45 be b8 9c 8f 3b
       0.44820297 -0.5325049 -0.19333024 0.004382696
0000f0 1c e7 6f be a9 79 ee bd db 85 43 be c5 07 4d be
       -0.23428005 -0.116442986 -0.1909403 -0.20022495
000100 ec 06 a9 bb 5f c2 c9 3e 85 7d 70 3e 18 77 5e 3e
       -0.005158296 0.39406106 0.23485382 0.21725118
000110 a5 5e 72 3d 67 ad 29 3e 5f 89 eb 3d f6 54 f4 3e
       0.05917229 0.16570054 0.11500811 0.4772107
000120 3c 46 69 3d 0d 5d 34 3e 26 55 e3 be 9a 23 e1 bb
       0.056951746 0.17613621 -0.444009 -0.006870699
000130 5f 9d 81 3e 3c 5b 5f be ff 4b e3 be a5 64 31 3e
       0.25315377 -0.21812147 -0.44393918 0.17323549
000140 6d 19 2a bd bb 83 42 be 15 74 d4 3d 71 53 50 bf
       -0.041528154 -0.18995564 0.103737034 -0.8137732
000150 9d a0 44 be 91 db e5 bd 0d e4 66 bf 64 1a c3 3d
       -0.19201894 -0.112235196 -0.9019173 0.09526518
000160 83 f5 3b be 07 62 c2 bd e3 95 8a bc 81 2e a5 bd
       -0.18355374 -0.094913535 -0.016917175 -0.080655105
000170 99 43 0b 3e 2f 0f ca be 1a a8 5f 3e 89 23 43 bd
       0.13600005 -0.3946471 0.2184147 -0.04764131
000180 33 c8 fb 3e fd 19 ad 3e 28 be 80 be f9 11 53 3d
       0.49176177 0.3380889 -0.25145078 0.051530812
000190 68 93 f0 be 69 c8 20 bd 99 7d 03 3e ca 25 87 bd
       -0.46987462 -0.039253626 0.1284088 -0.065990046
0001a0 75 8d 87 bd 0b a3 09 3e 92 78 3e be e6 de e1 be
       -0.06618778 0.13441102 -0.18600681 -0.4411537
0001b0 19 6f 2d be 1b 43 14 bf 54 24 b6 bd 02 eb b7 be
       -0.16936912 -0.57914895 -0.08893648 -0.35921484
0001c0 af b1 31 be 04 1d de be 7c dd c8 3d 38 fc 0e bd
       -0.17352937 -0.43381512 0.0980787 -0.034908503
0001d0 32 9c 67 3e b4 58 54 3e 9b 89 19 bf 14 dc de bd
       0.22618178 0.20736963 -0.59975594 -0.1088182
0001e0 c4 e4 b9 3e 5d 1a 15 bf 97 a9 ce bd 04 f3 5c 3d
       0.36307347 -0.5824335 -0.100909404 0.053942695
0001f0 64 fa 2d be 42 d8 1f 3e 5b 32 89 3e cd 70 93 be
       -0.16990048 0.1560984 0.2679623 -0.28796998
000200 3a eb 1e 3e 01 42 85 be 49 3b 03 3e cd ad 51 3e
       0.1551942 -0.2602692 0.12815584 0.20476456
000210 23 70 82 3e 99 47 56 be ed 97 f0 be 24 45 28 3e
       0.2547618 -0.2092575 -0.4699091 0.16432625
000220 a0 f3 06 be 98 3b 80 3e 35 45 bd be 48 fa 3a be
       -0.13178873 0.25045466 -0.36966863 -0.18259537
000230 cd 15 96 3d 80 c5 ec be c7 a3 a4 be b1 56 ba be
       0.07328377 -0.4624443 -0.32156202 -0.36394265
000240 47 30 6b 3a f5 0f ad bd ee 18 96 be d5 53 f4 bd
       0.00089717325 -0.08450309 -0.29315895 -0.11930052
000250 97 f7 2a bf 89 83 35 bf 44 6c 14 3d c7 c0 86 bd
       -0.6678404 -0.7090383 0.036236063 -0.06579738
000260 3a a8 b9 3e 4a 2d ae be 4b ab b9 3d af 1a 47 3d
       0.3626116 -0.34018928 0.09065875 0.04860943
000270 43 58 e9 be b7 e3 36 bf c1 c5 f2 bc 05 22 07 bd
       -0.4557515 -0.71441215 -0.029635312 -0.032991428
000280 5b 1c 7e be 43 05 94 3e 88 ca ff be fd bd 8a 3e
       -0.24815504 0.28910264 -0.49959207 0.27098075
000290 04 6d b1 be 16 83 ff 3d 6d 3d ed bd f0 59 44 be
       -0.34653485 0.124761745 -0.11583982 -0.19174933
0002a0 e6 d8 9e bd 74 cb 16 3e a5 24 57 bd a0 5a 9c 3e
       -0.07756214 0.14726049 -0.05252518 0.3053789
0002b0 eb ab 9f 3e ce 3e 6e 3e 27 8b d6 be ce 1e 31 be
       0.3118585 0.23266146 -0.4190304 -0.17296907
0002c0 76 c7 e6 3d 46 16 05 bf 6f 27 a0 bb f8 5a d0 3d
       0.11268513 -0.5198711 -0.0048875134 0.10173601
0002d0 a8 2f 06 bd 3c 4e 3a 3e 7a 98 c1 3d 05 dd d5 be
       -0.032760292 0.18193907 0.09452911 -0.41770187
0002e0 cf ae d7 3e 03 d1 8c bd 52 38 0b be b3 2b a6 bd
       0.42125556 -0.06875803 -0.13595703 -0.08113804
0002f0 06 5b fe bd 29 c1 f7 be 70 b9 65 3e 5b f9 96 bd
       -0.12419705 -0.48389557 0.2243402 -0.073717795
000300 dd c5 19 3c f5 7d cc 3d 4b 17 34 3e 12 69 42 3e
       0.009385553 0.09984962 0.1758701 0.18985394
000310 f2 a5 0c bf 5f 12 b4 3d 2d 70 51 bf bc 5a 1b 3d
       -0.5494071 0.087925665 -0.8181179 0.037928328
000320 e5 f1 43 be 0b 4d 83 3e 42 45 7a 3e cc df 5f be
       -0.19135244 0.25644717 0.24440482 -0.21862715
000330 e6 3f 3c 3e d9 54 2f 3e fc 40 1e bf 66 07 43 bf
       0.1838375 0.1712221 -0.6181791 -0.76183164
000340 cf 51 cf 3e 0c e5 3d 3e 6d 9d 4c 3e be ed af bd
       0.40492103 0.18544406 0.19981928 -0.085902676
000350 27 93 34 3e e4 6e d6 3e ed 24 e1 3d 25 60 c7 be
       0.17634259 0.41881478 0.10993371 -0.3894054
000360 78 f2 01 3f eb 39 50 3d d6 a4 f6 3e aa 05 13 bf
       0.507606 0.050836485 0.48172635 -0.5743052
000370 2b 36 7b 3e 27 69 f4 3d 8b 01 d5 3c 82 ab e0 be
       0.24532382 0.11934119 0.026001712 -0.4388085
000380 ec 72 91 3e c4 78 03 bd 01 15 9e 3e 82 19 74 3d
       0.2840799 -0.032097593 0.308754 0.05959464
000390 9a 71 56 3b 45 71 f4 be 70 99 bd 3d 5e a9 e5 be
       0.003272152 -0.47742668 0.092577815 -0.4485578
0003a0 7b 72 93 bc 0d 3b 15 bc 0e 4a 6a 3e 2e 4f 14 bf
       -0.017998924 -0.009108317 0.22879812 -0.5793332
0003b0 94 44 dd 3d 43 9a cc be 4c 4c e7 be 66 ff bb bc
       0.10804096 -0.39961442 -0.45175397 -0.022948932
0003c0 ff 7d 89 3d 2c 98 62 3b d8 5c 12 be 48 c4 78 be
       0.06713485 0.0034575565 -0.1429323 -0.24293625
0003d0 b7 70 4c be 14 08 20 3e 2d fc 2d 3e 21 ee 2c bf
       -0.19964872 0.15628082 0.16990729 -0.67550856
0003e0 02 3b e1 bd 33 d6 b8 3e 44 7e 0b bd 24 b6 06 bf
       -0.10997583 0.3610092 -0.034055963 -0.52621675
0003f0 bb 08 30 be ac b1 6e be cb e3 0b 3d ad c3 43 be
       -0.1719083 -0.23309964 0.034152787 -0.19117613

FC.6.bias f4 [10]
000000 28 37 6e 3d d2 c5 34 3e 3d a4 18 3e 13 8a 09 3d
       0.05815807 0.17653587 0.14906402 0.033578943
000010 6f 97 8e 3d e3 e3 85 3d f4 6c a3 3d e1 97 73 3e
       0.069624774 0.065376066 0.079797655 0.23788406
000020 8f b6 92 3b 7b af c9 bd
       0.004477329 -0.09847923
