Ai Elevator/Traen1/Outputs/final_weights_3000.pth (torch, 122791 bytes, 8 tensors)

FC.0.weight f4 [128, 33]
00000000: 51e3 9ebe 8bf9 9d3c 4f03 74bd e074 bf3d
00000010: 24d3 053e d5b5 403e 467d c23e cc17 053e
00000020: fbb5 11be b6b9 96bd 8f72 fdbd c80d adbe
00000030: b61c 48be 3888 093d 36b2 433d 9efd 053f
00000040: 5a8b 4cbe 7567 303e f44e 1f3e b13a b0be
00000050: 7f42 1b3e fb1b be3e dc2f 17bf 5e63 a83d
00000060: 43c4 163e 3f88 1d3d 4b0f 273e 0479 6e3e
00000070: e7c2 84be 3832 f73e cfb6 79be 76e9 233d
00000080: f829 793e bcb3 823e 2883 4abd debe 833e
00000090: 7175 debd c0c4 56be b438 4ebe cbb0 1cbe
000000a0: 06b9 063e e7df 09be af3a eebc 920a 66bd
000000b0: 3f34 e1bd 0713 b03d 7478 6f3e f16a c4be
000000c0: 0b51 28bf 8134 833e 8d5e 053f d5cb 0abf
000000d0: 99ac 7cbe befb 323e 221c 77bd d06f fe3d
000000e0: 5ad5 25bf 9714 933e d73d 19bf 5570 033e
000000f0: 97c9 14be 8bfa 01bf 5732 4abe d225 97bd
00000100: dedb a7be 7873 be3e 29f8 5f3e 67b4 02bf
00000110: 2d59 893e d7fe 92be 169b f9be 7451 f03d
00000120: 14fb 9b3e 302b 003f 30ea a2be 583d 22bd
00000130: 7cb2 afbd bdd3 f63e 5fe5 d23d 983b 3d3e
00000140: fe8a c0be 316f 11be 39eb 35bf 5263 a1be
00000150: d685 1dbb 95ae c0be 9a29 ffbd 5cd1 33be
00000160: 50a1 33be 4fd3 75be 650d f4be 624c 0d3e
00000170: 4bcc 8e3d d3b2 fcbe c383 933c 3f19 903e
00000180: 407f a5be 8e4d 063e 9050 393d bd16 f13d
00000190: 265e 713d deb2 803e c999 babc 7afb e63e
000001a0: aa12 913d 056d 793d 7270 91be 0bee 40be
000001b0: b490 afbd 6579 df3e 89b4 aebe e466 afbe
000001c0: 6400 88be 3ba2 e1bc 634a ee3e 9bdd 6bbd
000001d0: 4f2b 0bbe 965e 9b3e fabd 21be 479d 9ebe
000001e0: da30 bcbd 7d2e 383e bbdf 693e 8d81 db3e
000001f0: e499 dd3c 2b6f 8d3d f2c4 8d3d da92 adbe
00000200: 8144 2fbe 01d7 f2be acd1 87bd 48e9 743e
00000210: 919a 00bd d1e0 ccbd 8e9e 31be 20cd 413d
00000220: e2fe c53e 5fba 9d3e b8c2 213e fadb 4c3e
00000230: a48b ce3e 0070 e53e eb52 d93d a389 473c
00000240: 9423 833e 003c 95bc d0a8 d1bc 1474 483e
00000250: a475 b73e 5a10 9a3d ee92 303e 4eef 9a3e
00000260: 075e b03e 05a9 09bf 205e 3abd 7dc5 0ebf
00000270: 6e2b 8cbe ef2a 19bf 8e91 b6bd bd91 57be
00000280: ed68 383e f0f3 f93d d5b7 a83d fbac b33c
00000290: 4016 b2bd 8808 1bbe 6d53 2f3e 497e cc3d
000002a0: c7e3 b4be d31b 27be 2a9e 893e 1eb2 053e
000002b0: f748 f33d d640 b9be f84f c0be 76ef 13bf
000002c0: 89b3 99be f45a 80bd ea17 d3be 0135 f43d
000002d0: 02e1 2dbe d539 b9be 919f bd3c 7307 83bb
000002e0: 9639 a43e 6d11 fe3e b8c2 823d 44a5 77bd
000002f0: dbee 14be 3119 113f 5766 eabe 318e aebc
00000300: c618 0ebf cd5c 403d b6ff 613e ab2a d23e
00000310: ba16 4ebe 60dd 07be 6a27 8fbe b184 afbd
00000320: c106 b1bd 4785 17be 2975 dabe 8f78 25be
00000330: 324d 253e e26f a53e fbab 873d 8218 e33d
00000340: 9ea8 913e de4d 5cbe 8a4e 37bb 3c30 6c3e
00000350: 3428 953e c9fc b53e 79d4 6e3e c9e5 a23e
00000360: b99d 983e a87c 49bd f44c 2bbd 2235 9d3e
00000370: c62f 573d f4ab e03e eb80 413e dce9 9e3e
00000380: db07 703e 5602 d23e e776 2f3e 5430 043f
00000390: 19ca 453e f8be 023f 00f0 e33a 5f88 523e
000003a0: b7b4 1e3e 148a 5c3e bb4a 2e3d 3c94 723e
000003b0: c5cd 153e b643 693e 1aca 37bb bde8 09bf
000003c0: e0fe de3e 1f44 2e3e f41a 3ebf e01e e1be
000003d0: b0e8 b13c 437a 3d3d f301 d8bd f7f2 d8be
000003e0: 12c5 a03e 4a29 b83e 1a23 b9be 3839 49bd
000003f0: 24b4 4e3e 18c9 fa3d ebb9 c6be e71d 13bf
-0.31032804 0.01928403 -0.059573468 0.09348464 0.13068825 0.18819363 0.379862 0.12997359
-0.14229576 -0.0735964 -0.12375366 -0.33799577 -0.19542202 0.033577174 0.047777377 0.52340114
-0.19975033 0.17226966 0.15557462 -0.34419778 0.15162085 0.37130722 -0.590574 0.08222078
0.14723305 0.038460013 0.16314428 0.23288351 -0.2592995 0.482805 -0.24386142 0.040017568
0.24332416 0.2552775 -0.049441487 0.25731558 -0.10862244 -0.20973492 -0.20138818 -0.15301816
0.13156518 -0.13464318 -0.029080717 -0.056162424 -0.10996293 0.08597379 0.23385793 -0.3836284
-0.6574866 0.25625995 0.520974 -0.54217273 -0.24675216 0.17478845 -0.060329564 0.1242367
-0.64778674 0.28726646 -0.59859985 0.1283582 -0.14530025 -0.50772923 -0.19745766 -0.073802605
-0.32784933 0.3719747 0.2187201 -0.5105652 0.26825848 -0.28710052 -0.48751134 0.11734286
0.30464995 0.500659 -0.31819296 -0.039609283 -0.08578965 0.48208418 0.10297655 0.18479764
-0.37606043 -0.14202572 -0.71062046 -0.31521088 -0.0024036071 -0.37633196 -0.12459107 -0.17560333
-0.17542005 -0.24006389 -0.4766647 0.13798669 0.069725595 -0.49355182 0.018007165 0.2814426
-0.32323647 0.13115522 0.045242846 0.11771915 0.058927678 0.25136465 -0.022778409 0.45113736
0.07083638 0.060894985 -0.284061 -0.18840806 -0.08572522 0.43647304 -0.34122112 -0.34258187
-0.26562798 -0.027543178 0.46541128 -0.057584386 -0.1359074 0.303456 -0.15795127 -0.30979368
-0.09189005 0.17986484 0.22839253 0.42872277 0.02705092 0.06905969 0.0692233 -0.339011
-0.17115976 -0.4742966 -0.066317886 0.23917115 -0.031397406 -0.10003818 -0.1734564 0.047314763
0.38671023 0.30806252 0.15796936 0.2000579 0.40340912 0.44812012 0.106115185 0.012178811
0.2561308 -0.018217087 -0.025593191 0.1957553 0.3583194 0.0752265 0.17243549 0.302607
0.34446737 -0.5377353 -0.04549992 -0.55770093 -0.27376884 -0.59831136 -0.08914481 -0.21051688
0.18008776 0.122047305 0.08238188 0.02193307 -0.0869565 -0.15139973 0.17121668 0.099850245
-0.3533003 -0.16319208 0.26878482 0.13056228 0.11879151 -0.36182278 -0.3756101 -0.57787263
-0.30019787 -0.06267348 -0.41229182 0.11924172 -0.16980365 -0.36176935 0.023147376 -0.0039986908
0.32075185 0.4962267 0.06384796 -0.060460344 -0.14544241 0.56679064 -0.45781204 -0.021308037
-0.5550655 0.0469635 0.22070202 0.41048178 -0.20125857 -0.13268042 -0.27959758 -0.08570231
-0.08643866 -0.14796935 -0.4266751 -0.1615927 0.16142729 0.32311922 0.066245995 0.11088659
0.28448957 -0.21514079 -0.0027970397 0.23065275 0.29132235 0.35544422 0.2332324 0.31815937
0.29807833 -0.049191147 -0.041821435 0.307046 0.052535795 0.4388119 0.18896835 0.31037796
0.23440497 0.41017407 0.17135201 0.5163624 0.19315375 0.51072645 0.0017390251 0.20559834
0.15498625 0.21537048 0.042551737 0.2368936 0.14629276 0.22779736 -0.0028044046 -0.53870755
0.4355383 0.17018174 -0.7425988 -0.43968868 0.0217174 0.046259176 -0.10547247 -0.42372867
0.31400353 0.35969 -0.36159593 -0.049126834 0.20185906 0.12245387 -0.3881372 -0.574675

FC.0.bias f4 [128]
00000000: 133c eabd b7e5 3cbb 9888 76bd 5874 dc3b
00000010: 3751 f53c d646 20be dd3a 6fbd 2db6 fcbb
00000020: f191 383c e893 38be 70ed 1ebc 1cf2 ca3d
00000030: 7315 0e3d 105e 19bc 1f73 7abe 7a56 f43c
00000040: 3b18 c7bc a507 cfbd c26d 0cbe 790e 3cbe
00000050: 0534 8fbd df63 f2bd 99f2 3bbd d111 d5bd
00000060: c477 2a3e c618 2bbe eb7e 19be 1dd2 053d
00000070: 7d0c 0abd 6066 1dbe 3823 58bd 816f 0ebd
00000080: 436c 53be 07ed 50bd d607 31bc a910 d8bd
00000090: c281 8b3c 7b43 fcbc 188e 493d debd 53be
000000a0: 3be7 8bbd 56c1 4a3c e024 1a3d 0db9 1abc
000000b0: 59f1 3d3e 9d00 07bd e24d 103e 0262 debc
000000c0: fcb9 3abe 9d86 a43c 4de8 d53d 0651 48be
000000d0: 9ae4 16bd 39b8 6439 ae7e 84bd f3de 1a3e
000000e0: 5aa1 5bbe 16e6 27be 8bae 14bd 4da3 d43d
000000f0: a04a 133c 7597 8f3c 0222 9dbe d80b e5bc
00000100: fe8d 43bd ecaa 3fbe 16e0 59be 4d8a f63d
00000110: 5018 243d acc2 35be d34f 06be e7b1 c7bd
00000120: 1f75 01bd cd44 92bd 31a7 6dbd 136b 65bc
00000130: c2e0 9ebe 11ac bb3b 86ad 953d 7050 40bd
00000140: f420 26bd e735 2bbe c54e a5bd 0068 103d
00000150: 4f48 75bd 6abb 06be 82bc 993d 033c 9cbc
00000160: f406 b0bb b2b9 45bd 7de0 fabd 14da 2abe
00000170: 4753 c33d 74f5 db3d 65f6 50be 52ea b8bd
00000180: c6bb 66bd c324 29be 4b69 93bd 4168 163e
00000190: fa55 8dbd 5652 17be 5f83 3fbe 0839 f33d
000001a0: e139 e3bd 2842 55bd 35c7 8fbe 5f45 05be
000001b0: e968 58bd f386 f4bc 52d9 45bc 95c1 aebd
000001c0: b783 c7bc b142 04be 552a 9b3a 3593 f7bc
000001d0: 6ae1 a0bc 040c 8fbe 7c48 85be f5d0 9abc
000001e0: 4d41 87bd d773 f8bd f77f 0e3e 7d36 71be
000001f0: e7f4 cb3d e403 5cbe 2492 f1bd 096a a6bc
-0.114372395 -0.0028823444 -0.06018886 0.0067277364 0.029945953 -0.15652022 -0.058405746 -0.0077121467
0.011265264 -0.18025172 -0.009700164 0.0990946 0.034688424 -0.009360805 -0.24457978 0.029826391
-0.024303546 -0.1010888 -0.13713744 -0.18364896 -0.06992344 -0.11835455 -0.045885656 -0.10403789
0.1664725 -0.16708669 -0.14989822 0.032671083 -0.033703316 -0.15371084 -0.052767962 -0.034774307
-0.20646767 -0.051007297 -0.010805091 -0.10550053 0.017029647 -0.030793896 0.049207777 -0.20677897
-0.06831213 0.012375196 0.037632823 -0.009443534 0.18549098 -0.03295957 0.1409221 -0.027146343
-0.1823501 0.02008372 0.104446985 -0.19562158 -0.036839105 0.00021812403 -0.06469475 0.15124111
-0.2144827 -0.16396365 -0.03629927 0.1038271 0.00898996 0.017528275 -0.30690008 -0.02795975
-0.047742836 -0.18717545 -0.21276888 0.120380975 0.04006225 -0.17750043 -0.13116388 -0.09750729
-0.031605836 -0.07142029 -0.058020774 -0.014002579 -0.31030852 0.005727299 0.073084876 -0.04695171
-0.04055877 -0.16719781 -0.08071665 0.035255432 -0.059883412 -0.1315743 0.07506658 -0.019071585
-0.0053719226 -0.048272796 -0.12249849 -0.16684753 0.09537368 0.10740176 -0.20406492 -0.09029068
-0.05633142 -0.1651793 -0.071978174 0.14688207 -0.06901164 -0.14777502 -0.18702458 0.11876112
-0.11095024 -0.052065045 -0.2808167 -0.13014744 -0.052834425 -0.029849505 -0.012075739 -0.085330166
-0.024354799 -0.12916066 0.0011838177 -0.030221561 -0.019638736 -0.27938855 -0.26031864 -0.018898467
-0.06604252 -0.1213147 0.13916002 -0.23555942 0.09958821 -0.21485859 -0.11795452 -0.020314233

FC.2.weight f4 [128, 128]
00000000: 9ed5 c1bd 295d b9be abd1 cd3c 9488 883e
00000010: 420b 3cbe 6bfb 093d 74f8 a0be c648 0cbe
00000020: 5e37 3cbe fcf3 ef3d 98b8 2c3e b3a8 54bd
00000030: e1df 8abd 93c4 273e c830 a3bd b1e4 7cbe
00000040: 5e10 edbd 5c12 13be 681f bebd 6211 c73d
00000050: db32 1abe c328 0e3e 7497 f4be 0ffe a1bc
00000060: 2807 3dbd 0c74 98bd 24ea db3d 3f2f 31be
00000070: 26f7 6f3e 02d7 3fbe 886f e1bc bb79 63bd
00000080: fc9f 523e b2b5 10be fb65 c93d 273b 50bd
00000090: d587 90be 4c1d 4d3e 15a6 c3bd 6b68 833d
000000a0: 593a bcbd a3a5 15be 2e5b 053c 1c17 65bd
000000b0: 0ad0 99bd 7b81 a63d 1aa4 bcbe 5e0f 90bd
000000c0: 138b f53d 57e8 b73e 3b71 373e 7d0b c0be
000000d0: 10ff 8ebd d492 96be 09e7 f23d b9d2 40be
000000e0: bf2f c5bd 47a8 623e 23a6 43be ce58 c73e
000000f0: 2710 693e a56b 493e aa9e edbd 80a6 1b3e
00000100: 1a13 6dbd 254f 82be 8873 cf3d 7717 6abe
00000110: 187b a93d 3089 6c3e ead3 bdbd 08b1 243e
00000120: 1c7a 83bc b2bb 303a bcee afbe 4b47 d1be
00000130: 9e19 c3be 1a4f 853e e261 f3be 1f56 403e
00000140: 6e05 a73d 4fe3 093c 3d2e b6be 44d8 263e
00000150: 34f8 8cbe 979c 783e f072 57bd b1bf 1dbe
00000160: 392e ccbe 8507 97be 354c d3bd 5812 3d3c
00000170: 6d6d bfbe eafd 743e d4f5 84bd 42cf a3bd
00000180: 46c7 86be 9c0a 93be acbe e3bd db00 61be
00000190: b656 a83d 6bcd e8be 2d02 7abd 629f 103e
000001a0: 7fd4 413e 1c79 543c a75c 9a3e 4b5b 6a3e
000001b0: 4663 cabd 1036 18bd 0ba2 c3bd 6438 833e
000001c0: 0d8f d0bd c8f7 4b3e bbeb 83be 754c 51be
000001d0: 3ac1 073c 6a98 843e 6ed6 afbe c0f3 a0bd
000001e0: 3a4a 583e b864 f43d ed9e 673e a853 3e3d
000001f0: 0893 25be 3aab 743e 77b8 84bd 149d df3b
00000200: 6848 ebbc c0b8 b83e 3e0a 44be 8a87 74be
00000210: 6e9d 37bd e09e 703e 1651 04be 3a3b f4bd
00000220: 94c7 553e 977f 623d 3c39 4abe 25c7 a73e
00000230: 188c 0fbd 46f5 8dbe a72b eb3d 3e4a 2d3d
00000240: bdbb e83d e3e5 aa3e 5e2f aabe 1ebe c63d
00000250: 5f51 2bbe dc6d 553d 9b3f 963e 0450 493e
00000260: 18f0 febd 1401 923e f091 a43d cd91 2dbe
00000270: 0ac7 08be 30b1 ed3d 3abf 8fbe d4ab 0f3e
00000280: c0a8 84bd 1ec0 b63d 6221 95be da43 88be
00000290: ebc4 e2bc 979a 363e d69f d83d 86c7 39bd
000002a0: ae2b d5bd 1dc2 c83d df06 cbbd f647 1b3c
000002b0: bb4e 063e d8c8 35be 2462 8f3e 66e7 c73d
000002c0: 9c41 35be 7668 c23a 7f95 dfbe 620e 9b3e
000002d0: 5dfe cb3d 0c4e 49be 2d5c 9bbe 30bd 1a3d
000002e0: 6d37 8bbe 2677 41be 0756 a7bd 53ef 8cbd
000002f0: a388 023e 92a9 413e 0f7f fcbd a7e8 12be
00000300: e022 a3bd 1400 9dbe 9f84 e23c f792 ffbd
00000310: 23c3 3f3e 0db3 10be 6617 abbd 0b4e 3e3e
00000320: b4be 893e c967 813d 7f55 103e 9fd7 bcbd
00000330: 8228 28bd 3662 943d 7de8 76be d119 cebd
00000340: d814 20bd 6f94 29be 8544 41bd c5eb e73d
00000350: 5a7a 7fbe abc3 753d 00a6 943d 12b6 153e
00000360: efdd 523e 1f1d 7abc fe2b 343e 954f 963d
00000370: 6a18 a73d 1acf e43d 2283 e5bd 96ae d93d
00000380: f1d9 093e 9978 013e ba89 92bd 7912 40be
00000390: 114b fc3d 2378 34bd f6c1 25be 26b1 adbe
000003a0: 598e 0fbe 2f8f 65be d285 8c3a 7fd8 5abd
000003b0: 6a43 90bd 8808 2a3e 97a3 6d3e 3f77 bbbd
000003c0: 717b 42bd 0d36 8ebe 315f d53c 66b3 d5bd
000003d0: ac63 8b3e 77f4 113e 1b7a 3c3d 129c 83bd
000003e0: 83fa 183e 7536 44be 6d1c c63e 9470 16bd
000003f0: 4767 123e 0145 60be 51de f6bc dcdc 2abe
-0.09464572 -0.36203888 0.025124392 0.266667 -0.1836367 0.033687036 -0.31439555 -0.13699636
-0.18380496 0.11716458 0.16867292 -0.051918697 -0.06780983 0.16383581 -0.07968289 -0.24696614
-0.115753874 -0.14362472 -0.09283334 0.097201124 -0.15058462 0.13882737 -0.477718 -0.019774465
-0.046149403 -0.07444009 0.10738018 -0.17303179 0.23434123 -0.18734363 -0.027519003 -0.055536013
0.20568842 -0.14131811 0.09833904 -0.050837662 -0.28228632 0.20030707 -0.09553162 0.064164005
-0.091908164 -0.14613967 0.008139415 -0.055930242 -0.075103834 0.08130165 -0.3684395 -0.07034181
0.11989417 0.3591945 0.17914288 -0.37508765 -0.06982243 -0.29408896 0.11860473 -0.18830384
-0.096282475 0.22134505 -0.19106345 0.3893494 0.22760068 0.1966997 -0.116025284 0.15200233
-0.057879545 -0.25451007 0.10129458 -0.22860514 0.082754314 0.23099208 -0.09268935 0.16083157
-0.016049437 0.0006741836 -0.34361827 -0.40874705 -0.38105482 0.26036912 -0.47535616 0.18782853
0.081553325 0.008416011 -0.35582152 0.16293436 -0.27533114 0.24278484 -0.052599847 -0.15405156
-0.39879015 -0.29497924 -0.1031727 0.011540018 -0.37388173 0.23924986 -0.064922005 -0.07998516
-0.2632391 -0.28719032 -0.11120352 -0.21972983 0.08219664 -0.4546922 -0.06103723 0.141233
0.18928717 0.012968328 0.30148813 0.22886388 -0.09882216 -0.037160933 -0.095523916 0.2562896
-0.10183535 0.1991874 -0.25765786 -0.20439322 0.008285815 0.25897533 -0.34343284 -0.078589916
0.21122065 0.11933273 0.22619219 0.0464665 -0.16169369 0.23893443 -0.064804964 0.006824145
-0.02872105 0.36078453 -0.19144532 -0.23879829 -0.04482787 0.23498106 -0.12921557 -0.11925359
0.20876914 0.05529746 -0.19748396 0.32769123 -0.035045713 -0.2772619 0.114829354 0.04230713
0.11363933 0.33378515 -0.33239263 0.09704231 -0.1673026 0.052106723 0.29345402 0.1965943
-0.12448138 0.28516448 0.08035648 -0.1695015 -0.13357177 0.116060615 -0.28075582 0.14030391
-0.06477499 0.08923362 -0.29127032 -0.26614267 -0.027681788 0.17832409 0.10577361 -0.045356296
-0.10408722 0.09802649 -0.0991342 0.009477606 0.13115971 -0.17752397 0.28004563 0.097609326
-0.17700809 0.0014832157 -0.43668744 0.3028441 0.09960625 -0.19658679 -0.30343762 0.03777808
-0.27190724 -0.18893108 -0.08170705 -0.06881585 0.12747435 0.18912342 -0.12328922 -0.14346562
-0.07965636 -0.30664122 0.02765113 -0.12479203 0.18726783 -0.14130802 -0.08354072 0.18584459
0.26903307 0.063186236 0.14095114 -0.09220814 -0.041054256 0.07245295 -0.24112125 -0.10063518
-0.03908238 -0.16560529 -0.047184486 0.11324266 -0.24949017 0.060001057 0.072582245 0.14620236
0.20592473 -0.015265732 0.17594907 0.07339398 0.081589535 0.11172314 -0.11206652 0.10629003
0.13462044 0.1264366 -0.071551755 -0.18757047 0.12319005 -0.044059884 -0.16187271 -0.33924216
-0.14019145 -0.22417901 0.0010721034 -0.053429123 -0.07044108 0.16604817 0.23206936 -0.09153604
-0.047481004 -0.27775612 0.026046367 -0.10434608 0.2722448 0.14253412 0.046014886 -0.064262524
0.14939313 -0.19161399 0.38693562 -0.036728457 0.1429721 -0.21901323 -0.030135306 -0.16685814

FC.2.bias f4 [128]
00000000: fdde ddbd b7df 4a3d ad68 debd d40b a4bc
00000010: 253a 3bbc a0e6 c0bd 4bdb b4bb 160c 693d
00000020: 9684 973c 2251 973d da14 77bd 8e76 89bd
00000030: 01fb dbbd 83f5 6ebb 9613 babc fca6 083d
00000040: 73b1 9a3c dc51 f43d 6b7f 86bc 69d4 ae3d
00000050: 3530 bdbb 7d0e d9bd 1bc7 b23c c535 32be
00000060: 758f 00be 338e 8abc 5977 40bc 6bb5 a8bd
00000070: 22fc 86bd 81ba 00be a2e2 cd3c 3a10 4c3c
00000080: dabf bdbd aa3c f2bd 0209 b73b 8516 76bd
00000090: d215 3abd abd5 bd3c 744b 203d 440d 363a
000000a0: 18e7 93bd 274b 36be a81e e5bd fc8b b23d
000000b0: 7473 79bd a89a b7bd 1505 6b3d 45dd 90bd
000000c0: 8191 51bd 7bb6 87bc 9ef7 ebbd d1bd 5ebd
000000d0: 5b7a 5f3b 8d44 89bd c118 4fbd 4fca 4cbe
000000e0: 92e0 d1bd 793b 95bd c42a 0fbd 4e57 30bd
000000f0: 477a 96bd 184c 90bd 16ca e33d 356a ffbd
00000100: 1ce3 d93d e059 4fbd 045d 9abb c879 80bd
00000110: 661f c8bd 4440 963b cab0 563d 71a5 e2bd
00000120: 6c09 f1bd f4db 283e 1861 593d 1221 d1bb
00000130: 3fb2 b8bd d530 e0bb 28b8 b2bc 3dae 533d
00000140: b95e cebc 7fce 18be 1a55 dd3b f8f6 913c
00000150: 698d 34bd 2904 c1bd 80d8 06bd d754 db3b
00000160: 7360 e13d 0fbf 4bbd c9ea 793d fb43 92bd
00000170: ef7d 563d ed29 a63c badc 00bc 9099 0abe
00000180: d5bc aebb 7bee 92ba b289 4ebd 4b0e b9bd
00000190: fd99 7fbd db4d d1bd 6f01 cc3c 24b6 3a3e
000001a0: 56e8 8abd 90d4 b0bd 4941 0fbd 1875 c3bd
000001b0: 3122 1cbe e9e3 d5bd 625f c1bd b373 293d
000001c0: 3741 a3bc 7656 37bb bad8 713d fc63 163d
000001d0: 6803 be3c 9500 e43c 4872 8b3c 067e c43c
000001e0: d960 13be f01a a7bd 75e5 99bb 8715 7c3c
000001f0: f8e4 d0bd 5858 e33c 5c51 b7bd 97d3 7ebd
-0.10833547 0.049529757 -0.10859809 -0.020025171 -0.011427437 -0.09418988 -0.005519306 0.05689629
0.01849584 0.07388522 -0.06032262 -0.06712066 -0.107412346 -0.0036462254 -0.022714417 0.033362374
0.018883443 0.11929676 -0.01641818 0.08536608 -0.005773569 -0.105984665 0.021823457 -0.17403324
-0.12554725 -0.016913509 -0.011747205 -0.08237728 -0.06591059 -0.12571146 0.025132481 0.012455041
-0.092651084 -0.11827977 0.0055857906 -0.06008007 -0.045430966 0.023173174 0.039134458 0.0006944726
-0.07221812 -0.17802106 -0.11187488 0.08718106 -0.06090112 -0.08965045 0.057377893 -0.07073454
-0.051164154 -0.016566506 -0.115218386 -0.05438024 0.003410003 -0.06702528 -0.050560717 -0.1999905
-0.102479115 -0.07286734 -0.034952894 -0.04305201 -0.07347541 -0.07045764 0.11122529 -0.12471429
0.10639021 -0.05062282 -0.0047107954 -0.06273228 -0.09771614 0.004585298 0.052414693 -0.11066712
-0.11769375 0.16490155 0.05307111 -0.006382116 -0.09018373 -0.0068417587 -0.021816328 0.05167984
-0.025191652 -0.14922522 0.0067545297 0.01781796 -0.04408017 -0.094246216 -0.032921314 0.0066934633
0.11004724 -0.049742755 0.061014924 -0.071418725 0.052366193 0.020283664 -0.007865125 -0.13535142
-0.005332569 -0.0011209989 -0.050424285 -0.09035929 -0.062402714 -0.10219928 0.024903027 0.18233544
-0.06782596 -0.08634293 -0.03497437 -0.09543818 -0.15247418 -0.10443861 -0.09442021 0.041370105
-0.019928558 -0.0027975119 0.059044577 0.036716446 0.023194984 0.027832309 0.017022267 0.023985874
-0.14392413 -0.08159435 -0.004696543 0.015385992 -0.10199922 0.027752087 -0.08951065 -0.062213507

FC.4.weight f4 [64, 128]
00000000: f1b8 b4be 6d3f 06be 6024 3d3e aedc d4be
00000010: 6f44 dfbd e957 75bd 7897 9ebd 338f f6bd
00000020: 0913 2b3c c54c a4be 91c2 3d3e 61f1 8d3e
00000030: b8f6 013d fa55 deba 2e5b c9be 0cfb 81bc
00000040: 5365 6d3d 7337 953e cf7d 503e 43d1 2abe
00000050: cf3f d5be 1221 f4bd 4b7f 403e a44c ba3c
00000060: 8f14 f83c d749 c2be 03c3 5f3e 1b76 eebd
00000070: e0dd 2c3e ff6a 26bd ad0f c5be 498f dd3d
00000080: 2767 623d 95dd 97be 1409 603e fa36 3e3c
00000090: 3a62 633e 07b2 6ebe 29fa 5a3d 14f5 e5bd
000000a0: bb45 48bd 580d 933e cb71 76be 5e86 793d
000000b0: 881a 90bd b8c7 38be 3096 bd3e adae 12be
000000c0: 8524 e3be c3ed 713b d022 28bd 72c1 983e
000000d0: 884f ee3d a327 31bd e49b 16bf 0559 9ebc
000000e0: 5772 8b3d 0579 20be 08e6 953d 6d75 a23d
000000f0: a040 d83c 465c 763d 36da 803e b544 d4bd
00000100: 3151 d23c f90b 403e 2c47 953d 2839 d93d
00000110: 0709 aebc ae01 a5bd 4bba 353d 7967 a5bd
00000120: 9868 51bc 367c c93c 3537 d1bd 179d a0be
00000130: f92b 38be 8ddc 92be 84cc cebd b16b f0bc
00000140: 038d a03e 9d6e a5be 1a9b 703d e5a2 efbd
00000150: 2b8f b3bd aa5c 82be 2b55 35be e639 813d
00000160: 62f0 fcbd 5abf 883d 20fa f2bd 9243 53bc
00000170: a221 e3bd 40b8 ccbe 8c4f 373e e550 a43d
00000180: 43ce 09be 5753 72bd 36f4 d93c d5f3 83bc
00000190: 8f5d 0a3d b718 6abd 195c 45be 87bd fc3d
000001a0: 0180 553e 3aa7 3cbe 47bc 0a3e 65d9 583d
000001b0: f329 2f3e d54b c93d 5448 5d3e d2f1 073e
000001c0: 1242 19bc 81c9 8fbe 33c8 8bbe 9e32 423e
000001d0: 25bb 53be 30c5 ff3c 5941 dabe 3633 3ebe
000001e0: f1de 773e 5e8d 19be 2615 b73c 22bc 32be
000001f0: 98de 833d 8827 a6bd a87b 0fbe 03dc ccbe
00000200: 2ddf fd3d e52f 8c3e 4a42 dd3c 065b 883e
00000210: b53b a4bc 691d 223d 5986 aebe 7fc7 97bc
00000220: 8f50 34be c4e4 d5be feb1 963e 4f6d 953e
00000230: 1f98 95bd cac3 fcbe 2fa6 443d beae 3fbd
00000240: a992 01be 99ec d0bc e88a 0cbe e03f e2bd
00000250: 3e22 c63d f405 99be 4bd8 94be eab4 863e
00000260: 5291 92be bd8b b2bc fa4b 5fbe 4847 17bb
00000270: a7aa a0be b4ce 3abe 3ce0 83be 01a9 4d3c
00000280: fb92 93be b666 cdbe ac55 55be fd1b 14be
00000290: d1cd e4bd 8b16 cbbc d12e 49be 9041 eabc
000002a0: a5a0 e73c d4da 1d3d d199 4abe d6be 76be
000002b0: fe69 183e 3d9d ebbe 243e 2b3e 5dda 0a3e
000002c0: e026 58be 62dc 69be 5598 52bc 14f9 31be
000002d0: c075 5abe fd2f 073e f48e 80be fc23 803e
000002e0: e1a3 403e 9083 debd 48fc abbd 4e7d 09bf
000002f0: a855 a53d 21b3 a53e f230 b4bd 869f ecbb
00000300: 37ed 33bf 1b87 88be 8744 a0bd 6b21 2d3d
00000310: 2fb8 64be ae0c 033a 585c dc3d 23e5 cabd
00000320: 5425 90be fb98 b3bd f4fd 0c3d 2aed 123e
00000330: fc85 843e cee7 473e 9ea1 89be a9d4 96be
00000340: f89c 153e 745e 5bbb a8c0 0fbe fd8b 27be
00000350: 7239 aabe c286 21bf 3071 17bd 4506 8dbe
00000360: 5c96 0cbe 5f24 1ebf 48b1 cebd f08b 8d3e
00000370: 78ed aebd d97e afbe 0d0b 4c3e 6dcb 1d3e
00000380: 684b 8abc ab06 cebc 5772 85be b00f 213e
00000390: fa7e 91bc d2e7 7bbe b8b3 793e 4157 183e
000003a0: 0596 41be 00f1 c7be ecb4 863d 2701 303e
000003b0: baaf c2be 3d41 4b3e 9d25 d8be d75e 90bc
000003c0: b7fb dfbd 7e19 8b3e e6b7 b3bd 1adf 4c3d
000003d0: 1c35 61be 41f0 293e 6dc9 aa3d b851 e53d
000003e0: c0e4 bcbd 6e66 cd3d c150 80bb 9761 09bd
000003f0: 1253 453e d806 783e cd48 67be c652 87bd
-0.3529735 -0.13110133 0.18470907 -0.41574615 -0.109017245 -0.05989829 -0.07743734 -0.12039032
0.01044155 -0.3208982 0.18531252 0.2772322 0.03172943 -0.0016962879 -0.39327377 -0.015866779
0.05795796 0.29143867 0.20360492 -0.1668139 -0.41650245 -0.1192037 0.18798558 0.022741623
0.03028324 -0.3794696 0.21851735 -0.116436206 0.16881514 -0.040629383 -0.38488522 0.10818345
0.055274155 -0.2966124 0.21878463 0.011609787 0.22205439 -0.233101 0.053461228 -0.112283856
-0.048894625 0.28721118 -0.24066846 0.06091916 -0.070363104 -0.18044937 0.37028646 -0.14324446
-0.443638 0.0036915399 -0.041048825 0.29835087 0.11636263 -0.04325069 -0.5883162 -0.019329557
0.06808918 -0.15671165 0.073192656 0.079325534 0.026398003 0.060146593 0.25166482 -0.10364667
0.02567348 0.18754567 0.072889656 0.10606605 -0.021244539 -0.08056961 0.044367116 -0.080763765
-0.012781285 0.024595361 -0.10215608 -0.3136985 -0.17985524 -0.28683892 -0.10097602 -0.029348226
0.31357583 -0.32310954 0.058741666 -0.117009915 -0.087675415 -0.25461322 -0.1770827 0.063098714
-0.12350537 0.066771224 -0.11864114 -0.012894528 -0.11090399 -0.39984322 0.17901438 0.08023242
-0.13457589 -0.05916151 0.026605707 -0.01610748 0.03378063 -0.057152476 -0.19273414 0.12340837
0.20849611 -0.18423167 0.13548385 0.0529417 0.17105846 0.09828917 0.21609622 0.13275841
-0.009354131 -0.28083423 -0.27301177 0.18964621 -0.20676859 0.031221956 -0.4262798 -0.18574223
0.24206139 -0.14995334 0.022348952 -0.1745458 0.06438941 -0.08113009 -0.14012015 -0.40011606
0.12396083 0.2738029 0.027009148 0.26631945 -0.020048002 0.03957883 -0.34086874 -0.018527744
-0.17608856 -0.41776097 0.29432672 0.29184958 -0.073044054 -0.49368125 0.048010048 -0.046797507
-0.12653603 -0.025503444 -0.13724864 -0.110473394 0.096745 -0.29887354 -0.29071268 0.263099
-0.28626496 -0.021795148 -0.21806327 -0.0023083258 -0.31380197 -0.18242913 -0.25757015 0.012552501
-0.28823075 -0.40117425 -0.20833462 -0.14463802 -0.11172069 -0.024791023 -0.19646765 -0.028595716
0.028274843 0.03853877 -0.19785239 -0.24096236 0.14884183 -0.460184 0.16722924 0.13559861
-0.2110858 -0.22837976 -0.012853702 -0.17380172 -0.2133398 0.132019 -0.25109065 0.25027454
0.18812515 -0.10864937 -0.08397728 -0.53706825 0.08072978 0.32363227 -0.08798398 -0.007221165
-0.70283836 -0.26665577 -0.078255706 0.042268198 -0.22335885 0.0004999143 0.10759801 -0.099069856
-0.2815348 -0.08769413 0.034421876 0.14348283 0.25883472 0.1952202 -0.26881117 -0.29459122
0.1461066 -0.0033473046 -0.14038336 -0.16361995 -0.33246952 -0.6309625 -0.03697318 -0.27543846
-0.13729233 -0.6177425 -0.100924075 0.27645826 -0.08541387 -0.34276465 0.1992609 0.15409632
-0.01688166 -0.025149664 -0.26063797 0.1572864 -0.017760742 -0.24600151 0.24384964 0.14877035
-0.18904884 -0.39051056 0.06577477 0.1718794 -0.38024694 0.19849105 -0.42216197 -0.017623348
-0.10936683 0.27167886 -0.0877531 0.050017454 -0.21992916 0.16595556 0.083392 0.11197227
-0.09223318 0.100293025 -0.0039158766 -0.033540335 0.1926997 0.2422136 -0.22586365 -0.06607585

FC.4.bias f4 [64]
00000000: 8269 afbd 9460 18bc a252 abbd 78be a83d
00000010: f1e2 fb3c 7225 b33d f6fc 913b 3de0 3a3e
00000020: 2699 e23d eb63 a3bc 9f24 0a3e b745 aebc
00000030: eb4e 453d 9ffa 1bbd 9abe 55bd 53d0 adbd
00000040: 1ed3 ab3d 7cb7 923d 3b92 c0bd 2409 d23d
00000050: 8605 6b3d a510 8a3d 0ab0 7abd 1cbe 263e
00000060: 3302 d93d 90a6 95bd 14f2 e23c 03fb bdbd
00000070: 0130 ef3d c4a2 8c3c f47b 03bd 2cd1 94bd
00000080: 2d3a 08be f657 1b3e 8c79 433c f201 073e
00000090: 664a 7cbc e960 18be 36a5 93bb e61e 76bd
000000a0: ed05 a3bd 97dd e83d 56e3 24bd 0e3e 8d3e
000000b0: c03d e0bd df45 2d3e aebc 2ebe 3cb0 c0bd
000000c0: e060 b03d 59aa a7bc 04c8 56bd bdbc 38bd
000000d0: bfbb 853b 8565 5a3d d00b 223e 6991 113c
000000e0: 4deb 033e d8e4 b43d 7068 253d 2d88 88bb
000000f0: 0c4f b4bd d741 25be 6d99 38bd c667 eebc
-0.08565046 -0.00930037 -0.0836537 0.08239454 0.030747863 0.087473765 0.004455204 0.18249603
0.11064367 -0.019945106 0.13490532 -0.021273477 0.048170965 -0.038080808 -0.052183725 -0.08487
0.08389877 0.07163903 -0.09402891 0.1025565 0.057378314 0.06741456 -0.06120304 0.16283458
0.105961226 -0.0730716 0.027703322 -0.09276392 0.11679078 0.017167456 -0.032100633 -0.07266459
-0.13303442 0.15170273 0.0119308345 0.13184336 -0.015398597 -0.14880718 -0.0045057787 -0.06008806
-0.07960115 0.1137039 -0.040255867 0.27586406 -0.10949278 0.16921185 -0.17064163 -0.09408614
0.086122274 -0.02046697 -0.052436844 -0.04510187 0.004081219 0.053319473 0.15824819 0.008884766
0.12882729 0.08832711 0.040382802 -0.004166624 -0.088041395 -0.16138397 -0.045068193 -0.029102217

FC.6.weight f4 [10, 64]
00000000: eb45 e7bd 2295 b7be 5e2d 01bd 4c16 b0b8
00000010: e3bd 6c3e f915 61be 933c 2d3e 7a11 823e
00000020: e25c d9bd 6fc0 803e f0db 85bd 55ba 93be
00000030: 5e85 7e3e d11b c0bd 1ee2 333e a6df f13d
00000040: 630c edbd b8e0 673e 8ff5 96be 7eb0 043e
00000050: 835b 1c3d ca6f 243e f913 073e d320 0f3d
00000060: f4dc 843e 6008 403e 4516 393e ac87 83be
00000070: d2fe c23d 16e5 eb3d 292b 913e ae33 2a3d
00000080: 9958 8d3e 55ce aabd 8d47 f6be 11f6 a43d
00000090: 9ed7 f8bd d52d 0dbe 0f04 99bc b741 b13c
000000a0: 1da1 e9bd adab 133e 7936 6b3e e3ff 073e
000000b0: f172 61be 920f b53d 43a7 5f3e 74cd a4bd
000000c0: 5af0 103d 6a92 cc3d 7739 aabe d0dc 5bbc
000000d0: 333e e63d a946 2f3e a035 f63c 2c67 363e
000000e0: c150 d73d dc23 c7be fae5 eebd e24e 703e
000000f0: 6dd7 91bd b47a 46bd 4f94 80be ab38 bfbc
00000100: 162c 70be 011e b8be 998f 6f3e cdcc aa3d
00000110: 7749 193e cc80 4e3e 6590 23be ce36 913e
00000120: 7af5 823d 45e2 75be 81c2 5abd 02af 7fbe
00000130: a004 4e3e 20bf 283e acd0 6cbe cd61 a4bd
00000140: f102 1abe 4380 883d 6bb9 f33d 5f26 753c
00000150: 8d2e cebe 187f 593e d40a e1bd a134 073e
00000160: 1477 413e ba9e d8bd 1bae 183e 2f95 993d
00000170: b71c b2be fd53 aabe d0aa 893e a9c4 a63d
00000180: ecb0 803e 7fd7 843e b427 393e c218 9a3d
00000190: 157f 74bd f809 c9bc 5dd1 e2bd 91b6 cf3c
000001a0: f1fe ef3d 3a91 0f3e 4b74 1b3d 0068 acbd
000001b0: 68aa a2be b2ca 93be cf14 2dbe 3e61 d33d
000001c0: d79c b03e 032a 623e 3e92 5e3e 4485 3d3e
000001d0: 8eac a23e a1a7 9b3e 5a3f fabe 43bc 273e
000001e0: 726a 9e3e 2de0 ca3c 45a8 a4be a574 453d
000001f0: 2a96 223e ce8d 9e3e dbfd 613e 3f12 d93c
00000200: 7290 973e a132 ffbd 5498 f6bd eec9 0e3e
00000210: 130c 37bd f462 2abe 130e 0e39 020d d2bb
00000220: 4717 0ebe ed43 513e ec51 953c b06f 8ebd
00000230: 067e b83c 5017 723e c261 70be 6a83 f73d
00000240: fb52 a73d 54b5 c4bd ff50 bfbd 5a38 603e
00000250: a5d5 0ebf 03d4 89bc 8657 28bc dfce 8e3d
00000260: ca7f 473e 9154 f9bd 703d c23d ca0f 14bd
00000270: 5531 4cbe a926 e93d b267 44be 7bf6 89bd
00000280: 2017 68be 4be2 253e 8eb3 8b3e be63 8c3e
00000290: d013 cc3d 0523 b8bb 0e22 7ebe a744 fdbe
000002a0: 9a2b eabe 90da 0c3e f74f e53d 33c3 7c3e
000002b0: 303e b2bc ba6d 513e c18f 59be 5e34 9b3e
000002c0: 6a74 fabc 13fc 39be 05db 1e3e ee41 a93e
000002d0: 9faa 0b3e 37ec 7b3e 180c 513e 39bb c7bd
000002e0: 59aa 053e 6388 6d3d 6ed4 adbe 749f 213e
000002f0: 7d35 153d 35ac f5bd c756 c6bd 1027 79be
00000300: f3b8 fabd d1ec 84bd b814 73be 1209 453e
00000310: 0408 003e 3fa5 0abc 02c3 ac3d e1fb f83d
00000320: 0d0f aabe e326 963e a7d5 8b3e 9054 8bbe
00000330: d9c1 953e 26cd 813e 9ea1 91be 6c7f e1be
00000340: 9ef0 453e ada0 1e3e 6bae a93e c7a1 dd3d
00000350: 664e f73d 6da9 b93e 062f a73e 4fe0 a4bd
00000360: 0ca5 2d3e 585d 453d ca8e 613d f5e8 2cbe
00000370: 082e a63d 2745 1c3e c2ec 743d b452 21bd
00000380: 619a 9c3a 14f3 613e abbd 283e f416 52bc
00000390: 5b3e f33b 7af3 74be d472 863e d3e9 b0bd
000003a0: b7fd 51be cdcb 0fbd 0502 91be 8891 2ebc
000003b0: feae db3c b1a5 e9bd 0f6b edbd 6168 7abe
000003c0: e620 093e cd81 fcbc c971 6a3e 79a5 f4be
000003d0: b78e e83d 9d7f 213e c8fa 233d 564d 64be
000003e0: 8e1e 5f3e 5625 683e 9619 843d aed1 c13d
000003f0: 5395 e3bd be09 3f3e ca78 bd3d 7ef1 6bbd
-0.11292633 -0.35855967 -0.031537406 -8.396487e-05 0.23119311 -0.21981038 0.16917638 0.2540396
-0.10613419 0.25146815 -0.065360904 -0.28853098 0.24855563 -0.093803056 0.17566726 0.11810236
-0.11574628 0.22644317 -0.2948422 0.12957951 0.03817321 0.16058269 0.13191213 0.034943413
0.25949824 0.18753195 0.18074901 -0.25689447 0.09521259 0.11518304 0.2835324 0.04155319
0.27606657 -0.08340136 -0.48101464 0.08054746 -0.12150501 -0.13787015 -0.018678693 0.02163778
-0.11407683 0.14420958 0.22969998 0.13281207 -0.22016503 0.088408604 0.21841149 -0.080469996
0.035385467 0.09988864 -0.33246967 -0.013419345 0.11242332 0.17116798 0.030054867 0.17812794
0.105134495 -0.38894546 -0.11664958 0.23467591 -0.07121167 -0.048456863 -0.2511315 -0.023342451
-0.23454317 -0.3596039 0.23394622 0.08339844 0.14969431 0.2016632 -0.15973051 0.28362125
0.06394477 -0.24012096 -0.05340815 -0.24969104 0.20118952 0.16479158 -0.23126477 -0.080264665
-0.15040185 0.06665089 0.119006 0.014962762 -0.4026989 0.21239889 -0.109883934 0.1320367
0.18893081 -0.1057715 0.14910166 0.07499158 -0.34787533 -0.33267203 0.26888132 0.08142979
0.2513498 0.2594566 0.18081552 0.075242534 -0.059691507 -0.024540886 -0.11075089 0.02535561
0.11718548 0.14020243 0.037952702 -0.08418274 -0.31770635 -0.28865582 -0.16902469 0.10321282
0.3449466 0.22086339 0.21735474 0.18507868 0.31772274 0.30401328 -0.48876458 0.1638041
0.30940586 0.024765098 -0.3215963 0.048206944 0.15877596 0.30967563 0.22069494 0.026497958
0.2960239 -0.124608286 -0.12040773 0.13944218 -0.04468925 -0.1663931 0.00013547418 -0.006410242
-0.13876067 0.20436068 0.01822754 -0.069548965 0.02252103 0.23641706 -0.23474792 0.12085612
0.08170124 -0.09604898 -0.09341621 0.21896496 -0.55794746 -0.016824728 -0.010274773 0.06973051
0.19482341 -0.12174333 0.094843745 -0.03614787 -0.19940694 0.11384327 -0.19180182 -0.067364655
-0.22665071 0.16199605 0.27285427 0.27419847 0.099647164 -0.005619409 -0.24817678 -0.4946644
-0.4573639 0.1375525 0.11196893 0.24683838 -0.021758169 0.20452014 -0.21246244 0.3031339
-0.030573089 -0.18162565 0.15513237 0.33058113 0.13639306 0.24601828 0.2041477 -0.09752507
0.13053264 0.057991397 -0.33951133 0.15783483 0.036427964 -0.119957365 -0.0968452 -0.24331307
-0.122423075 -0.06490482 -0.23738372 0.19241741 0.12503058 -0.008462249 0.08435632 0.12157417
-0.33214608 0.29326543 0.2731144 -0.27212954 0.29249457 0.25351828 -0.28443617 -0.44042528
0.1933007 0.1549098 0.33140883 0.10821872 0.120755 0.36262074 0.32653064 -0.08050596
0.16957492 0.048184723 0.055067815 -0.16885741 0.081142485 0.15260755 0.059796102 -0.039385512
0.0011947864 0.22065383 0.16478603 -0.012822855 0.007423205 -0.23921004 0.26259482 -0.086383484
-0.20506941 -0.03510647 -0.28321853 -0.010654815 0.026816841 -0.11408556 -0.115926854 -0.2445388
0.13391456 -0.030823613 0.22894968 -0.47782496 0.11355346 0.15771337 0.040034086 -0.22295126
0.21789 0.22670493 0.06450193 0.09463821 -0.11112466 0.1865606 0.09251554 -0.05760335

FC.6.bias f4 [10]
00000000: 1cf2 0a3e 8978 0b3d 1e17 683d ffd1 b6ba
00000010: 5fe9 90bb 5db6 6a3d 4037 a13d 6ade bcbc
00000020: 707f 393d f6ce b43d
0.1356892 0.0340505 0.05666267 -0.0013948082 -0.0044223513 0.05730282 0.07871866 -0.023055274
0.04528755 0.08828537
