Ai Elevator/best_of_last200.pth (torch, 47293 bytes, 8 tensors)

fc1.weight f4 [64, 30]
000000 6c 30 28 3c 3f c2 9f 3d e8 83 9f 3e 66 c0 07 3e
       0.010265451 0.078007214 0.31155324 0.13256988
000010 9f 37 7e be 65 db 37 3d 37 d9 02 3e 1e 86 26 3f
       -0.24825905 0.044886965 0.12778173 0.65048397
000020 90 eb 8a 3e d5 fd da 3e 77 f2 73 be 8b e4 84 3c
       0.27132845 0.42771783 -0.23822962 0.016222259
000030 20 9d 49 3e 6a b3 44 3e 05 39 b3 3d 13 bd d8 bd
       0.19688845 0.19209066 0.0875111 -0.10582938
000040 a3 c4 52 bf 61 a6 ee be 44 a4 d8 3e fc ed fe bd
       -0.82331294 -0.46611312 0.42312825 -0.12447736
000050 3d a9 bf 3e 9f ef bf 3d a3 d6 33 be e9 e3 f0 3e
       0.37433806 0.09371876 -0.17562346 0.47048882
000060 b1 ad b9 3e 4f ac 55 be 88 42 03 3e 33 d9 8c be
       0.3626533 -0.20866512 0.12818348 -0.2750946
000070 c3 7c 89 3e 1f 0d 58 be 45 52 f1 3c f2 5b 0a be
       0.26852998 -0.21098755 0.029458174 -0.13511637
000080 3b ed b2 be b5 a4 b8 be 64 38 8d be 66 f6 4a 3d
       -0.34946617 -0.36063161 -0.27582085 0.04955139
000090 20 79 0b bf 50 70 d0 3e e1 93 1f 3f 65 6c 18 3f
       -0.544817 0.40710688 0.6233502 0.59540397
0000a0 94 0f d5 bc 23 e9 7f bd b6 08 cd bd 50 9c 4d be
       -0.026008405 -0.062478196 -0.10011427 -0.2007916
0000b0 a4 b3 d3 bd 33 d3 c9 bc 74 eb 19 3c d7 71 a3 3e
       -0.10336998 -0.02463684 0.009394515 0.3192279
0000c0 e2 4a cb be 97 7d dc bd 31 3c 27 bf d1 9c d1 bd
       -0.3970557 -0.10766142 -0.6532622 -0.102349885
0000d0 f8 73 37 be eb 70 ab be 26 9d fb 3d cb 16 bc be
       -0.17915332 -0.33484587 0.12285833 -0.3673614
0000e0 90 f9 dd bd 12 1d 5e be 0b d4 b2 3e 8b 2f bb 3d
       -0.10838616 -0.21690777 0.349274 0.091399275
0000f0 e2 f1 a2 3e 65 c3 f0 3d 63 51 7a be 3f ab 3c be
       0.31825167 0.117560185 -0.24445109 -0.184247
000100 04 06 0b be 55 01 f1 bd bc ad 0d be 6d a5 29 3f
       -0.13576514 -0.11767832 -0.13835806 0.66268045
000110 17 a2 e7 bd 20 2f 2a 3f 60 7e 25 3f ee af 5e be
       -0.11310213 0.6647816 0.6464596 -0.217468
000120 a7 e4 14 3d 26 ab 4c 3e d6 5f e5 3b fa 6b e0 bd
       0.036350872 0.19987163 0.00699995 -0.10958095
000130 6a a9 15 bf 37 15 0b bf 6d b5 92 3e bb 0b c9 3e
       -0.5846163 -0.54329246 0.28654042 0.39266762
000140 85 a6 fd 3e ca ae c6 be c4 80 2d be dc b7 4b bc
       0.49541107 -0.38805228 -0.16943651 -0.012433972
000150 d4 d2 27 bf 39 7f fb be f2 c3 86 3d 10 24 e8 be
       -0.65556073 -0.491205 0.06580342 -0.45340014
000160 fa 58 3d 3f 41 a4 c1 3d 3b 57 76 3e f5 78 b1 3e
       0.7396389 0.09455157 0.24056713 0.34662595
000170 0e 2f bd 3e 59 03 c6 3e 57 d0 dc 3e a1 74 d1 3e
       0.36949962 0.3867443 0.431277 0.40909293
000180 f6 70 d9 3e 07 e3 9a 3e d8 79 bf 3e f5 33 ac 3e
       0.42468995 0.30251333 0.37397647 0.3363339
000190 87 c5 db be b0 bb 4f bc de 46 ca bd aa a8 36 be
       -0.4292414 -0.0126790255 -0.09876798 -0.17837778
0001a0 4a c1 ea be 66 9a 0c bf d3 f6 49 bf b7 3d 4f bf
       -0.45850593 -0.54923093 -0.7889225 -0.80953544
0001b0 40 39 3e bf 97 e9 28 bf fa 6a 1c be e1 2c 33 3e
       -0.74306107 -0.6598143 -0.15275183 0.17497589
0001c0 a6 12 0c 3e 6a 09 7f 3c 03 f6 1a bf 12 06 13 bf
       0.13678989 0.015566209 -0.60531634 -0.5743114
0001d0 24 49 0d bf de 41 e0 be 61 3e 0c bf 14 0a 39 bf
       -0.5518973 -0.43800253 -0.5478268 -0.72281003
0001e0 18 a6 1a be 65 3e 9c 3d 89 bf a8 3c 8a 92 99 3c
       -0.15102422 0.07629088 0.020599144 0.018746633
0001f0 c2 1f 60 3d 16 68 7f 3e 4a c3 88 3e bf d4 0c 3f
       0.054717787 0.2494205 0.26711494 0.55012125
000200 41 2a 0a 3e 23 3f 05 3f 7c b0 0b be de 63 03 be
       0.13492681 0.52049464 -0.13641542 -0.12831065
000210 c4 ba 8d 3d 64 bf 03 be 02 ca c0 3e 12 0c b6 3e
       0.06920388 -0.12865978 0.3765412 0.35556084
000220 66 0b 97 3e a6 dd a6 3d c6 0a 15 bd 87 d5 62 bd
       0.29500884 0.08147745 -0.036387227 -0.055379417
000230 f7 a9 ec bd 8d da 1f be 5e ea 04 be a6 97 6e be
       -0.11555856 -0.15610714 -0.12980029 -0.23300037
000240 87 7e 7b 3d 95 5c 25 be ed b5 13 be 04 f5 85 ba
       0.061399963 -0.16148598 -0.14424868 -0.0010220115
000250 1c f1 09 3e 4a 5f af be 06 65 23 3f 35 f5 dd 3e
       0.13470882 -0.34252387 0.63826025 0.4335114
000260 34 2d 96 3e 6b a5 a5 3e 03 50 a6 3d 0b f4 6a bd
       0.29331362 0.32352766 0.0812073 -0.057361644
000270 11 ed 56 3e 2c 08 1c be 88 9b 68 3d 05 45 55 bf
       0.20988871 -0.15237492 0.05678895 -0.8330844
000280 27 4d 37 be 4b c6 b1 bd 9a db d5 bd c2 48 40 bd
       -0.17900525 -0.086803995 -0.10442276 -0.046944387
000290 22 16 8f bd 9f 0d a5 bd f3 c7 8a 3d f3 03 b8 3e
       -0.069866434 -0.08059239 0.067764185 0.35940513
0002a0 4c 56 dd bd 33 b8 0a be 36 32 6b 3e ff 60 11 bf
       -0.108074754 -0.13546829 0.22968373 -0.5678863
0002b0 75 db ca be 02 28 cc bd f1 ea a9 3e f7 2f 05 bd
       -0.39620557 -0.099685684 0.3318706 -0.032516446
0002c0 cc 67 b1 be 4e f0 a3 be 2e e2 de be 3f 0b 68 3e
       -0.34649503 -0.32019275 -0.43531936 0.2266054
0002d0 2b 9d 3b bd 72 bd 88 3e a8 07 dc bd 88 38 92 3e
       -0.045804184 0.26707035 -0.10743648 0.28558755
0002e0 0f 3b 67 be 74 02 b2 bd a3 37 87 bd 18 1d 62 3e
       -0.22581123 -0.08691874 -0.06602409 0.22081411
0002f0 d2 65 a8 3e c2 8d 92 3e e7 c4 e8 3e af 02 52 be
       0.32890183 0.28623778 0.45462725 -0.20508836
000300 c8 58 a5 3d ef 06 21 be 2b 63 34 be 95 51 50 3e
       0.08073574 -0.15725301 -0.17615955 0.20343621
000310 e7 62 16 3e 19 98 67 3e e6 a6 60 3d 36 e3 13 3e
       0.14686166 0.22616614 0.054846667 0.14442143
000320 6c 43 d0 3e e6 ac 05 be 13 69 85 3d de af 2c bf
       0.4067644 -0.13054237 0.06514182 -0.6745585
000330 e3 42 75 3d e9 32 c7 be f7 85 09 3e 30 2f 7c 3e
       0.05987824 -0.3890603 0.1343001 0.24627376
000340 30 1f a6 bd 7d 90 9e bd f1 69 97 3c 9d 2d 43 bc
       -0.08111417 -0.07742403 0.018483134 -0.0119127305
000350 c7 43 2e bd a0 c6 5f 3e d4 1e ae 3d c1 ba 10 3e
       -0.042545106 0.21853113 0.08501974 0.14133741
000360 54 dd 7f 3e 43 c0 19 3e 6b 06 08 3d da 61 77 3d
       0.24986774 0.15014748 0.033209246 0.060396053
000370 26 d2 55 be 19 56 81 bd 8d c4 fa 3d 6d 97 3f bc
       -0.20880947 -0.0631525 0.1224452 -0.011693818
000380 2a d2 02 3f 79 ee f7 3e eb f8 81 be de 38 f2 bd
       0.51101935 0.48424128 -0.25385222 -0.11827253
000390 24 55 df be e0 65 c5 be b6 0f 1e bf a1 df ed bd
       -0.43619645 -0.38554287 -0.61742723 -0.116149195
0003a0 55 55 74 3e 5b c7 9f 3e 34 7f f6 3b 30 4a 68 3e
       0.23860677 0.31206784 0.007522488 0.2268455
0003b0 d0 35 51 bf 0c 4c c0 3b 44 be 87 bf d2 cf 42 bf
       -0.81722736 0.0058684405 -1.060494 -0.7609836
0003c0 c5 f2 01 3e 8f 2a 50 3d 52 81 e2 bd be 28 94 3e
       0.12690265 0.050821837 -0.11059822 0.28937334
0003d0 68 3a 25 bc fc 0a bb 3d 25 ca 21 3e d7 db 86 3d
       -0.010084726 0.091329545 0.15799768 0.065849
0003e0 a2 72 b4 3d d8 1c c2 3d 56 82 dc bc 66 61 16 3e
       0.08810927 0.09478158 -0.026917618 0.14685592
0003f0 60 12 d9 3e 58 53 cf be 1e 91 f0 3d 4a 17 4a 3e
       0.42396832 -0.40493274 0.11746429 0.19735447

fc1.bias f4 [64]
000000 70 4b 86 3e 8d a2 a4 3d 7f 47 a8 3e 73 49 89 3e
       0.2622943 0.080388166 0.32867047 0.2681385
000010 62 29 9c 3e 9c 98 f9 3d 6f ed 6e 3e 5a a0 ff 3d
       0.30500323 0.12187311 0.23332761 0.124817565
000020 c7 35 e7 3e bc 5c 55 3e 20 52 d6 3d 32 d2 6d 3e
       0.45158216 0.20836157 0.10464883 0.23224714
000030 6d fc 3e 3e aa 69 a1 3e 8c 1c 83 3e ae cb 8a 3e
       0.1865098 0.31525928 0.25607717 0.2710852
000040 34 c7 9f 3e 21 a0 ad 3e 87 fb 85 3e c4 bb 9c 3e
       0.31206667 0.3391123 0.26168463 0.30612004
000050 38 99 92 3e 6c 42 d3 3e 47 f8 5d 3e 09 72 6f 3e
       0.28632522 0.41261613 0.21676742 0.23383345
000060 6d 90 94 3e fc 6e dc 3d 3c a4 b3 3e cd 78 b9 3e
       0.29016438 0.10763356 0.35086238 0.36224976
000070 d2 bb 7e 3e a9 d1 79 3e 28 94 8e 3e eb dd 56 3e
       0.24876335 0.24396385 0.2784741 0.20983092
000080 86 6f b7 3e 71 7e 69 3e 9d 08 32 3e f8 37 27 3e
       0.35827273 0.2280214 0.17386098 0.16329944
000090 92 6c a2 3e 03 49 8e 3e f6 d9 9c 3d 11 bc 81 3e
       0.31723458 0.2779008 0.0765876 0.25338796
0000a0 81 0d 96 3e 06 69 f4 3e 90 bd 0a 3d c4 ce a3 3e
       0.29307178 0.47736377 0.033872187 0.31993687
0000b0 ec bd cb 3e a5 41 56 be c9 36 94 3e 0d ad 1c be
       0.39793336 -0.20923479 0.28948048 -0.15300389
0000c0 d2 00 86 3e ab 3c 36 3e e4 4a b5 3e d5 fb 89 3d
       0.261725 0.1779658 0.354087 0.06737486
0000d0 e1 e7 a9 bd 92 c6 56 3e 23 3c 81 bd 97 d7 9c 3e
       -0.082961805 0.20974186 -0.06310298 0.30633232
0000e0 ff c7 cc 3d 83 b6 28 3e c2 77 af 3d da 66 b7 bd
       0.09999084 0.16475873 0.08567764 -0.08955164
0000f0 b0 ea b2 3d c4 8b a5 3d 58 51 7d 3e d0 fc 5f 3e
       0.08736169 0.08083299 0.24738061 0.21873784

fc2.weight f4 [64, 64]
000000 3c e4 28 3e a2 7d 98 3e c9 cf 00 3e 8b 73 70 bf
       0.16493315 0.2978335 0.12579264 -0.93926305
000010 7c b6 61 3e f3 78 9b 3e c0 fd 41 3e 79 f4 38 bf
       0.22042269 0.30365714 0.18944454 -0.72248036
000020 7e 13 06 3f 1f 4e 61 3e 2f 00 75 be a6 d9 ca 3d
       0.5237349 0.22002457 -0.23925851 0.099047944
000030 29 dd c6 3d 89 1a 47 be 0c 52 7c 3e da 9e 81 3e
       0.09710152 -0.19443716 0.24640673 0.25316507
000040 29 5d 98 3e e4 ca b0 3d ac a4 14 3f 0b b6 69 be
       0.29758576 0.08632448 0.5806377 -0.2282335
000050 7e f7 b9 3e 72 bb 67 3e ae 50 87 3e 76 49 4a bd
       0.36321634 0.22630098 0.2642874 -0.049386464
000060 cf 51 a3 3e 48 df 39 3f 4d b1 e6 3d f7 c6 ca bc
       0.31898353 0.72606325 0.11264286 -0.024753077
000070 b0 52 62 be 0c b7 1b be 71 8f 7d 3d 04 91 41 be
       -0.22101855 -0.15206546 0.061904375 -0.18902975
000080 28 d9 84 3e 41 82 6c 3e 11 ca ce bd 1a 01 50 be
       0.25946927 0.23096563 -0.10097135 -0.2031292
000090 54 16 33 3e 21 48 08 3e 2d cf c0 3e 5a 54 42 be
       0.17488986 0.13308765 0.37658063 -0.1897749
0000a0 5c 2f 76 bc db a7 0a 3f 77 2e 06 3d 63 20 a3 3d
       -0.01502594 0.5416238 0.032759156 0.07965162
0000b0 f7 84 4a 3e 62 69 f3 bd 75 0d 53 be 8d 4f 05 bf
       0.19777285 -0.118853346 -0.20610602 -0.5207451
0000c0 51 45 63 3e de 29 99 be 8e 4b 85 ba 0d ab 2d 3f
       0.22194411 -0.29914755 -0.0010169612 0.6783913
0000d0 d8 7a 70 3e e6 8f 69 bc 82 01 d9 be 83 0b f9 be
       0.23484361 -0.0142554995 -0.42383963 -0.48641595
0000e0 4a 06 0f 3d 5b 89 ea bd cf ee 94 3e d5 b7 53 be
       0.034918107 -0.1145198 0.29088446 -0.20675595
0000f0 12 a8 93 3e 38 3e 14 3e 66 97 98 be 8a e8 b7 3e
       0.28839165 0.1447686 -0.29803008 0.359196
000100 a7 e0 ec 3d 5f 07 e9 be 54 f4 8c bd 17 6d 12 3f
       0.115662865 -0.45513436 -0.068825394 0.5719771
000110 04 90 2d be a3 89 29 3e 21 12 8f be c2 9e 12 bf
       -0.16949469 0.1655641 -0.2794352 -0.57273495
000120 b5 05 ba 3e 25 5e 0c bb 67 48 40 3e f0 bd e8 b8
       0.3633248 -0.002141842 0.1877762 -0.00011098001
000130 bc 1e 98 3e 81 41 1e 3f 89 db 23 3e ef 3d 17 3f
       0.29710948 0.618187 0.16001715 0.5907888
000140 95 1d 40 3c e1 0c a6 3d 15 2a cc 3c 4b 01 95 3e
       0.011725803 0.08107925 0.02492241 0.2910255
000150 69 5f d6 3e ee b0 be 3b 7d a9 ab 3e fd 2b f0 be
       0.41869667 0.0058194315 0.33527747 -0.4690856
000160 a1 07 39 3e ad f6 14 3f b7 55 a5 be 34 18 21 3f
       0.18069316 0.581889 -0.32291958 0.62927556
000170 10 06 6f 3d bb f0 a0 3e 9a dd 0b bf b1 e9 8c 3d
       0.05835539 0.31433663 -0.5463501 0.068805106
000180 1a 76 ce 3e 0f 35 b3 3d 41 78 a6 3d fe 38 87 3e
       0.4032448 0.087503545 0.08128405 0.2641067
000190 72 19 1e bd cc 41 04 3f 15 c3 42 be d2 69 ac 3d
       -0.038598485 0.516629 -0.1901973 0.08418621
0001a0 5a 3b 4c 3e ed 52 b6 bd 72 b7 f9 3e e9 6e 06 3f
       0.19944516 -0.089025356 0.4877277 0.52512985
0001b0 8b de 06 be 34 dd 13 bf a9 e0 86 3d e4 67 be be
       -0.13170831 -0.57759404 0.06585819 -0.37188637
0001c0 6c 0c 99 3e 1b 76 44 3d dd 15 74 3c bc 97 12 bf
       0.2989229 0.047964197 0.014897791 -0.5726278
0001d0 08 1e 6f bd 94 56 0d 3e 8f 65 fc 3d 64 dc 5a 3d
       -0.05837825 0.13802558 0.12324058 0.053432837
0001e0 96 73 04 bd be 9d 01 bf 49 38 e7 3e e6 9a cc be
       -0.032336794 -0.5063132 0.4516013 -0.39961928
0001f0 2d 7f 28 3e 0e 16 23 be 20 76 50 bf 01 26 ad 3d
       0.16454764 -0.15926382 -0.81430244 0.08454514
000200 78 b1 46 be 83 f8 16 3f e9 de 3a 3e 26 7d a1 3f
       -0.19403636 0.5897295 0.18249096 1.2616317
000210 aa e1 65 be 80 14 c7 3e 8c 76 d6 bd f4 21 2e be
       -0.22449365 0.38882828 -0.1047183 -0.1700514
000220 dc 9d bc 3e 6c 14 82 3e 32 45 31 3f 95 dd 47 3e
       0.36839187 0.25406206 0.6924621 0.1951812
000230 1f c0 1f bc b7 9b 5b 3e 4f 77 38 be 4a ef 15 3f
       -0.009750395 0.21446119 -0.18014263 0.5856825
000240 bb a8 55 3e 90 f9 4a 3e ae 18 6d 3e 32 27 25 3f
       0.20865147 0.19821763 0.23153946 0.6451293
000250 18 10 fd 3d 0a 15 9a be b2 80 b3 3d 09 be 03 3d
       0.12356585 -0.30094177 0.08764781 0.032163654
000260 90 67 d7 3e ec 13 0d be fd 42 43 be 0a 50 d6 3e
       0.420712 -0.13777131 -0.19068523 0.4185794
000270 8f d6 6b 3e 42 0d 0b 3e 06 91 0d bf 60 99 de 3e
       0.23031066 0.13579276 -0.55299413 0.4347639
000280 b6 08 1a 3e 34 df 20 3f a2 14 04 3f d2 84 34 3c
       0.15042385 0.6284058 0.51593983 0.011017995
000290 1f 27 c7 bc 63 5c c5 3e c1 bb 06 be 6c 41 bd 3d
       -0.024310647 0.38547048 -0.1315756 0.09240994
0002a0 fc 8b f3 bd 6d 97 0e be eb ae 4f 3e db a4 e6 3e
       -0.11891934 -0.13924952 0.2028157 0.4504765
0002b0 b9 f7 24 3d 37 86 32 bf 2c fc 10 3e 20 4e e6 bd
       0.04027531 -0.69736046 0.14158696 -0.1124537
0002c0 ba 4e 4b 3e 1c e9 f4 3e ce 3e 8e 3e 45 e1 51 bf
       0.1985425 0.47834098 0.2778229 -0.8198436
0002d0 6a 81 39 3e 0a 25 fe 3e b1 ee a3 3e d3 fd c4 be
       0.18115774 0.49637634 0.32018045 -0.38474903
0002e0 03 ed 44 3e b6 94 ed be 62 0c a1 bd 00 04 ad be
       0.19231038 -0.4640252 -0.0786369 -0.33792114
0002f0 bb 36 a8 be 6e 36 59 3e 79 2a 41 bd 17 96 db 3d
       -0.32854256 0.2121217 -0.047159646 0.10721987
000300 e3 86 90 3d c6 d7 b2 3d 94 c6 8b bd fa 95 2b bd
       0.070569776 0.08732562 -0.06824985 -0.041891076
000310 bf 45 3d bd 59 63 04 be b5 42 db bd 12 4d a2 bc
       -0.046209093 -0.12928523 -0.10706083 -0.01981214
000320 6a df 15 be 95 b9 32 ba db fe 63 3c 69 73 9f bd
       -0.14636007 -0.0006817815 0.013915743 -0.077856846
000330 34 df 79 bd 93 e3 64 3d 52 06 94 bd 80 d1 e8 bc
       -0.06100388 0.055881094 -0.07227768 -0.02842021
000340 f5 1a 9e 3d 80 78 9c bd cd 0f 31 3d cd 05 19 be
       0.077199854 -0.07640171 0.04322796 -0.14943619
000350 e0 7a c8 3c 34 48 27 3c f5 d6 5e 3b d1 ac 45 bd
       0.024472654 0.010210086 0.0034002636 -0.048260514
000360 c2 43 9a bd 41 e6 45 3c 00 38 d4 bc ca dd 28 be
       -0.07532455 0.012078823 -0.02590561 -0.16490856
000370 c0 5e 94 3b 65 29 3c bc 69 b6 33 bd 13 8a 7c 3d
       0.0045278966 -0.011484479 -0.04387513 0.061655115
000380 4a c7 e3 bd 2e 08 5a 3d 2d ec fa bd 2e 8c d4 3d
       -0.11121996 0.053230457 -0.12252078 0.103783
000390 fc 9b 98 39 77 d7 03 be 58 f2 b5 bc bd 84 df 3c
       0.00029107917 -0.12875162 -0.022210285 0.027284974
0003a0 dd ab 4e bd 56 f3 08 bd 7c 0f 1e bd e0 eb f8 bd
       -0.05045687 -0.03343519 -0.038588986 -0.121543646
0003b0 29 48 0e be 2c 8f 3a bd f9 6b fe bd ed 10 97 bd
       -0.13894714 -0.045546696 -0.12422938 -0.07376275
0003c0 25 42 a4 bd 1e 51 98 3d 80 45 ca bd ea a8 bf 3d
       -0.080204286 0.07437347 -0.09876537 0.0935839
0003d0 ef 28 9f bd c2 66 6b bd 88 b5 7a 3d 8a a1 f4 bc
       -0.07771479 -0.057471044 0.061208278 -0.029862184
0003e0 11 62 08 be 6d 44 8b bd 82 8c c1 bc 0e ae 80 3d
       -0.1331866 -0.068001606 -0.02362657 0.06283198
0003f0 40 33 7b bb 9e 46 9c 3d 44 98 ea 3c 04 16 39 bd
       -0.0038330108 0.07630657 0.028637059 -0.04518701

fc2.bias f4 [64]
000000 d2 d1 8d 3e 2f 60 46 bd ad e2 8c bd 4f 01 a9 bd
       0.27699143 -0.04843157 -0.068791725 -0.08252203
000010 b3 19 e5 3c 98 61 02 bd 45 78 9a 3e 44 31 d7 3e
       0.027966356 -0.031831354 0.30169883 0.42029774
000020 e4 e3 83 bc f0 73 52 3d 18 8a ae bd 07 93 c9 bd
       -0.016099878 0.051380098 -0.08522433 -0.09842496
000030 bf 30 1d be 27 7f 00 bd 68 99 35 be cb fc 60 3e
       -0.15350626 -0.031371262 -0.17734301 0.21971433
000040 2d c2 71 3e 61 ba 1d 3e ba 82 9e bd fd 75 d3 3e
       0.23609228 0.15403129 -0.07739778 0.41300955
000050 42 ee 36 be b0 8d 9e 3d f3 38 8d 3d 35 e3 13 be
       -0.17864326 0.077418685 0.06895628 -0.14442141
000060 c4 81 2f 3e 2c 5a 10 3c 15 28 bd 3e 97 e5 1b be
       0.17139345 0.008810561 0.36944643 -0.152243
000070 f9 8e 04 3e a9 c1 b3 3c f0 0c b4 bc 77 6e cf 3d
       0.12945165 0.02194293 -0.021978825 0.10128491
000080 bc 02 8b bd af fa 02 be f2 7f 01 3e 80 b0 9a bd
       -0.06787631 -0.1279094 0.12646464 -0.07553196
000090 82 b2 12 be 31 4e 33 3e ff fb 29 bd a7 14 14 3c
       -0.14325908 0.17510296 -0.041500088 0.009038127
0000a0 1e 7d a0 3e 90 aa 07 3d 54 43 20 bd 48 f9 8b 3e
       0.31345457 0.033121645 -0.03912671 0.27338624
0000b0 3f b2 21 3e 24 4e 11 be de 79 e5 bb d0 a8 1c 3e
       0.15790652 -0.14189965 -0.007003053 0.15298772
0000c0 5a 77 a8 3d 01 11 06 be 60 6c 62 3d a7 49 e5 3d
       0.082258895 -0.13092424 0.055279136 0.11195689
0000d0 c7 08 1e 3e fe b8 14 be 3f df 5f bd f8 0b b3 3e
       0.15433036 -0.14523694 -0.054656263 0.3497007
0000e0 49 22 c4 3d b8 e7 2a 3d f1 f9 59 3e c2 c9 73 3d
       0.09576852 0.04172489 0.21286751 0.059518583
0000f0 79 78 d8 3d 83 07 03 3e 4b 8c 4b 3e b6 60 58 3e
       0.10569853 0.12795834 0.19877736 0.21130642

fc3.weight f4 [64, 64]
000000 1f 0c 7f bc 1e 46 38 3e 50 bb e3 3e 66 36 df bd
       -0.015566855 0.17995498 0.44478846 -0.108990476
000010 66 7f ae bd a9 56 6c bf aa 87 08 bf b1 35 95 be
       -0.08520393 -0.9231973 -0.53332007 -0.29142526
000020 20 55 64 bd 70 4b 01 3c dc e3 84 bd 9e ba d5 3e
       -0.055745244 0.007891521 -0.06488773 0.4174394
000030 27 90 96 bd 31 20 36 3e f0 c5 c1 3e 62 cc 7e 3f
       -0.07351714 0.17785718 0.37846327 0.99530613
000040 e7 dc f4 3e e1 ed 0e 3e 77 f7 91 3e 35 ab 26 bf
       0.47824785 0.13957931 0.28509113 -0.6510499
000050 57 f5 da 3e 41 54 31 be ae a6 4f 3e db ef 0b bd
       0.42765304 -0.17317297 0.20278427 -0.03416429
000060 30 24 9c bb db 72 50 bd 53 a4 26 3e 3b 3d f4 bc
       -0.004765056 -0.050890785 0.16273622 -0.029814353
000070 88 9a 7d 3e 25 23 9b 3e 9a 5f 8e 3e cb 4c 22 3e
       0.2476598 0.3030025 0.27807313 0.15849607
000080 91 11 9b 3d f9 d3 6d bd 50 ff c9 3d 4c e7 50 bd
       0.0757171 -0.05806348 0.0986315 -0.051001832
000090 43 46 72 bd 8e ad cb 3e 67 f6 9f 3e 3c 8e 2c 3e
       -0.059149038 0.3978085 0.31242678 0.16851133
0000a0 bb ee d6 bd 4f f9 de 3c 82 12 81 bd ff c1 17 3e
       -0.10494753 0.027218489 -0.06302358 0.14820097
0000b0 a8 41 c7 bc f7 73 8c 3d 4d 0e 6e 3e a8 1a eb bb
       -0.0243233 0.06858056 0.23247643 -0.0071748085
0000c0 ad 00 8e 3e 85 85 85 bd a7 e7 0b bd 7d 3a b7 3e
       0.2773489 -0.065196075 -0.034156468 0.3578681
0000d0 bc 0a 1c be 9f 10 d6 bc 1a ab b5 3e 98 c9 08 be
       -0.1523847 -0.026130972 0.35482103 -0.13358152
0000e0 e0 1f 1d 3f 47 dc d7 be a1 e8 2f 3d e3 29 a0 3e
       0.6137676 -0.42160246 0.04294646 0.31281957
0000f0 f8 94 f5 3e f7 62 d2 be 91 e4 1d be 9b 96 8c 3e
       0.47965217 -0.4109113 -0.15419222 0.27458653
000100 1b 4f 7e 3d d2 1a f4 39 32 24 ae bd 94 e6 e0 bd
       0.06208716 0.0004655929 -0.085029975 -0.10981479
000110 25 53 04 be 28 a8 bf 3d 58 c7 c1 bc c9 cc a6 3d
       -0.12922342 0.09358245 -0.023654625 0.081445284
000120 90 5f 93 3d 98 ca 5b 3d 20 f7 00 3d d4 52 c7 3d
       0.071959615 0.053660005 0.031485677 0.09732595
000130 00 79 db ba 3b 51 97 3d 1e 13 23 bb bc a2 b2 3d
       -0.0016744435 0.0738854 -0.002488322 0.08722445
000140 4e 10 3a bb 21 4d db bc ed b8 09 be 60 49 02 bd
       -0.0028391066 -0.026770176 -0.1344945 -0.031808257
000150 0a 28 8d bd 66 a3 bb 3d 3d e8 c1 bb 98 0c 97 3c
       -0.068924025 0.09162025 -0.0059175775 0.018438622
000160 e4 4b f0 3c 4e 1e 90 bd 6d cb d6 bb 78 b7 bd bc
       0.029333062 -0.0703703 -0.006555012 -0.023158774
000170 bd 53 ce 3d cb ce 1c bd 2a 6d ef bc ed 29 cf bc
       0.100745656 -0.03828315 -0.029226858 -0.025288546
000180 a6 65 a9 bd b0 7a e8 bc 6e 38 f7 bd 70 cb 44 bc
       -0.08271341 -0.028378814 -0.1207131 -0.012011394
000190 e0 ed 25 3c 31 a4 af bd 88 de af 3a 1e d7 60 3d
       0.010127515 -0.08576239 0.001341776 0.05489265
0001a0 89 95 8f 3d fb 36 10 be 6e 3d 90 bb ec e0 80 3c
       0.070109434 -0.14083473 -0.0044018542 0.015732251
0001b0 ee ed 9b bd f8 a6 b9 bc 62 ee 6f bc 49 6e b3 bd
       -0.07613741 -0.022662625 -0.014644237 -0.087612696
0001c0 47 ca 3c bd e0 46 bf bb 3d 5d da 3c a2 93 98 bd
       -0.046091344 -0.0058373064 0.026655788 -0.07450034
0001d0 21 1f 71 bd fc e5 66 bd f8 a2 05 bd 9c a4 29 bd
       -0.058867577 -0.056371674 -0.032626122 -0.04141675
0001e0 16 1f 99 bd 8a 5e 94 bd 8d ef bc bc f5 49 40 3d
       -0.07476632 -0.072445944 -0.023063445 0.04694553
0001f0 70 29 62 bd b1 5e 26 3b 06 dd b9 bd 94 65 5b bd
       -0.0552153 0.002538603 -0.0907536 -0.05356367
000200 05 94 3f 3e 76 39 87 3e 56 7a 5f 3e 86 1a 60 3d
       0.18708809 0.26411027 0.21824011 0.054712795
000210 39 04 a0 3e d4 a2 1a bf f2 b1 a0 3b cb 94 00 3f
       0.31253222 -0.60404706 0.0049040252 0.5022704
000220 65 e8 a8 3c e6 4a a4 3d 14 49 c2 3d 86 9c 5c 3e
       0.020618627 0.08022098 0.09486595 0.21544084
000230 b1 4c 9b 3d b6 1d 93 3e 63 a3 e8 3d 4c 5e 9f bf
       0.07582987 0.28733605 0.113592885 -1.2450652
000240 ad 03 ff 3d 44 72 76 be 21 4d 88 3e f9 3a d0 bd
       0.12451873 -0.24067026 0.26621345 -0.10167498
000250 33 c8 76 be 09 3a 79 3d 34 b5 fa bd c8 08 16 bd
       -0.24099807 0.060846362 -0.12241593 -0.03662947
000260 43 ce 5d 3e e1 d7 cb bd 2d 84 0a 3e e5 4e 77 bb
       0.21660714 -0.09953285 0.13526984 -0.0037736234
000270 ff 1f 6a 3e 3c d1 e5 3e 88 30 16 3f bf ed 2d 3e
       0.22863768 0.44886196 0.586678 0.16985224
000280 e3 24 c2 bd 92 c5 e4 3c 9c 85 4a 3e 47 25 b0 bd
       -0.09479692 0.02792624 0.1977753 -0.0860086
000290 42 8f c9 bd 56 40 00 3e 91 32 08 3e 82 d4 44 3e
       -0.098417774 0.12524542 0.1330054 0.1922169
0002a0 5c ab 98 3e 86 58 11 3f 51 c2 1a 3f 10 85 b6 3d
       0.29818237 0.567757 0.60452753 0.089120984
0002b0 e0 dc a9 3d 45 d9 04 bd fa 4b f1 3e 68 a3 25 3e
       0.08294082 -0.032433767 0.47128278 0.16175616
0002c0 fa d1 9c 3e a2 cf e8 bb 14 47 e5 3e 7f a3 cd be
       0.3062895 -0.00710483 0.4478079 -0.401638
0002d0 75 3f 60 be f6 7a 35 bd 43 b5 b4 3e d2 45 df 3d
       -0.21899207 -0.044306718 0.35294542 0.10901989
0002e0 a5 27 16 3f f3 91 5e 3e 65 d2 f0 3d de 38 a9 3e
       0.5865424 0.21735363 0.117588796 0.330512
0002f0 7b fe 13 bd cd f4 cd 3e f3 f5 e9 3c 27 16 e1 3e
       -0.036131363 0.4022583 0.02855966 0.43962213
000300 9a e9 16 bd 1f 4d 2b be f4 74 18 be e4 9a d5 3d
       -0.036843874 -0.16728638 -0.14888364 0.10429934
000310 27 9b 91 3d 96 00 e3 3d c4 3a d5 bd 82 75 32 3a
       0.07109671 0.11084096 -0.10411599 0.0006807671
000320 00 63 1a bb 8c 29 cc 3d 16 83 fd bd bb 0d 2e bd
       -0.0023557544 0.09968862 -0.12378518 -0.042493563
000330 56 43 f2 3d 58 1e 8f 3d c1 aa e5 bd a0 30 3b 3c
       0.118292496 0.069882095 -0.11214209 0.011425167
000340 1d f3 1f bd ba bd a3 3c 9c 3b 07 be e7 a4 cb 3b
       -0.03905021 0.01998793 -0.13206333 0.0062147263
000350 24 5b 6c 3d 28 8a 95 3d 26 67 aa bd e0 6b 82 3b
       0.057704106 0.07301742 -0.08320455 0.003980145
000360 f6 27 c6 bd fa 98 da bd 80 70 02 be c4 1f 51 3d
       -0.09675591 -0.10673709 -0.12738228 0.051055685
000370 89 4e 5e bd 85 4a f2 bc 8c 59 e2 bd dc 2f df bd
       -0.054274116 -0.02957655 -0.11052236 -0.108978
000380 48 39 8d 3d f4 5b 18 bd 42 f6 8a bd da 09 f4 bd
       0.06895691 -0.03719707 -0.06785251 -0.119159415
000390 00 4e 60 ba ec e5 f7 3c d9 7a 34 bd 4e 45 e4 bc
       -0.0008556545 0.030261002 -0.04406247 -0.027865078
0003a0 ab 7c e9 bd aa 61 50 3d b4 6b 92 bd e6 3f 8a 3d
       -0.11400732 0.05087439 -0.07149449 0.06750469
0003b0 5b 44 4d bd d4 00 d8 bd 29 14 fb bc ef 23 53 3d
       -0.050114017 -0.10547033 -0.030649262 0.05154794
0003c0 54 70 88 bd 0c 49 3a bd a5 7e 28 be 60 08 8a 3c
       -0.0666205 -0.04547982 -0.16454561 0.016849697
0003d0 c5 15 98 3d 48 6b ba 3d 57 73 b1 bd 1d 3c 0c be
       0.07426027 0.091024935 -0.086645775 -0.13694806
0003e0 12 d3 50 bd 27 a6 ab 3d 73 bb ab bd ea 7a ea bc
       -0.050982542 0.083813004 -0.083853625 -0.028623063
0003f0 bf 1c ba bd 5e d5 f8 3c 1f 73 c1 bc d3 a0 0f 3d
       -0.09087514 0.030375179 -0.023614464 0.035065483

fc3.bias f4 [64]
000000 56 5e 4b 3c 95 ac c7 bd 90 91 65 3d c7 eb 0f be
       0.012412628 -0.09749714 0.056047022 -0.14054786
000010 64 8d b3 3b 5d d6 15 bd cb e9 4f 3e d0 88 2c 3e
       0.0054795016 -0.036581386 0.20304029 0.16849065
000020 1c 47 09 be 47 2e 77 3c 5f b6 a0 bd c9 d1 db ba
       -0.13406032 0.015086717 -0.078472845 -0.0016770895
000030 12 ce 41 be b1 01 34 3e 4b 42 c9 3d 0e 85 a3 3d
       -0.18926266 0.1757877 0.098270975 0.079843625
000040 82 34 cf bb 7c b2 c8 bd 8b 84 0d be f4 54 53 3b
       -0.006323398 -0.09799668 -0.13820092 0.003224668
000050 b1 8e 4d 3d db 0b 06 3f c9 5f 9a bc 8e ca d2 3e
       0.05018491 0.5236184 -0.018844502 0.41170162
000060 5a 6d 80 3d bb 90 92 bd f3 3e ab 3d 4e 53 1e be
       0.06270857 -0.071565114 0.08361616 -0.15461466
000070 a4 b7 dc 3a 69 f6 7b 3d cf 69 bb 3c 65 4d 34 3e
       0.0016839397 0.061514292 0.022877602 0.17607649
000080 be da be bc ca 70 19 3e 19 f3 16 be 04 1d 21 3d
       -0.023297664 0.14984432 -0.14741172 0.039334312
000090 60 06 69 3e 25 42 71 3e 15 9e f8 3e 86 83 08 3e
       0.22756338 0.23560388 0.48558107 0.13331422
0000a0 31 73 c6 bd 10 82 f4 bc 35 d8 44 3d 2a b3 f4 be
       -0.0968994 -0.029847175 0.048057754 -0.4779294
0000b0 97 c7 27 bd b0 ac bd 3d 26 99 33 3f 0c 57 60 3e
       -0.040961828 0.09261453 0.7015556 0.21908206
0000c0 a0 07 2d bd db f9 2d 3d 16 00 81 3d 09 d6 1a 3d
       -0.0422436 0.04247461 0.062988445 0.037801776
0000d0 62 59 1f 3e c3 a0 b4 3d 48 80 03 bd 72 f8 df bd
       0.1556144 0.08819725 -0.03210476 -0.10936059
0000e0 ca 59 85 3c b3 06 eb 3d 72 57 75 bd 12 64 b6 bd
       0.016278166 0.11475887 -0.059897847 -0.08905806
0000f0 01 50 44 3d a8 6c b5 bd 5b d8 a4 3e 88 a3 f2 3e
       0.04792786 -0.08858615 0.32196316 0.4739039

fc4.weight f4 [10, 64]
000000 48 05 db bc 28 5e b6 bc 20 81 96 be da c9 ac bc
       -0.026735917 -0.022261694 -0.2939539 -0.021092344
000010 27 43 67 bd 94 26 fb bc 99 78 ed be 7b dc 63 be
       -0.056460526 -0.030658044 -0.4638107 -0.22252075
000020 7c 73 0c bd f5 fa a2 be bc dc 8b 3c 9a 83 53 be
       -0.034289822 -0.3183209 0.017073028 -0.20655671
000030 08 91 c3 3d 47 35 20 bf 26 21 14 3d d7 c5 63 3e
       0.09549147 -0.62581295 0.036164425 0.22243439
000040 3b b4 30 3c 5e 58 84 3d b0 29 98 3e 54 f5 0a bf
       0.010785158 0.06462167 0.29719305 -0.5428059
000050 93 dd 5d 3e 2b 92 66 3f 62 19 9e 3d 0f 65 d5 be
       0.21666555 0.90066785 0.07719685 -0.41678664
000060 0a 64 df be ed 58 ce be de 84 83 3e 74 6b a8 bc
       -0.4363101 -0.4030222 0.25687307 -0.02055905
000070 3e f1 24 3e 41 55 48 bc c1 5a 0b 3d dc 22 0c bf
       0.16107652 -0.012227357 0.034022097 -0.5474069
000080 81 a5 cb 3d 09 00 54 be 1b a6 a1 3d e7 5b ba 3c
       0.09943677 -0.20703138 0.0789301 0.0227489
000090 06 61 ef be 80 fa c8 be c8 d0 d3 be 80 15 72 3e
       -0.4675371 -0.39253616 -0.41370225 0.23641014
0000a0 97 1a c3 3d 02 84 be 3d a7 ca 6b be a8 86 19 3c
       0.09526556 0.09302522 -0.23026524 0.009370483
0000b0 5a aa 8e bc b4 d2 86 be 30 79 ce 3e 94 fe 23 3b
       -0.017415214 -0.2633263 0.40326834 0.0025023567
0000c0 c2 ca ff bd 03 ae a9 3d 4c c3 ce be 1e ca 1c 3d
       -0.12489845 0.08285143 -0.40383375 0.03827869
0000d0 7f 21 e2 bf bc e4 85 3d 9e de da 3d 08 68 c2 3c
       -1.7666472 0.06537768 0.10686992 0.023731247
0000e0 7d 36 df 3a 1f 8b d5 bc ad f4 81 3e 4b 20 ab bd
       0.0017029789 -0.026067315 0.25381985 -0.08355769
0000f0 71 34 05 be 00 39 8c bd 43 30 b8 be 67 68 4d be
       -0.13008286 -0.068468094 -0.3597432 -0.20059358
000100 27 1d 01 bc e0 d9 9b bb ae 4d 7c bd 0d ec 6f 3c
       -0.007880486 -0.0047561973 -0.06159752 0.014643681
000110 ce 19 8e 3e 44 48 90 bd 3f 70 63 be cb e0 a3 be
       0.27754062 -0.070450336 -0.22210787 -0.3200744
000120 1a 33 19 3d a0 ac f2 bc 31 ad a6 bb 9b d7 1b 3e
       0.03740225 -0.02962333 -0.005086564 0.15218966
000130 bf 47 01 3f e6 a5 ce bc 24 ac 0b be df 1c 16 bd
       0.505001 -0.02522559 -0.13639885 -0.036648627
000140 72 63 e9 3d 1d 66 ad bc ef 82 98 3d a0 16 c1 3c
       0.11395921 -0.021166855 0.074468486 0.023570359
000150 5f eb 31 3e 04 10 9f bf e0 df f9 bc 07 d0 f8 be
       0.17374943 -1.2426763 -0.03050226 -0.48596212
000160 2b 0b 44 bc d0 9d 83 be fa 31 53 bf 54 ad cf 3d
       -0.011965553 -0.2570634 -0.82498133 0.101404816
000170 60 55 e1 3b fd 9e 8a 3d b5 bb 05 3e 76 70 52 bd
       0.0068766326 0.06768606 0.13059886 -0.051376782
000180 37 34 0b be 72 67 8c be d5 0c e6 3d 5f 48 90 be
       -0.13594137 -0.27422673 0.11232916 -0.28180215
000190 5a 22 93 be 84 5a e9 be 9d fb 0e bf da 01 cd 3e
       -0.28737146 -0.4557687 -0.5585268 0.40040475
0001a0 c3 da a6 3d 58 72 85 be 47 45 86 bd 75 2f 29 3f
       0.08147194 -0.260638 -0.06556182 0.6608804
0001b0 9c a8 08 3e 2c 68 89 be b7 1a f4 3e 5b e6 1d be
       0.1334557 -0.2683729 0.47676632 -0.15419905
0001c0 14 85 19 3d 38 d7 94 3d ff 35 7a be ee eb 16 3c
       0.03748043 0.07267612 -0.2443466 0.009211523
0001d0 11 b1 c4 3d 9f 38 ce bd 20 4c 72 3d a0 9d 17 bd
       0.09604085 -0.10069393 0.05915463 -0.037015557
0001e0 ea 0f 20 bd 03 8a a5 be c2 25 e7 bd d1 0e a0 3c
       -0.039077677 -0.32331857 -0.112864986 0.019538315
0001f0 e8 61 b6 3d 64 a9 94 bd c4 fc c2 be 08 74 68 be
       0.08905393 -0.07258871 -0.3808347 -0.22700512
000200 f2 7e 52 3e 44 2c e3 bd c1 44 e2 3d 7e 7a 0f be
       0.20556238 -0.110924274 0.1104827 -0.14011571
000210 37 b9 98 3d 62 e0 0e be e7 7e 69 bc 01 66 4d 3d
       0.07457202 -0.13952783 -0.014251447 0.050146107
000220 aa 84 a4 bd 2b b5 26 bf a4 30 01 be d4 82 c5 3d
       -0.08033116 -0.6512019 -0.12616211 0.09644094
000230 b2 46 62 3e d0 88 31 be de 21 80 3d 12 72 8e 3e
       0.2209728 -0.17337346 0.0625646 0.27821404
000240 ad cc 7c 3d b3 21 aa 3c 4f 22 97 bd 90 0f 63 3e
       0.06171863 0.020768022 -0.07379591 0.22173905
000250 a7 11 27 be 37 86 bc be 3e 9d 40 be 14 66 5b 3b
       -0.16315328 -0.36821148 -0.18809983 0.0033477591
000260 a9 11 01 bf 31 eb 13 be 76 d6 1b bf 98 90 46 3d
       -0.5041757 -0.14445187 -0.60874116 0.04847774
000270 f9 5e 35 3e 2b 77 4c 3d a2 2b c7 3d 90 63 2d be
       0.1771201 0.049918335 0.09725119 -0.16932511
000280 bf 71 c4 3c dd e0 cb be 32 35 62 bd 3a 42 0e 3d
       0.02398002 -0.39819995 -0.055226512 0.034731127
000290 ec c2 dc bd 4b e1 2f bf fd f1 2b bd fc 7f dd be
       -0.10779366 -0.68703145 -0.041978825 -0.43261707
0002a0 c2 f2 bf bd 15 40 79 3e b8 db f0 bd 95 f2 88 bf
       -0.09372474 0.24340852 -0.11760658 -1.069903
0002b0 1e bc 82 3e ea 32 e5 be b1 8b b7 3b 6e b4 df 3d
       0.25534147 -0.44765407 0.0056013693 0.10923086
0002c0 8a f7 bf 3d 7a 62 9a 3d d1 6b 90 be 9d fa 90 be
       0.09373386 0.07538314 -0.28207257 -0.28316203
0002d0 0f 58 fc 3e d0 b9 dd bc 22 e9 80 bd ca f7 fb 3d
       0.49285933 -0.027066141 -0.062944666 0.123031214
0002e0 bb 1c bd be c7 bb b5 3c 8a 56 0c 3d 08 ed 22 bd
       -0.36935982 0.022184266 0.034262218 -0.039776832
0002f0 1f 29 5e 3d 94 9d a9 3d 1b 49 1c 3d fa 80 47 3e
       0.054238435 0.08282009 0.038155656 0.19482794
000300 6b 7d ee 3d 74 19 6b bd ea fd aa 3c 7b af e6 3c
       0.11645015 -0.05739732 0.020873029 0.028159847
000310 68 c1 02 3f 33 2b 43 3d db 94 35 be 92 3d f4 3c
       0.51076365 0.04764862 -0.17732565 0.029814515
000320 cc 1a c3 bd c5 8b 04 bf e2 3b cd bd f8 97 7c 3d
       -0.095265955 -0.5177577 -0.10021187 0.061668366
000330 1e 1d 0b 3e e1 27 40 be 10 af 90 3d 50 54 8b be
       0.13585326 -0.18765213 0.070646405 -0.27212763
000340 aa 25 bf bc 25 8b 89 3d 63 4e 7d bd 4d 2d 85 be
       -0.02333339 0.06715993 -0.061842334 -0.26011124
000350 6a 3a 2d 3d 5e d7 99 be a5 2a 87 3e 48 c7 08 3e
       0.042292036 -0.30047125 0.26399723 0.1335727
000360 31 f9 2d be 7b 38 b9 3d db 3c 1b 3f 5c ec ed 3d
       -0.1698959 0.09043976 0.60639733 0.116173476
000370 0e 32 58 be e8 c5 2f bc 7d c6 97 3d bf d7 a2 be
       -0.21112844 -0.010728337 0.074109055 -0.31805226
000380 47 3d e8 b8 87 4c 6c be 5f 02 16 3d 73 42 3a be
       -0.00011074036 -0.23076068 0.036623355 -0.18189411
000390 85 da 7f be ba 55 07 3e 45 57 3b be 41 1b 87 bf
       -0.24985702 0.13216296 -0.1829501 -1.0555192
0003a0 f7 86 b3 3d 32 56 77 be 33 74 6b 3d 66 08 55 3f
       0.08765977 -0.24153975 0.057483863 0.8321594
0003b0 4f 51 45 3c 35 1a 52 bf c1 46 55 be bc 3b ef 3d
       0.012043311 -0.8207124 -0.20827772 0.11681315
0003c0 98 84 81 bd fd 66 bf 3d ad 65 b0 bd df e8 cf be
       -0.063241184 0.09345815 -0.08613143 -0.40607354
0003d0 72 dc f3 be d2 9d d5 bd f4 11 24 3d 10 63 4a bd
       -0.47629124 -0.104304925 0.040056184 -0.04941088
0003e0 58 35 62 be b7 2c 15 3d d6 ec c2 bd 48 ab 95 3d
       -0.22090662 0.036419597 -0.09517829 0.0730806
0003f0 8a 66 be bd 10 dc 92 bd f7 85 15 3d 39 02 29 bd
       -0.092969015 -0.0717088 0.036504712 -0.041261885

fc4.bias f4 [10]
000000 c5 81 8b be d6 38 2b be 40 68 86 3e 00 05 8b 3d
       -0.27247444 -0.167209 0.2625141 0.06788063
000010 c2 52 63 3e 16 e4 8a 3b cb 7a d5 3d b5 49 8d bc
       0.22199538 0.0042386157 0.104238115 -0.01724706
000020 8c cb 44 bd 6b 80 bb be
       -0.04804568 -0.36621413
