Ai Elevator/elevator_dqn.pth (torch, 47251 bytes, 8 tensors)

fc1.weight f4 [64, 30]
-0.2831576 -0.25636843 0.023643618 0.096995376 -0.6425634 0.34714404 0.06999183 0.73557997
0.5414626 0.6632876 -0.33150128 0.20043835 0.47954154 0.2237688 0.21756049 0.10969018
-0.5191026 -1.369698 0.84594274 -0.107492566 0.17189229 -0.3021829 -0.30734006 0.13295443
0.64416337 0.89571106 2.0504143 -0.5188516 -0.2809818 -0.5998793 -0.61646605 -0.5198635
-0.66938454 -1.4171456 -0.5218994 -0.032505367 0.25552645 0.447877 0.5655887 0.78244877
-0.03991612 0.114679925 0.0045204354 0.11103512 0.31656095 -0.015396736 0.040621273 0.40049237
-1.363867 -0.2888606 -0.47375882 -0.05485428 0.12726493 -0.071659416 -0.19150957 -0.34437355
0.2894427 -0.1432648 0.78970486 0.42354783 0.3983555 0.8404499 -0.95219034 -0.2111695
0.26770335 -0.4459023 -0.2856282 0.33717048 -0.010153485 0.5551755 0.6106134 0.13843442
-0.53662956 -0.55097985 0.24182738 -0.22519833 0.18882746 -0.7620544 0.52918476 -0.048634335
0.081979185 0.23636664 -0.101614736 -0.09884475 -0.8816513 -1.4208419 -0.36449254 -2.1721992
0.41820952 0.24709357 0.21298927 0.3798074 0.18431959 0.70135397 0.55363715 0.48287806
0.6204644 0.518828 0.28708106 0.59136254 -0.5574667 0.22224241 0.25377667 -0.37207162
-0.22299975 -1.4234093 -1.3593683 -1.0568271 -1.4336123 -0.9546275 -0.039080363 -0.053570256
0.119273745 -0.161358 -0.52371854 -1.2580667 -0.89501613 -0.8274227 -0.5220945 -0.58749646
0.06700762 0.015525923 0.0019034033 0.3826554 0.05732449 0.58709913 0.33967075 0.60184026
0.733758 -0.20301452 -0.7513628 -0.38557947 -0.4107588 -0.2652976 0.4753229 0.1422208
0.64756966 -0.48764315 -0.52452385 -0.4874399 -0.41837397 0.19439209 -0.03455047 -0.38145468
-1.1829175 -0.6464279 -1.913124 -0.22075363 0.12557216 -0.27063292 0.97806776 0.96916187
0.669941 0.082751006 0.052555673 -0.69808173 -0.6249085 -1.1160529 -0.5784584 -1.368152
0.61758614 0.33896548 -0.51535475 -0.14015044 -0.045109127 -0.13667358 0.15249473 -0.030624101
-0.16879448 -0.17012165 0.089232974 -0.18081532 -0.511249 -0.49287438 0.42298505 0.08453765
-2.5853238 -0.7615529 -1.3182709 0.7460406 0.3652492 0.5974248 -0.7052348 -0.24485266
-0.7664114 -0.7390618 0.11615171 0.28325236 0.77986705 0.8919045 -0.77384245 -0.9761094
-0.33536947 0.07430967 -0.44131044 0.37828577 0.501242 -0.5107216 -0.71154594 0.2963882
0.50432295 -1.3364546 1.1994585 -0.12929745 0.78056794 -0.51098216 -0.37110695 -0.017031878
0.5857638 -0.6875574 0.22068875 0.13207105 0.2022999 0.26334858 0.27443814 -0.19616626
0.2369985 -0.16979241 -0.6385505 -0.19535403 0.3942215 0.25293458 0.45783207 0.33520207
0.4265801 0.43036318 -0.2574719 0.046813715 -0.35010558 -0.38452426 -0.0406723 -0.5271727
0.18895255 -0.045844655 0.04197675 0.5370731 -0.31648967 0.20280063 -0.6077673 -0.7238831
0.4776887 0.29211038 0.05871457 -0.12176242 0.2945567 -0.117875226 0.024785353 0.4218965
-0.27349 -0.09656365 -0.31125632 0.10774999 0.18436001 0.10872143 0.35044923 0.3821521
00000000: 08fa 90be b942 83be 43b0 c13c 83a5 c63d
00000010: 097f 24bf ddbc b13e e057 8f3d f84e 3c3f
00000020: 4b9d 0a3f 37cd 293f 89ba a9be b63f 4d3e
00000030: 7886 f53e a623 653e 2dc8 5e3e 3fa5 e03d
00000040: e8e3 04bf 4452 afbf b48f 583f 1025 dcbd
00000050: 8804 303e b8b7 9abe ad5b 9dbe 3525 083e
00000060: e4e7 243f 524d 653f fd39 0340 75d3 04bf
00000070: d9dc 8fbe b191 19bf b8d0 1dbf c615 05bf
00000080: c95c 2bbf 0765 b5bf 339b 05bf 5924 05bd
00000090: 5dd4 823e 2250 e53e 6cca 103f 904e 483f
000000a0: 167f 23bd 4fdd ea3d 2920 943b 6266 e33d
000000b0: 4714 a23e 9742 7cbc 7e62 263d 560d cd3e
000000c0: 3293 aebf 89e5 93be 8490 f2be e2ae 60bd
000000d0: bd51 023e 2cc2 92bd 161b 44be bb51 b0be
000000e0: d531 943e 02b4 12be 192a 4a3f 43db d83e
000000f0: 41f5 cb3e ba27 573f bfc2 73bf d13c 58be
00000100: 6a10 893e 4e4d e4be dc3d 92be 9ca1 ac3e
00000110: ce5a 26bc fb1f 0e3f 2951 1c3f c1c1 0d3e
00000120: 8e60 09bf 040d 0dbf 99a1 773e 649a 66be
00000130: fc5b 413e ff15 43bf a778 073f cc34 47bd
00000140: b4e4 a73d 190a 723e 631b d0bd 1e6f cabd
00000150: e6b3 61bf 26de b5bf c49e babe 5005 0bc0
00000160: 8f1f d63e 1906 7d3e dc19 5a3e 1e76 c23e
00000170: 46be 3c3e ef8b 333f 2abb 0d3f cb3b f73e
00000180: c1d6 1e3f e9d1 043f 4afc 923e 8963 173f
00000190: 23b6 0ebf 8493 633e 04ef 813e 2c80 bebe
000001a0: 0c5a 64be 4732 b6bf c8ff adbf 1c46 87bf
000001b0: 9c80 b7bf 7862 74bf bb12 20bd 7c6c 5bbd
000001c0: cb45 f43d 083b 25be 6b12 06bf 5408 a1bf
000001d0: c71f 65bf f9d1 53bf fca7 05bf 2b66 16bf
000001e0: 4b3b 893d 7160 7e3c 9e7b f93a 69eb c33e
000001f0: 16cd 6a3d 214c 163f 53e9 ad3e 3412 1a3f
00000200: 90d7 3b3f 0ae3 4fbe 5059 40bf ac6a c5be
00000210: fa4e d2be 16d5 87be 865d f33e 54a2 113e
00000220: 20c7 253f 5dac f9be 3247 06bf b991 f9be
00000230: 1d35 d6be b80e 473e cb84 0dbd 074e c3be
00000240: d769 97bf 4d7c 25bf 3fe1 f4bf 3d0d 62be
00000250: fd95 003e 6690 8abe a662 7a3f fe1a 783f
00000260: 4181 2b3f 5c79 a93d 9e44 573d 7cb5 32bf
00000270: 01fa 1fbf d2da 8ebf da15 14bf 9b1f afbf
00000280: 201a 1e3f e28c ad3e 4aee 03bf 9983 0fbe
00000290: 59c4 38bd 29f4 0bbe 9427 1c3e 65df fabc
000002a0: 76d8 2cbe 5f34 2ebe c7bf b63d a727 39be
000002b0: 37e1 02bf 085a fcbe 7f91 d83e 1322 ad3d
000002c0: f275 25c0 21f5 42bf 1abd a8bf 84fc 3e3f
000002d0: f101 bb3e d5f0 183f 458a 34bf a8ba 7abe
000002e0: 8a33 44bf 2733 3dbf f3e0 ed3d 7406 913e
000002f0: 5ea5 473f da53 643f 8a1a 46bf 4ee2 79bf
00000300: 8cb5 abbe ab2f 983d 71f3 e1be acae c13e
00000310: 6551 003f a7be 02bf e027 36bf 32c0 973e
00000320: 4f1b 013f f210 abbf db87 993f 8d66 04be
00000330: 4dd3 473f bacf 02bf bb01 bebe 7086 8bbc
00000340: 9ef4 153f c303 30bf 3bfc 613e a23d 073e
00000350: b427 4f3e a0d5 863e 2883 8c3e cfdf 48be
00000360: bcaf 723e 10de 2dbe 0c78 23bf e30a 48be
00000370: 67d7 c93e a480 813e f768 ea3e 9b9f ab3e
00000380: b568 da3e 9058 dc3e 5bd3 83be bdbf 3f3d
00000390: 0a41 b3be 5de0 c4be ff97 26bd caf4 06bf
000003a0: c77c 413e 9bc7 3bbd d0ef 2b3d 9f7d 093f
000003b0: ef0a a2be f8aa 4f3e a396 1bbf 6750 39bf
000003c0: 9d93 f43e 7e8f 953e b07e 703d 935e f9bd
000003d0: 23d0 963e 9168 f1bd a70a cb3c d102 d83e
000003e0: e206 8cbe 2ac3 c5bd fd5c 9fbe 07ac dc3d
000003f0: dfc8 3c3e 57a9 de3d 156e b33e 71a9 c33e

fc1.bias f4 [64]
0.14064845 -0.16190533 0.41016653 0.4970295 0.58930403 0.099531844 0.19629577 0.030936312
0.5399192 0.46388507 0.09838006 0.2994426 0.26971313 0.11558448 0.5191266 0.32197067
0.48013088 0.80913067 0.24048604 0.104915045 0.2064604 0.44812542 0.12091157 0.42184988
0.70935625 0.2750943 0.26217365 0.42809376 0.42217582 0.44487533 0.7362738 0.093157366
0.5461612 0.081236824 0.22544461 0.23841327 0.26042265 0.2044483 0.08586798 0.47605583
0.35845807 0.077386014 -0.39183256 0.67629063 0.37419775 -0.2873838 0.3421353 0.08524229
0.31134152 0.44126186 0.2550072 -0.070713505 -0.23022799 0.50371456 -0.017122028 0.5272663
0.341838 0.05555943 -0.099798895 -0.05281138 0.23429462 0.09117081 0.51024306 0.3369909
00000000: 2606 103e 83ca 25be 5901 d23e a77a fe3e
00000010: a1dc 163f 5ad7 cb3d c201 493e 266e fd3c
00000020: 2538 0a3f 5882 ed3e 7c7b c93d 8a50 993e
00000030: d717 8a3e 8eb7 ec3d 7be5 043f 57d9 a43e
00000040: b7d3 f53e 3023 4f3f f941 763e b3dd d63d
00000050: 5b6a 533e b270 e53e 7ca0 f73d b5fc d73e
00000060: 5f98 353f 29d9 8c3e a03b 863e 1b2f db3e
00000070: 6e27 d83e b3c6 e33e 717c 3c3f 4ac9 be3d
00000080: 38d1 0b3f 7e5f a63d f4da 663e 9c22 743e
00000090: 1e56 853e e55a 513e 8ddb af3d 97bd f33e
000000a0: d187 b73e 8f7c 9e3d 479e c8be 6221 2d3f
000000b0: d996 bf3e f823 93be 5c2c af3e 8293 ae3d
000000c0: 2868 9f3e 13ed e13e 4e90 823e 3ed2 90bd
000000d0: e3c0 6bbe 70f3 003f 7f43 8cbc edfa 063f
000000e0: 6405 af3e 4992 633d 5d63 ccbd bf50 58bd
000000f0: eeea 6f3e c3b7 ba3d 4a9f 023f 128a ac3e

fc2.weight f4 [64, 64]
-0.06522333 -0.19569632 0.37725437 -2.0107696 0.27065098 0.34733015 0.48775584 -0.37968862
0.15606312 0.7918382 0.06584458 0.23636928 0.28428265 0.29619828 0.25443256 1.022499
-0.09659495 0.0044992706 0.75646657 -0.7582497 -0.41061452 0.23011711 -0.3216469 0.25067687
-0.04315173 -0.10339551 0.22666992 -0.07757158 0.3099997 0.18773846 -0.07070868 0.28568447
0.5100404 -0.09749172 0.19966969 -0.38876373 0.4258293 0.10386673 0.5736679 -0.49749032
-0.5776252 0.50841475 -0.2687573 -0.11476037 0.4569088 0.17803761 -0.2157144 -0.4594643
-0.33951116 -1.2614706 -0.26878303 1.6029464 0.25892657 -0.019297786 -0.41982633 -0.03358155
0.28591335 0.3395947 -0.5469433 -0.17518596 0.18658227 -0.13407232 -1.4766973 0.05711392
-0.42197132 0.41400906 0.85547245 0.064148985 -0.12977457 0.41517508 -0.565961 -0.12048801
0.28659147 -0.38197765 -0.35900116 -0.5284481 -0.0463719 1.2642341 0.6511456 0.5588113
-0.87431127 0.21157308 -0.13359058 1.035637 -0.33734894 0.010919051 -0.014624871 -0.25728542
0.06661198 0.5713048 -0.894393 1.315032 -0.23533718 0.78123707 -1.43211 -0.66853553
0.48459706 -0.16333593 0.475961 0.039238013 0.15163223 -0.30112228 -0.17066903 -0.43027648
-0.6220448 0.32425165 0.34578693 0.43255797 0.0549916 -1.4233928 0.30828586 -0.06645774
0.25776982 0.54893154 -0.61167896 -1.2792636 -1.0605613 0.1223309 -0.1633138 0.86941427
-0.038469363 -1.5492944 -0.27658993 -1.0704192 -0.46304724 0.4015655 0.3043799 0.65440255
-0.6264808 -0.111598186 -0.35425228 0.82575256 0.27475384 0.1208486 -0.102793485 -0.13906057
-0.05806747 -0.30596268 -0.14758168 0.91599613 -0.32562426 0.05243617 -0.47625136 0.77795
0.37731618 -0.4743895 0.34832087 0.06632326 0.3963047 0.27748767 -1.0576106 -0.9136016
0.5465273 0.19914494 -0.72479856 0.30291998 -0.24159192 0.33848932 0.13267644 -0.05566586
0.607926 0.7382455 0.8767921 0.049542226 0.23664708 0.25151384 -0.63742656 0.15879194
-0.9115522 -0.31130522 -0.013599307 1.2259984 -0.0806795 -0.27742857 0.32355013 0.4100632
0.811208 -0.019247077 0.80083215 -0.21634895 -0.0038703016 0.4595741 -0.09184766 0.3628163
0.40622604 -0.9520195 -0.3596745 -0.07027361 -1.3372204 -0.82025886 -0.5601885 -0.3468891
0.038849957 0.08732562 -0.06824985 -0.041891076 -0.046209093 -0.12928523 -0.10706083 -0.01981214
-0.14636007 -0.032417666 0.013915743 -0.109499484 -0.06100388 0.055881094 -0.10401638 -0.02842021
0.077199854 -0.07640171 0.011994224 -0.14943619 -0.0068262187 -0.02137306 -0.027980471 -0.048260514
-0.1070348 0.012078823 -0.057611514 -0.16490856 -0.027170086 -0.011484479 -0.04387513 0.061655115
-0.11121996 0.021496339 -0.12252078 0.072072774 0.00029107917 -0.12875162 -0.053899333 -0.004454711
-0.05045687 -0.06510769 -0.038588986 -0.121543646 -0.17064631 -0.045546696 -0.12422938 -0.07376275
-0.11143115 0.07437347 -0.09876537 0.0935839 -0.109355785 -0.057471044 0.029529074 -0.029862184
-0.16463847 -0.068001606 -0.055171896 0.031102065 -0.035562847 0.044571474 0.028637059 -0.07680554
00000000: cf93 85bd 9e64 48be 7c27 c13e 73b0 00c0
00000010: c492 8a3e 42d5 b13e 22bb f93e 8c66 c2be
00000020: 03cf 1f3e e9b5 4a3f 86d9 863d ca0a 723e
00000030: 7f8d 913e 4da7 973e fc44 823e 3fe1 823f
00000040: 93d3 c5bd 9e6e 933b cba7 413f a71c 42bf
00000050: 113c d2be d2a3 6b3e e7ae a4be b858 803e
00000060: debf 30bd 06c1 d3bd 291c 683e d9dd 9ebd
00000070: 48b8 9e3e 833e 403e b6cf 90bd 3c45 923e
00000080: 0292 023f bda9 c7bd 3676 4c3e 0a0c c7be
00000090: 4c06 da3e 15b8 d43d e6db 123f 0db7 febe
000000a0: 3fdf 13bf 7827 023f 8f9a 89be 7c07 ebbd
000000b0: f3ef e93e 7e4f 363e 3ce4 5cbe e83e ebbe
000000c0: 68d4 adbe de77 a1bf ee9d 89be 592d cd3f
000000d0: 0692 843e 6416 9ebc 7af3 d6be cf8c 09bd
000000e0: 3c63 923e 5bdf ad3e 7a04 0cbf f363 33be
000000f0: 6c0f 3f3e 414a 09be 6b04 bdbf 49f0 693d
00000100: a00c d8be fff8 d33e 3e00 5b3f 8b60 833d
00000110: a0e3 04be d491 d43e d2e2 10bf 6bc2 f6bd
00000120: 1ebc 923e 9392 c3be 00cf b7be 6048 07bf
00000130: 76f0 3dbd 6cd2 a13f 7ab1 263f 420e 0f3f
00000140: ddd2 5fbf 9da6 583e f8cb 08be c18f 843f
00000150: 00b9 acbe d2e5 323c 289d 6fbc eaba 83be
00000160: dd6b 883d 0841 123f f1f6 64bf f852 a83f
00000170: 3bfc 70be 27ff 473f 614f b7bf 2525 2bbf
00000180: 1b1d f83e 8941 27be 29b1 f33e 0ab8 203d
00000190: 7b45 1b3e b32c 9abe ddc3 2ebe 334d dcbe
000001a0: 543e 1fbf 5004 a63e fc0a b13e 3d78 dd3e
000001b0: df3e 613d bc31 b6bf a5d7 9d3e ff1a 88bd
000001c0: 68fa 833e c786 0c3f fe96 1cbf e9be a3bf
000001d0: 79c0 87bf 9f88 fa3d bc3b 27be ef91 5e3f
000001e0: 0d92 1dbd 474f c6bf 329d 8dbe 7f03 89bf
000001f0: 8714 edbe fe99 cd3e afd7 9b3e ed86 273f
00000200: 0c61 20bf 978d e4bd 8e60 b5be 8564 533f
00000210: 89ac 8c3e 797f f73d 6485 d2bd e565 0ebe
00000220: 28d8 6dbd 24a7 9cbe a71f 17be b97e 6a3f
00000230: 39b8 a6be 4fc7 563d 38d7 f3be bb27 473f
00000240: 962f c13e 2ee3 f2be 1d57 b23e 7dd4 873d
00000250: 73e8 ca3e dd12 8e3e c95f 87bf cbe1 69bf
00000260: 37e9 0b3f a7ec 4b3e 668c 39bf 5418 9b3e
00000270: df63 77be 794e ad3e 55dc 073e e301 64bd
00000280: 0aa1 1b3f a8fd 3c3f 7275 603f caec 4a3d
00000290: 9d53 723e 6cc6 803e 632e 23bf 5b9a 223e
000002a0: 7c5b 69bf 6663 9fbe a1cf 5ebc 84ed 9c3f
000002b0: 4b3b a5bd 1e0b 8ebe 5da8 a53e cef3 d13e
000002c0: 54ab 4f3f 0cac 9dbc 5603 4d3f 948a 5dbe
000002d0: e3a4 7dbb 4c4d eb3e a01a bcbd 0fc3 b93e
000002e0: dcfc cf3e 8db7 73bf 4227 b8be 9ceb 8fbd
000002f0: 0a2a abbf 7cfc 51bf 8368 0fbf 739b b1be
00000300: 2221 1f3d c6d7 b23d 94c6 8bbd fa95 2bbd
00000310: bf45 3dbd 5963 04be b542 dbbd 124d a2bc
00000320: 6adf 15be 63c8 04bd dbfe 633c 4441 e0bd
00000330: 34df 79bd 93e3 643d 8a06 d5bd 80d1 e8bc
00000340: f51a 9e3d 8078 9cbd 6c83 443c cd05 19be
00000350: 79ae dfbb 8e16 afbc 4d37 e5bc d1ac 45bd
00000360: 1035 dbbd 41e6 453c 0dfa 6bbd cadd 28be
00000370: cd93 debc 6529 3cbc 69b6 33bd 138a 7c3d
00000380: 4ac7 e3bd 1719 b03c 2dec fabd e49a 933d
00000390: fc9b 9839 77d7 03be 8cc5 5cbd d3f8 91bb
000003a0: ddab 4ebd 2e57 85bd 7c0f 1ebd e0eb f8bd
000003b0: e8bd 2ebe 2c8f 3abd f96b febd ed10 97bd
000003c0: 0436 e4bd 1e51 983d 8045 cabd eaa8 bf3d
000003d0: edf5 dfbd c266 6bbd f5e6 f13c 8aa1 f4bc
000003e0: fd96 28be 6d44 8bbd edfb 61bd c2c9 fe3c
000003f0: 59aa 11bd 9490 363d 4498 ea3c 394c 9dbd

fc2.bias f4 [64]
0.2703591 -0.3070856 0.0782684 -0.11423706 -0.12990302 -0.1495776 0.3016365 0.39118007
0.26885897 0.019624101 -0.11696053 -0.10171848 -0.18524885 -0.0634412 -0.14034694 0.1808916
0.12846458 0.049574625 0.006070819 0.1389289 -0.27044195 0.044050626 0.031533826 -0.17269139
0.28601605 -0.02292738 0.10447377 -0.1836158 -0.027372487 -0.09569545 -0.045744997 0.013477318
-0.09963109 0.030036626 0.27728564 -0.10724828 -0.17500912 0.04024261 -0.1493784 -0.060777478
0.03909704 0.41882986 0.18420526 0.14147867 -0.07261263 -0.14189965 0.12587284 -0.07351296
0.050795592 -0.13092424 -0.014475763 0.07384982 0.14323117 -0.14523694 -0.06806003 0.34973633
0.10336057 0.12056601 0.08977329 0.07209802 -0.18555073 0.15786484 0.15442638 0.077287294
00000000: 826c 8a3e 533a 9dbe 2f4b a03d 1ff5 e9bd
00000010: 4c05 05be df2a 19be 1970 9a3e c148 c83e
00000020: e2a7 893e b9c2 a03c 0189 efbd c751 d0bd
00000030: e0b1 3dbe 76ed 81bd 1cb7 0fbe a63b 393e
00000040: 388c 033e c30e 4b3d b9ed c63b 6143 0e3e
00000050: 5e77 8abe 6e6e 343d 9d29 013d 03d6 30be
00000060: b270 923e 33d2 bbbc 58f6 d53d c805 3cbe
00000070: 443c e0bc fafb c3bd 1b5f 3bbd f8cf 5c3c
00000080: 630b ccbd 5f0f f63c 62f8 8d3e fca4 dbbd
00000090: 9735 33be 6fd5 243d a7f6 18be cef1 78bd
000000a0: 3824 203d de70 d63e 4ea0 3c3e c9df 103e
000000b0: eeb5 94bd 244e 11be cfe4 003e f68d 96bd
000000c0: 0a0f 503d 0111 06be c02b 6dbc 933e 973d
000000d0: 31ab 123e feb8 14be 0f63 8bbd a410 b33e
000000e0: b5ae d33d 50eb f63d 0fdb b73d 20a8 933d
000000f0: 0301 3ebe 52a7 213e f321 1e3e cd48 9e3d

fc3.weight f4 [64, 64]
-0.35022923 -0.76601756 0.307081 -0.13990042 -0.009812647 -1.3860106 0.047187462 -0.36725453
-1.3846494 0.0387797 -0.0334376 -0.2749456 -0.09891132 0.40155795 2.2025201 0.44163483
0.44597083 0.746506 0.22160518 -1.1196282 0.7628516 -0.79922813 -0.17475104 -0.005497747
-0.55532914 -0.019394528 -0.3817801 -0.029814353 -0.21094903 1.682937 -0.014953563 0.074372105
0.07588113 -1.4827592 -0.09969577 -0.082251385 -0.059149038 0.52254176 -0.16483854 1.018915
-0.009468323 0.20759238 0.43463463 0.1320067 0.6688723 0.06858056 0.08224484 0.82007104
1.4417706 -0.065196075 0.19873832 0.016740784 0.6176411 -0.026130972 0.38893655 -0.101511866
1.2868234 -0.058430247 -0.15605275 0.17692003 0.33619294 -0.5012868 -0.509986 -0.03614325
0.030384865 -0.03115728 -0.1167631 -0.10981479 -0.16091052 0.09358245 -0.05539741 0.049686987
0.071959615 0.053660005 0.031485677 0.09732595 -0.0016744435 0.04213613 -0.002488322 0.055470746
-0.034562364 -0.05850833 -0.1662371 -0.063569 -0.100536406 0.059873477 -0.037673328 0.018438622
-0.0024201805 -0.0703703 -0.006555012 -0.023158774 0.06901398 -0.069770835 -0.060971014 -0.057045072
-0.08271341 -0.028378814 -0.1523341 -0.012011394 0.010127515 -0.11728411 -0.030412523 0.05489265
0.038351607 -0.14083473 -0.0044018542 -0.015980614 -0.07613741 -0.022662625 -0.046388417 -0.11935508
-0.07780868 -0.0058373064 0.026655788 -0.10623642 -0.058867577 -0.056371674 -0.06435164 -0.04141675
-0.07476632 -0.10414413 -0.054792542 0.015192081 -0.08582106 0.002538603 -0.1225084 -0.05356367
0.1627074 0.10287508 0.8974813 0.024181578 0.90904367 0.098021574 0.027587077 0.7232206
-0.36335918 0.111943215 0.06493785 -0.47535908 0.047541026 1.0816405 0.3348403 -1.0408583
0.15173827 -0.9859546 0.012008945 -0.1340492 -1.3282081 -0.08186574 -0.047786135 -0.008868574
0.13773175 -0.06787789 0.025057644 -0.022508606 0.39953494 0.9476086 0.56255436 -0.27401447
-0.09445479 -0.26338318 0.56592757 -0.11740879 -0.06688307 -0.086173825 -0.10603759 0.09969634
0.22359817 0.8612711 0.55597866 -0.32255656 0.6481057 -0.032433767 0.21270001 0.11509975
-0.08874004 -0.00710483 -0.12458637 -0.27465424 -0.53354955 -0.044306718 0.4320179 -0.0096032955
0.5528897 0.6139052 -0.45648512 0.16354243 -0.42405823 0.2912719 -0.5565113 0.5280683
-0.040900573 -0.2043136 -0.18654811 0.10429934 0.02196208 0.07908133 -0.13205391 -0.039613217
-0.0023557544 0.09968862 -0.12378518 -0.07680125 0.118292496 0.027866356 -0.10904714 -0.03603026
-0.07891177 -0.01759876 -0.18254064 -0.033566188 0.024153883 0.033097673 -0.13291128 0.003980145
-0.12804878 -0.10673709 -0.17993914 0.051055685 -0.0752515 -0.09246405 -0.13656642 -0.13546042
0.06895691 -0.03719707 -0.09903687 -0.119159415 -0.0008556545 -0.01894699 -0.09982617 -0.07361737
-0.14266288 0.0092501575 -0.12787646 0.027923629 -0.102158986 -0.10547033 -0.044975687 0.032738473
-0.1203359 -0.04547982 -0.21204272 -0.024114667 0.019335805 0.091024935 -0.1166001 -0.1750587
-0.111353844 0.03641788 -0.10752324 -0.07167119 -0.122435085 -0.022976197 -0.06739625 -0.0063111093
00000000: 3f51 b3be ba19 44bf b939 9d3e 0e42 0fbe
00000010: 39c5 20bc cc68 b1bf a447 413d c908 bcbe
00000020: 313c b1bf 76d7 1e3d ddf5 08bd abc5 8cbe
00000030: 0592 cabd 0199 cd3e 17f6 0c40 f61d e23e
00000040: 4a56 e43e 041b 3f3f 78ec 623e fa4f 8fbf
00000050: 3e4a 433f 379a 4cbf f0f1 32be 7226 b4bb
00000060: 0d2a 0ebf 46e1 9ebc ae78 c3be 3b3d f4bc
00000070: 0603 58be 7b6a d73f caff 74bc 6750 983d
00000080: 9167 9b3d 0ecb bdbf 4c2d ccbd 6a73 a8bd
00000090: 4346 72bd 4cc5 053f 6fcb 28be cf6b 823f
000000a0: 0621 1bbc 1993 543e 6e88 de3e c42c 073e
000000b0: 373b 2b3f f773 8c3d fc6f a83d 2df0 513f
000000c0: f08b b83f 8585 85bd 0f82 4b3e f823 893c
000000d0: ba1d 1e3f 9f10 d6bc b122 c73e 74e5 cfbd
000000e0: a1b6 a43f 8e54 6fbd 4bcc 1fbe 862a 353e
000000f0: 7b21 ac3e 5554 00bf 718e 02bf f20a 14bd
00000100: aee9 f83c 8d3d ffbc 7e21 efbd 94e6 e0bd
00000110: bac5 24be 28a8 bf3d 65e8 62bd 9584 4b3d
00000120: 905f 933d 98ca 5b3d 20f7 003d d452 c73d
00000130: 0079 dbba ef96 2c3d 1e13 23bb 4b35 633d
00000140: 4491 0dbd 6ea6 6fbd 0f3a 2abe 7730 82bd
00000150: 08e6 cdbd e43d 753d 594f 1abd 980c 973c
00000160: e49b 1ebb 4e1e 90bd 6dcb d6bb 78b7 bdbc
00000170: 3457 8d3d 03e4 8ebd bebc 79bd 18a8 69bd
00000180: a665 a9bd b07a e8bc 78fd 1bbe 70cb 44bc
00000190: e0ed 253c a732 f0bd af23 f9bc 1ed7 603d
000001a0: 9316 1d3d fb36 10be 6e3d 90bb c7e9 82bc
000001b0: eeed 9bbd f8a6 b9bc c801 3ebd 7070 f4bd
000001c0: 285a 9fbd e046 bfbb 3d5d da3c 7b92 d9bd
000001d0: 211f 71bd fce5 66bd cbca 83bd 9ca4 29bd
000001e0: 161f 99bd 8549 d5bd 256e 60bd 35e8 783c
000001f0: f4c2 afbd b15e 263b afe5 fabd 9465 5bbd
00000200: c59c 263e 2cb0 d23d 56c1 653f 7218 c63c
00000210: 16b7 683f 89bf c83d 4bfe e13c fc24 393f
00000220: 370a babe 7c42 e53d 23fe 843d 4462 f3be
00000230: 61ba 423d 3273 8a3f 3070 ab3e d83a 85bf
00000240: 4761 1b3e 8567 7cbf 2bc1 443c 3244 09be
00000250: b902 aabf 3aa9 a7bd 65bb 43bd 7f4d 11bc
00000260: 8d09 0d3e 9003 8bbd b045 cd3c f863 b8bc
00000270: d88f cc3e 7a96 723f 9003 103f a04b 8cbe
00000280: 8371 c1bd 29da 86be a1e0 103f 0574 f0bd
00000290: fef9 88bd e77b b0bd 3c2a d9bd 982d cc3d
000002a0: ebf6 643e 437c 5c3f 9e54 0e3f 2226 a5be
000002b0: 41ea 253f 45d9 04bd 08ce 593e 6bb9 eb3d
000002c0: 57bd b5bd a2cf e8bb 2427 ffbd 7b9f 8cbe
000002d0: b496 08bf f67a 35bd 7331 dd3e 2457 1dbc
000002e0: 2e8a 0d3f e428 1d3f 6bb8 e9be ab77 273e
000002f0: 291e d9be 9721 953e 8677 0ebf 7c2f 073f
00000300: 5c87 27bd 9637 51be 7806 3fbe e49a d53d
00000310: d2e9 b33c 64f5 a13d 2439 07be 7841 22bd
00000320: 0063 1abb 8c29 cc3d 1683 fdbd f949 9dbd
00000330: 5643 f23d fc47 e43c 1b54 dfbd 7794 13bd
00000340: 7e9c a1bd 462b 90bc efeb 3abe b37c 09bd
00000350: 5dde c53c 6d91 073d e519 08be e06b 823b
00000360: 381f 03be fa98 dabd f741 38be c41f 513d
00000370: 751d 9abd cb5d bdbd 11d8 0bbe 23b6 0abe
00000380: 4839 8d3d f45b 18bd d8d3 cabd da09 f4bd
00000390: 004e 60ba b836 9bbc aa71 ccbd b4c4 96bd
000003a0: 3816 12be f98d 173c 0cf2 02be 18c0 e43c
000003b0: bb38 d1bd d400 d8bd 6d38 38bd c718 063d
000003c0: ab72 f6bd 0c49 3abd ba21 59be 1f8c c5bc
000003d0: 1f66 9e3c 486b ba3d 09cc eebd 9642 33be
000003e0: 7c0d e4bd ea2a 153d 2535 dcbd 58c8 92bd
000003f0: 3fbf fabd 9438 bcbc 0c07 8abd 6ccd cebb

fc3.bias f4 [64]
-0.15217425 -0.12922637 0.29965165 -0.1822735 0.1349488 -0.036581386 0.42244807 0.0012795868
-0.44336691 0.002154172 -0.10696019 0.083273664 0.07302207 0.04373189 0.098270975 0.021710692
-0.006323398 -0.06864845 0.100060515 0.37899625 0.4808754 0.52115905 0.063579895 0.36386776
0.2607691 -0.28294438 -0.06512661 -0.15461466 0.145492 0.2221566 -0.1290897 0.14279878
-0.024773 0.57717645 -0.1788445 -0.213013 0.24330416 0.5537784 0.39476892 0.06970728
-0.12589295 -0.07848798 0.12336332 -0.45394868 0.021714104 0.15504849 0.47066572 0.25830638
-0.08617067 0.010770788 0.5861302 0.08556226 -0.09614315 0.056461204 0.17912754 -0.14442474
0.33047533 0.40403637 0.120221235 0.10704733 0.04792786 -0.12034258 0.34916887 0.40635893
00000000: 91d3 1bbe eb53 04be f16b 993e e8a5 3abe
00000010: 0530 0a3e 5dd6 15bd 1d4b d83e cfb7 a73a
00000020: fd00 e3be 022d 0d3b f20d dbbd 628b aa3d
00000030: 988c 953d 3620 333d 4b42 c93d 9fda b13c
00000040: 8234 cfbb 8f97 8cbd 87ec cc3d cc0b c23e
00000050: 4d35 f63e ae6a 053f 2d36 823d e04c ba3e
00000060: 8783 853e 16de 90be 1a61 85bd 4e53 1ebe
00000070: dbfb 143e 057d 633e 1730 04be d839 123e
00000080: bff0 cabc d6c1 133f 0323 37be 1420 5abe
00000090: ba24 793e 6cc4 0d3f 271f ca3e b1c2 8e3d
000000a0: 15ea 00be 4ebe a0bd e9a5 fc3d f66b e8be
000000b0: c7e1 b13c 08c5 1e3e 19fb f03e bc40 843e
000000c0: 407a b0bd f677 303c a10c 163f 443b af3d
000000d0: b3e6 c4bd dd43 673d 366d 373e 14e4 13be
000000e0: 1034 a93e dbdd ce3e 8d36 f63d a13b db3d
000000f0: 0150 443d 2c76 f6bd 43c6 b23e 470e d03e

fc4.weight f4 [10, 64]
0.52505034 -0.022261694 -0.10371907 -0.06907861 1.7263899 -0.030658044 -0.7056711 0.7058029
-1.2695208 -0.44312316 0.017073028 -0.18685552 0.0035068798 -0.5849306 0.036164425 0.24493685
0.010785158 1.0434829 0.30115187 -0.561682 0.25516683 0.84789246 0.430446 -0.89972675
-0.77613664 -0.49026173 0.3698131 -0.02055905 0.19049194 0.12189888 -0.6904372 -0.8792148
0.09943677 -0.1838906 0.0789301 -0.009453687 -0.5807422 -0.4130119 -0.3482427 0.113422155
0.09526556 0.36014545 -0.11471752 -0.05292403 -0.3451542 -0.26061553 0.8954798 -0.22777116
-0.093152136 0.08285143 -0.73296356 0.36960644 -1.9779295 0.033767324 1.1403078 0.06001263
-0.023629298 -0.001654266 0.22574508 1.769984 -0.13008286 -0.036736496 -0.45604682 -0.35631636
0.27017516 -0.0047561973 -0.33844712 0.036467124 1.5783871 -0.070450336 -0.34249684 -0.6942435
-0.3345241 -0.6007074 -0.036816802 0.30715048 0.44410038 0.16445057 -0.13639885 0.17705965
0.11395921 0.3006725 -0.17236082 -0.0016400552 -0.012347297 -1.4506131 -1.0124817 -0.9555872
-0.06140489 0.008854116 -0.39629453 0.101404816 -0.08209645 -0.40402892 0.88949764 -9.39192e-05
-0.13594137 -0.114389434 0.11232916 -0.08340497 -0.28043526 -0.21549022 -0.5688718 0.31433627
0.08147194 -0.3264475 -0.21950105 0.6176054 0.066045314 -0.74669 0.30280903 -0.3794493
0.06923696 0.07267612 -0.35397506 -0.04845823 0.8736974 -0.10069393 -0.119832985 -0.082782075
-0.12568846 -0.56470865 -0.1891427 1.0591006 0.08905393 -0.07258871 -0.3188476 -0.17092732
0.5913873 -0.110924274 0.084506236 -0.21359023 2.6280944 -0.13952783 0.108795576 0.8937829
-2.368848 -0.87212133 -0.12616211 0.008078348 0.16185163 -0.0066127907 0.0625646 0.32047328
0.06171863 1.5569992 -0.22784193 0.33567587 -0.3765366 -0.4190193 -0.6745677 -0.2670442
-0.5433452 0.053029727 -0.2612715 0.04847774 0.16361955 1.5880735 1.0052845 -0.30270785
0.017526435 -0.8386965 -0.055226512 -0.11776994 -0.13416027 0.2746396 0.021170406 -0.6339317
-0.09372474 0.13245395 -0.34142286 -1.3286245 0.4493259 -0.351074 0.5132623 0.23552197
0.098162025 0.044436835 -0.28479913 -0.87595135 0.25816235 -0.027066141 -0.30577588 0.11071791
-0.7375141 -0.0059114895 0.04022263 1.8498527 0.054238435 0.08282009 0.020752536 0.6256566
-0.24643607 -0.025693046 0.041709863 0.08452173 1.6952374 0.04764862 -0.15105166 0.2500467
-1.5230652 -0.9995986 -0.10021187 0.095669664 -0.0073981686 -0.28835145 0.070646405 -0.28398436
-0.02333339 0.43936375 -0.062444877 -0.18766269 -0.0680747 -0.22407506 0.051546935 0.4356436
-0.34536654 0.43045393 0.61769843 0.116173476 -0.43374598 -0.37175155 -0.86858696 -0.43149087
-0.00011074036 -0.515151 0.036623355 0.04676732 -0.5793507 1.2729002 -0.05450958 -1.7977295
0.08765977 0.41203204 -0.14201392 0.9165995 -0.23025009 -0.6336481 -0.41257137 0.043584052
-0.0949547 0.09345815 -0.09746741 -0.54293036 -0.9522593 -0.104304925 2.791535 0.01190456
-0.34964904 0.046189476 -0.20083144 1.3365693 -0.092969015 -0.0717088 0.083394535 0.005822469
00000000: b369 063f 285e b6bc aa6a d4bd 1679 8dbd
00000010: 58fa dc3f 9426 fbbc dca6 34bf 80af 343f
00000020: a87f a2bf 0ae1 e2be bcdc 8b3c 0e57 3fbe
00000030: aed3 653b 03be 15bf 2621 143d bad0 7a3e
00000040: 3bb4 303c d990 853f 9430 9a3e 64ca 0fbf
00000050: 3aa5 823e 7b0f 593f 6b63 dc3e 7e54 66bf
00000060: e4b0 46bf 9603 fbbe 2558 bd3e 746b a8bc
00000070: 5210 433e 1fa6 f93d 7ec0 30bf 3914 61bf
00000080: 81a5 cb3d d14d 3cbe 1ba6 a13d a3e3 1abc
00000090: 85ab 14bf 4c76 d3be de4c b2be e049 e83d
000000a0: 971a c33d fc64 b83e 05f1 eabd dec6 58bd
000000b0: 0db8 b0be 666f 85be 2a3e 653f d83c 69be
000000c0: 8cc6 bebd 03ae a93d 80a3 3bbf 0e3d bd3e
000000d0: cb2c fdbf 9b4f 0a3d 9bf5 913f cecf 753d
000000e0: 3b92 c1bc f5d3 d8ba b829 673e d68e e23f
000000f0: 7134 05be 0279 16bd f87e e9be 196f b6be
00000100: 6654 8a3e e0d9 9bbb f148 adbe 8d5e 153d
00000110: 9708 ca3f 4448 90bd bf5b afbe f1b9 31bf
00000120: be46 abbe f6c7 19bf 37cd 16bd d442 9d3e
00000130: 2061 e33e bb65 283e 24ac 0bbe 204f 353e
00000140: 7263 e93d bff1 993e 5b7f 30be 1ff7 d6ba
00000150: 514c 4abc b1ad b9bf 0099 81bf 5da1 74bf
00000160: b283 7bbd db10 113c 1ee7 cabe 54ad cf3d
00000170: 2f22 a8bd e1dc cebe 1eb6 633f 7df6 c4b8
00000180: 3734 0bbe 0245 eabd d50c e63d 3ad0 aabd
00000190: 3695 8fbe 78a9 5cbe 95a1 11bf aff0 a03e
000001a0: c3da a63d 2024 a7be e2c4 60be 631b 1e3f
000001b0: c442 873d 1327 3fbf c909 9b3e 2e47 c2be
000001c0: 1bcc 8d3d 38d7 943d 383c b5be 237c 46bd
000001d0: a2aa 5f3f 9f38 cebd ff6a f5bd a689 a9bd
000001e0: 7ab4 00be bf90 10bf a0ae 41be 9c90 873f
000001f0: e861 b63d 64a9 94bd fe3f a3be 9207 2fbe
00000200: 2865 173f 442c e3bd 9b11 ad3d 66b7 5abe
00000210: b332 2840 62e0 0ebe 37d0 de3d f5ce 643f
00000220: 359b 17c0 5843 5fbf a430 01be 0c5b 043c
00000230: 6fbc 253e 1cb0 d8bb de21 803d 1315 a43e
00000240: adcc 7c3d c04b c73f 654f 69be b5dd ab3e
00000250: 68c9 c0be b389 d6be 78b0 2cbf 04ba 88be
00000260: ac18 0bbf b335 593d 61c5 85be 9890 463d
00000270: e28b 273e fe45 cb3f 2aad 803f 86fc 9abe
00000280: 9993 8f3c d0b4 56bf 3235 62bd 5e31 f1bd
00000290: 4f61 09be 909d 8c3e 8f6d ad3c 5949 22bf
000002a0: c2f2 bfbd 02a2 073e face aebe 5e10 aabf
000002b0: 0b0e e63e f9bf b3be 2865 033f ac2c 713e
000002c0: 2c09 c93d 6603 363d 31d1 91be 593e 60bf
000002d0: db2d 843e d0b9 ddbc a88e 9cbe 12c0 e23d
000002e0: b9cd 3cbf 2bb5 c1bb 7cc0 243d f9c7 ec3f
000002f0: 1f29 5e3d 949d a93d 3901 aa3c 082b 203f
00000300: bd59 7cbe 397a d2bc f6d7 2a3d bb19 ad3d
00000310: 8afd d83f 332b 433d 49ad 1abe 1f06 803e
00000320: cdf3 c2bf b2e5 7fbf e23b cdbd 75ee c33d
00000330: 566c f2bb cda2 93be 10af 903d 6666 91be
00000340: aa25 bfbc 49f4 e03e 33c6 7fbd a62a 40be
00000350: c06a 8bbd ef73 65be e122 533d ae0c df3e
00000360: e2d3 b0be 7564 dc3e 7c21 1e3f 5cec ed3d
00000370: f413 debe 3856 bebe b75b 5ebf 5fec dcbe
00000380: 473d e8b8 f0e0 03bf 5f02 163d 178f 3f3d
00000390: 5450 14bf 65ee a23f 7045 5fbd 001c e6bf
000003a0: f786 b33d ddf5 d23e 196c 11be 44a6 6a3f
000003b0: aec6 6bbe c336 22bf 8e3c d3be 3185 323d
000003c0: 9c77 c2bd fd66 bf3d fe9c c7bd 7cfd 0abf
000003d0: 44c7 73bf d29d d5bd 82a8 3240 580b 433c
000003e0: 3305 b3be 2d31 3d3d c2a6 4dbe b414 ab3f
000003f0: 8a66 bebd 10dc 92bd c1ca aa3d 69ca be3b

fc4.bias f4 [10]
-0.2539791 -0.22153473 -0.036116138 0.023131572 0.42741415 -0.1485401 0.054283846 -0.5395666
-0.18887298 -0.59915775
00000000: 8c09 82be 00da 62be 84ee 13bd 6c7e bd3c
00000010: 07d6 da3e e51a 18be bd58 5e3d 0921 0abf
00000020: eb67 41be 6762 19bf
