Ai Elevator/elevator_dqn.pth (torch, 47251 bytes, 8 tensors)

fc1.weight f4 [64, 30]
0.24923225 0.4122226 0.25220102 0.27675855 0.40963933 0.23220927 0.48278293 0.7496195
-0.08533788 0.019013843 0.064499624 -0.2090336 -0.18345863 -0.07971081 -0.043191545 -0.03269378
-1.2793334 -0.37855318 0.039885573 -0.5401668 0.30207276 0.6009264 0.25376615 0.34835687
-0.05234204 -0.8215537 1.8328236 0.022320613 -1.2180341 -0.84292394 -0.0021588306 -0.33478826
0.7147643 -0.9044351 -0.32426563 -2.0437827 -0.32077247 -0.36295414 0.66359645 -0.20072417
0.5183115 -0.054923974 -0.22085209 0.0867179 0.2984756 0.016859148 -0.009164125 -0.1760874
-2.8118224 -1.1441617 -0.06841439 -0.5846625 -0.0075819315 0.5786932 0.33267587 -2.6685367
0.2654855 -0.6417849 0.9716716 -0.62735593 0.14663942 1.3369056 -1.471424 -0.8288757
0.18037713 1.1765403 -1.451412 -0.11470283 0.28563717 0.33894572 -0.4563377 -0.16838032
-0.04806929 -0.0012815176 0.07855254 -0.050111696 0.07242767 -0.3004726 0.050022542 -0.2106606
-0.12569693 -0.17078127 0.0026429077 0.23305634 -0.67952776 -1.2619313 -0.51166606 -2.093133
0.7274661 -0.2384357 0.40453553 0.51673466 0.38474143 0.59507746 0.3368684 0.43191868
0.40125355 0.59736997 0.57871854 0.0020498869 -1.3000209 -0.08013488 -0.109414406 -0.10548833
-0.10963056 -0.041120473 -1.5466704 -0.3026455 0.2717965 -1.4770223 -0.18726766 -0.8524891
0.047675315 -0.7207928 -0.5433106 -1.525946 -1.0456586 -1.438574 -0.99530137 -0.63158625
0.19951333 0.38437343 0.5024428 0.60857934 0.37141967 0.1534576 -0.047868114 0.29391536
0.66644067 0.61190766 0.2162249 -0.02271314 0.019009043 0.06780051 -0.026779931 0.045466337
0.5357632 -0.38257548 -0.50209475 -1.3475626 -0.5189703 -1.3769106 -0.3060646 0.2036775
-0.10117137 -2.571081 -0.7488244 -0.67379105 -0.22202916 -0.997917 0.2227488 0.76775724
0.20750186 -0.58169866 -0.29951423 -1.2592582 -0.9472762 0.24339503 -0.76834595 -0.023973439
-0.5186714 0.17921476 0.17953523 -0.0029048014 -0.22847374 0.11422541 -1.1740509 -0.021012755
0.12336866 -0.62784034 0.30823985 1.08358 0.19723526 -0.14814323 0.7129025 0.15781567
-2.920052 -0.7658778 -1.0415361 1.1547356 -0.06788447 -0.0079137655 0.17640667 0.003789294
0.44206712 -0.15165138 -0.15501042 0.40728736 0.039947588 -0.9932595 0.35130996 -0.3649204
-0.49858537 0.20023237 0.115148544 0.7062061 0.07828256 -1.9931424 -0.42904928 -0.82909155
-0.015799996 -2.3341181 1.0800363 0.70970607 0.6962438 0.9179551 0.54387414 -1.399331
-0.5295408 -0.18610197 0.49183825 0.73880625 0.25389767 0.4646738 0.5059779 0.12723231
0.061267998 0.46409443 0.28119695 0.31215924 0.7229864 -0.067279026 0.00051099085 0.19138493
0.11523909 -0.08128554 -0.37960032 0.785898 -0.112477936 -0.39334258 -0.42262834 -1.7670557
-0.35358745 -2.4941995 -0.12877353 0.006179284 -1.3886014 -0.29815057 0.085285604 -2.5716007
-0.026170745 0.07972995 0.5934576 0.5127916 0.0484695 0.07707067 0.540488 -0.052280694
0.10449017 -0.13444194 -0.1266135 0.0090613095 -0.17189595 -0.15810357 0.602718 0.36003706
00000000: bd36 7f3e d70e d33e 7e20 813e 4cb3 8d3e
00000010: 3fbc d13e 44c8 6d3e 532f f73e 10e7 3f3f
00000020: a0c5 aebd ebc2 9b3c 6118 843d e70c 56be
00000030: 94dc 3bbe 6c3f a3bd 9ee9 30bd eae9 05bd
00000040: 32c1 a3bf b9d1 c1be 0e5f 233d 5f48 0abf
00000050: 48a9 9a3e 50d6 193f a3ed 813e d55b b23e
00000060: 9b64 56bd 5851 52bf f799 ea3f b8d9 b63c
00000070: 8be8 9bbf ddc9 57bf 2b7b 0dbb 5e69 abbe
00000080: cbfa 363f 0f89 67bf 2506 a6be 56cd 02c0
00000090: 4a3c a4be 20d5 b9be 75e1 293f a38a 4dbe
000000a0: 10b0 043f f6f7 60bd 0d27 62be 2899 b13d
000000b0: cbd1 983e 321c 8a3c 2025 16bc 4150 34be
000000c0: e6f4 33c0 e473 92bf d81c 8cbd 71ac 15bf
000000d0: da71 f8bb 3d25 143f 7e54 aa3e 4ec9 2ac0
000000e0: b7ed 873e 044c 24bf 78bf 783f 669a 20bf
000000f0: a528 163e b91f ab3f 9f57 bcbf 3331 54bf
00000100: c8b4 383e df98 963f dec7 b9bf 51e9 eabd
00000110: 093f 923e 4b8a ad3e 18a5 e9be e46b 2cbe
00000120: 4ee4 44bd 98f8 a7ba 27e0 a03d ec41 4dbd
00000130: f554 943d 8bd7 99be 70e4 4c3d 6ab7 57be
00000140: b2b6 00be 49e1 2ebe a234 2d3b 52a6 6e3e
00000150: 88f5 2dbf f786 a1bf 8cfc 02bf e4f5 05c0
00000160: 383b 3a3f 7d28 74be 481f cf3e b948 043f
00000170: d4fc c43e ff56 183f 047a ac3e 7224 dd3e
00000180: 1b71 cd3e 3ded 183f e626 143f 6557 063b
00000190: 1667 a6bf c21d a4bd a914 e0bd 440a d8bd
000001a0: fd85 e0bd f16d 28bd 4cf9 c5bf 5af4 9abe
000001b0: e928 8b3e 110f bdbf 18c3 3fbe ba3c 5abf
000001c0: 3147 433d e085 38bf 6716 0bbf 3352 c3bf
000001d0: 24d8 85bf 3123 b8bf 12cc 7ebf a3af 21bf
000001e0: 394d 4c3e 98cc c43e 17a0 003f dbcb 1b3f
000001f0: b82a be3e fd23 1d3e 5b11 44bd 137c 963e
00000200: db9b 2a3f fba5 1c3f 0f6a 5d3e e810 babc
00000210: dab8 9b3c feda 8a3d 9661 dbbc e93a 3a3d
00000220: c727 093f efe0 c3be 4889 00bf ee7c acbf
00000230: 3ddb 04bf 9b3e b0bf 80b4 9cbe d690 503e
00000240: ef32 cfbd 978c 24c0 f5b2 3fbf 927d 2cbf
00000250: 9d5b 63be 7d77 7fbf 4318 643e bd8b 443f
00000260: 5e7b 543e 34ea 14bf ee59 99be 5f2f a1bf
00000270: b180 72bf 8c3c 793e 52b2 44bf f263 c4bc
00000280: a6c7 04bf 1384 373e 15d8 373e 7b5e 3ebb
00000290: 05f5 69be 03ef e93d 4d47 96bf f122 acbc
000002a0: b5a8 fc3d 25ba 20bf 9dd1 9d3e c0b2 8a3f
000002b0: 0af8 493e dcb2 17be c780 363f 6e9a 213e
000002c0: 22e2 3ac0 9110 44bf 0e51 85bf 60ce 933f
000002d0: 0307 8bbd bda8 01bc f3a3 343e ce55 783b
000002e0: 9f56 e23e 804a 1bbe 0dbb 1ebe f887 d03e
000002f0: 15a0 233d 4146 7ebf e6de b33e d9d6 babe
00000300: 9546 ffbe b709 4d3e 00d3 eb3d ecc9 343f
00000310: 9b52 a03d 4a1f ffbf 59ac dbbe 583f 54bf
00000320: fe6e 81bc 3162 15c0 a13e 8a3f 4caf 353f
00000330: 093d 323f 1bff 6a3f 563b 0b3f 471d b3bf
00000340: fc8f 07bf 8491 3ebe 39d2 fb3e 6822 3d3f
00000350: e0fe 813e b9e9 ed3e c587 013f 3049 023e
00000360: 27f4 7a3d c99d ed3e 0cf9 8f3e 56d3 9f3e
00000370: a315 393f 96c9 89bd 04f4 053a 69fa 433e
00000380: 7902 ec3d 0879 a6bd f95a c2be 9c30 493f
00000390: d55a e6bd 3364 c9be be62 d8be e22e e2bf
000003a0: 6a09 b5be f7a0 1fc0 35dd 03be 977b ca3b
000003b0: b1bd b1bf 31a7 98be 38aa ae3d 1b95 24c0
000003c0: 0864 d6bc 7549 a33d d6ec 173f 4f46 033f
000003d0: f487 463d 3ad7 9d3d 6c5d 0a3f 4824 56bd
000003e0: f1fe d53d 26ab 09be f8a6 01be e375 143c
000003f0: 7e05 30be e7e5 21be ba4b 1a3f c756 b83e

fc1.bias f4 [64]
0.24830334 -0.46230224 0.2754085 0.31084007 0.51554036 -0.9410957 0.112836525 0.1295061
0.5585257 1.1358272 0.21052139 -0.6652845 0.5011983 -0.3273881 1.2914841 0.87905055
0.83387965 0.6154784 -0.06495608 0.68718153 -0.1580142 0.042308014 0.8777721 -0.5685214
0.8565536 0.39117557 0.43495557 0.06621051 0.6018642 0.8645632 -0.16230185 0.02886435
0.010239062 0.026339361 -0.42422083 0.6759112 -0.10340711 0.21969771 0.26262712 0.358834
-0.07081811 0.19129536 -0.64370507 0.66409934 0.7534512 -0.89377713 0.4877212 -0.08625795
0.45198995 -0.36406893 -0.3177986 -0.20887926 -0.29525134 0.6793457 -0.021967562 0.7272995
0.28046852 -1.063971 -0.5343204 -0.31513306 0.37872228 0.21862938 0.13486837 0.42254975
00000000: 3b43 7e3e e1b2 ecbe 5802 8d3e 6e26 9f3e
00000010: 74fa 033f a6eb 70bf d616 e73d 3f9d 043e
00000020: 8afb 0e3f c962 913f eb92 573e 1650 2abf
00000030: 884e 003f 6a9f a7be 5a4f a53f 7509 613f
00000040: 2379 553f fe8f 1d3f b107 85bd 21eb 2f3f
00000050: 79ce 21be 2b4b 2d3d acb5 603f 9e8a 11bf
00000060: 1947 5b3f 2a48 c83e 7fb2 de3e 6099 873d
00000070: c613 1a3f 0454 5d3f 7532 26be ee74 ec3c
00000080: bdc1 273c a5c5 d73c 7933 d9be 8408 2d3f
00000090: 1bc7 d3bd 70f8 603e 1077 863e 17b9 b73e
000000a0: 1609 91bd eee2 433e dbc9 24bf 6a02 2a3f
000000b0: 2ee2 403f 94ce 64bf 98b6 f93e 02a8 b0bd
000000c0: 3a6b e73e 3e67 babe 80b6 a2be 72e4 55be
000000d0: 2f2b 97be 9ae9 2d3f 51f5 b3bc 4d30 3a3f
000000e0: 9299 8f3e 3430 88bf 39c9 08bf 1f59 a1be
000000f0: e3e7 c13e 61e0 5f3e ef1a 0a3e 7158 d83e

fc2.weight f4 [64, 64]
1.649749 -1.7842462 0.941476 -2.0013328 -1.1441158 0.18546942 1.1549932 1.108544
-0.32736263 0.82711434 0.4555199 2.2845414 0.017388022 0.8461787 0.031182759 0.7253618
-0.0037110364 -1.5419805 -0.85858184 -1.4625432 -0.45367873 0.3026483 -0.19473462 -0.589664
-0.16803977 -0.6564389 -1.2596477 1.133414 0.33377048 -0.05421398 0.30412623 0.17242242
1.7332684 0.21330108 -0.6586872 -1.2698696 0.685496 0.31840023 0.4346105 -0.46214408
-0.25110433 0.18633477 -1.2573041 -0.10884235 -0.35347947 -0.87036514 -0.48476547 -1.4592199
0.25254527 -2.8174121 -1.6416807 1.1194155 0.44060743 -1.9870632 1.7269491 -0.7106338
-0.11579609 1.178345 0.44014904 2.7365968 -0.8098305 0.68454665 -0.8304234 -0.44878036
-0.6694409 0.16984841 0.49944767 -0.08315075 0.10261243 -0.13516465 -1.1799142 -0.12991288
0.3884228 -0.4492431 -0.33760238 -0.112676404 -0.7652893 0.40572196 0.70456505 0.6724517
0.29406822 0.002581572 -0.16382127 1.1201335 -0.19339898 0.19629857 -0.3273253 0.39391565
0.3137618 0.98844653 -0.586668 0.5451825 -0.30607006 0.73369884 -0.2208349 -0.60403585
0.040115688 0.016147248 1.2174915 -0.064695135 -0.117279686 -0.14681913 0.13735647 -0.50127596
-0.3232476 0.9572411 -0.29762858 0.26469487 -0.53315187 -1.7214742 0.3233599 0.83387977
0.003592185 0.0063237064 -0.16828133 -0.7142397 -0.6288084 0.1392244 0.538931 0.9768946
0.37377512 -2.268395 -0.44968235 0.6697487 -0.39351377 0.06938556 0.0074695987 0.27854353
-0.82668585 0.04464071 -0.6934698 -1.3764229 0.8336566 -0.18726125 1.8973365 0.1957052
-0.8586257 -0.054002713 2.6919641 0.72027856 -0.025630785 0.9400307 -0.023393575 0.6223466
-3.7142355 -1.5008088 -0.21943054 0.28938174 0.19966799 -0.52769375 -2.10083 -0.07300357
0.114520065 0.346774 0.8922742 -6.22811 -1.5109233 0.40071678 -1.9164522 -1.108314
1.2437052 1.5033983 0.8201006 0.18876009 0.04597996 0.29996595 -0.3219768 -0.12516959
-0.0346359 0.63955724 1.1950674 0.3526567 0.32795638 -0.34367675 1.0284444 1.1992351
-0.24351658 0.9310663 1.9332592 -6.68669 -0.18303648 -0.043855373 -0.5092164 -1.0900534
-1.1282327 -2.405503 2.082241 0.4992146 0.15021172 -1.1093895 0.25210273 -0.097777806
0.038849957 0.08732562 -0.06824985 -0.041891076 -0.046209093 -0.12928523 -0.10706083 -0.01981214
-0.14636007 -0.032417666 0.013915743 -0.109499484 -0.06100388 0.055881094 -0.10401638 -0.02842021
0.077199854 -0.07640171 0.011994224 -0.14943619 -0.0068262187 -0.02137306 -0.027980471 -0.048260514
-0.1070348 0.012078823 -0.057611514 -0.16490856 -0.027170086 -0.011484479 -0.04387513 0.061655115
-0.11121996 0.021496339 -0.12252078 0.072072774 0.00029107917 -0.12875162 -0.053899333 -0.004454711
-0.05045687 -0.06510769 -0.038588986 -0.121543646 -0.17064631 -0.045546696 -0.12422938 -0.07376275
-0.11143115 0.07437347 -0.09876537 0.0935839 -0.109355785 -0.057471044 0.029529074 -0.029862184
-0.16463847 -0.068001606 -0.055171896 0.031102065 -0.035562847 0.044571474 0.028637059 -0.07680554
00000000: fa2a d33f 2e62 e4bf 9204 713f d615 00c0
00000010: 6372 92bf b2eb 3d3e d1d6 933f c5e4 8d3f
00000020: 139c a7be c4bd 533f e839 e93e ed35 1240
00000030: 5371 8e3c 2b9f 583f fc72 ff3c 50b1 393f
00000040: dc34 73bb 9e5f c5bf 05cc 5bbf 9e34 bbbf
00000050: 9448 e8be b8f4 9a3e 8368 47be 38f4 16bf
00000060: 9e12 2cbe 610c 28bf 233c a1bf b613 913f
00000070: f7e3 aa3e 7a0f 5ebd 6fb6 9b3e 818f 303e
00000080: bddb dd3f 996b 5a3e b99f 28bf 168b a2bf
00000090: aa7c 2f3f 5b05 a33e 4485 de3e 269e ecbe
000000a0: bf90 80be 8bce 3e3e 57ef a0bf bde8 debd
000000b0: 43fb b4be 40d0 5ebf 2e33 f8be b8c7 babf
000000c0: 9d4d 813e 7b50 34c0 9822 d2bf 0249 8f3f
000000d0: 4c97 e13e 1658 febf ab0c dd3f 19ec 35bf
000000e0: 8026 edbd 02d4 963f 375b e13e 6724 2f40
000000f0: 0d51 4fbf 733e 2f3f a196 54bf 8ac6 e5be
00000100: 7b60 2bbf beec 2d3e 9bb7 ff3e f14a aabd
00000110: 7726 d23d 9a68 0abe 6e07 97bf e207 05be
00000120: 5adf c63e 3103 e6be 38da acbe e3c2 e6bd
00000130: 00ea 43bf caba cf3e 605e 343f cb25 2c3f
00000140: 1c90 963e 972f 293b c3c0 27be 8960 8f3f
00000150: 620a 46be 7e02 493e 2f97 a7be 50af c93e
00000160: 63a5 a03e d50a 7d3f e02f 16bf 1591 0b3f
00000170: 37b5 9cbe b0d3 3b3f 8b22 62be 18a2 1abf
00000180: 5950 243d 3c47 843c c3d6 9b3f e27e 84bd
00000190: 5530 f0bd c157 16be 2da7 0c3e 9f53 00bf
000001a0: b680 a5be c10d 753f c662 98be 1686 873e
000001b0: a47c 08bf 4459 dcbf 6e8f a53e 2579 553f
000001c0: dd6a 6b3b 1837 cf3b f151 2cbe 6ad8 36bf
000001d0: 96f9 20bf d790 0e3e 62f7 093f c415 7a3f
000001e0: 745f bf3e 622d 11c0 c43c e6be a774 2b3f
000001f0: a37a c9be 041a 8e3d 89c3 f43b 429d 8e3e
00000200: afa1 53bf 2dd9 363d 3d87 31bf a02e b0bf
00000210: 856a 553f 6ac1 3fbe ecdb f23f f266 483e
00000220: e5ce 5bbf f331 5dbd 2449 2c40 2d64 383f
00000230: a7f7 d1bc daa5 703f e2a3 bfbc 1b52 1f3f
00000240: 09b6 6dc0 811a c0bf 66b2 60be d829 943e
00000250: c475 4c3e f016 07bf 0074 06c0 e582 95bd
00000260: 7f89 ea3d 5d8c b13e 156c 643f ad4c c7c0
00000270: ef65 c1bf c02a cd3e 4e4e f5bf 3cdd 8dbf
00000280: bb31 9f3f 5b6f c03f 1df2 513f 534a 413e
00000290: 7c55 3c3d 2395 993e 25da a4be 752c 00be
000002a0: 60de 0dbd 06ba 233f f8f7 983f 6b8f b43e
000002b0: e6e9 a73e 66f6 afbe 11a4 833f 8980 993f
000002c0: 695c 79be 5c5a 6e3f 0a75 f73f 5df9 d5c0
000002d0: ea6d 3bbe b1a1 33bd 025c 02bf df86 8bbf
000002e0: ee69 90bf c3f3 19c0 7043 0540 0e99 ff3e
000002f0: 1ad1 193e 7a00 8ebf 9c13 813e bb3f c8bd
00000300: 2221 1f3d c6d7 b23d 94c6 8bbd fa95 2bbd
00000310: bf45 3dbd 5963 04be b542 dbbd 124d a2bc
00000320: 6adf 15be 63c8 04bd dbfe 633c 4441 e0bd
00000330: 34df 79bd 93e3 643d 8a06 d5bd 80d1 e8bc
00000340: f51a 9e3d 8078 9cbd 6c83 443c cd05 19be
00000350: 79ae dfbb 8e16 afbc 4d37 e5bc d1ac 45bd
00000360: 1035 dbbd 41e6 453c 0dfa 6bbd cadd 28be
00000370: cd93 debc 6529 3cbc 69b6 33bd 138a 7c3d
00000380: 4ac7 e3bd 1719 b03c 2dec fabd e49a 933d
00000390: fc9b 9839 77d7 03be 8cc5 5cbd d3f8 91bb
000003a0: ddab 4ebd 2e57 85bd 7c0f 1ebd e0eb f8bd
000003b0: e8bd 2ebe 2c8f 3abd f96b febd ed10 97bd
000003c0: 0436 e4bd 1e51 983d 8045 cabd eaa8 bf3d
000003d0: edf5 dfbd c266 6bbd f5e6 f13c 8aa1 f4bc
000003e0: fd96 28be 6d44 8bbd edfb 61bd c2c9 fe3c
000003f0: 59aa 11bd 9490 363d 4498 ea3c 394c 9dbd

fc2.bias f4 [64]
0.23440833 -0.42328706 -0.23257369 -0.11423706 -0.1486161 -0.60553 0.62788844 0.89753824
0.11737253 0.019624101 -0.11696053 -0.2508608 -0.18524885 0.22312093 0.09831947 0.34344083
0.6582597 -0.023616223 0.37240916 0.4281197 -0.14838576 0.15320519 0.124047 -0.17269139
0.19326451 -0.02292738 -0.07788017 -0.1836158 0.49790505 -0.083324894 0.35732368 0.047888063
-0.09963109 -0.27938482 -0.07376888 -0.10724828 -0.17500912 0.2861078 -0.27092493 -0.103869185
-0.1309947 0.6320465 0.3909215 0.27038166 0.07806476 -0.14189965 0.29987085 -0.44257078
0.27536958 -0.16268653 -0.30565962 0.7495527 0.048946522 -0.17696717 0.0050609787 0.58197784
-0.095284626 0.2429626 0.0485309 0.2613013 0.014777934 0.27406132 -0.23101614 0.33457646
00000000: bd08 703e 15b9 d8be cc27 6ebe 1ff5 e9bd
00000010: d22e 18be 0404 1bbf 4cbd 203f 11c5 653f
00000020: 0261 f03d b9c2 a03c 0189 efbd d470 80be
00000030: e0b1 3dbe d079 643e b85b c93d 7ad7 af3e
00000040: b583 283f cf76 c1bc 6aac be3e 8132 db3e
00000050: 70f2 17be d2e1 1c3e 5b0c fe3d 03d6 30be
00000060: 22e7 453e 33d2 bbbc a37f 9fbd c805 3cbe
00000070: 69ed fe3e 3ea6 aabd 21f3 b63e 4626 443d
00000080: 630b ccbd 870b 8fbe 2314 97bd fca4 dbbd
00000090: 9735 33be b97c 923e acb6 8abe 5eb9 d4bd
000000a0: 7a23 06be cdcd 213f dd26 c83e 776f 8a3e
000000b0: 6be0 9f3d 244e 11be ac88 993e a398 e2be
000000c0: 3efd 8c3e 4c97 26be 6b7f 9cbe b0e2 3f3f
000000d0: 267c 483d e236 35be 91d6 a53b 80fc 143f
000000e0: 9624 c3bd 30cb 783e 56c8 463d 49c9 853e
000000f0: 261f 723c c451 8c3e 7f8f 6cbe 9b4d ab3e

fc3.weight f4 [64, 64]
0.44917104 -0.6427778 0.17408325 -0.13990042 0.53899187 -1.9537053 0.46528527 0.14987035
0.8927866 0.0387797 -0.0334376 -1.4034805 -0.09891132 0.4167312 2.0543935 -0.00796954
-0.024840016 0.47340518 0.21080546 -0.45177388 0.32323173 -0.60814714 0.16885154 -0.005497747
-0.45873675 -0.019394528 -0.68936545 -0.029814353 -0.21917854 -0.14300029 0.45095453 -0.23197739
0.07588113 0.8385074 -0.7096706 -0.082251385 -0.059149038 0.47297144 -0.8915388 0.32945594
0.6175377 0.5247185 0.12271996 -0.7904926 0.9243793 0.06858056 0.12484052 0.4043678
-0.24980623 -0.095939636 -0.7991143 0.4061701 0.6183902 -0.026130972 -0.7283674 -0.020328313
0.23805162 0.30221736 0.3876636 0.3108834 0.55722564 0.08377922 -0.79470915 -0.605603
0.030384865 -0.06289994 -0.1167631 -0.10981479 -0.16091052 0.061832294 -0.08704958 0.017925486
0.071959615 0.053660005 0.031485677 0.09732595 -0.0016744435 0.010379692 -0.034244988 0.023709873
-0.034562364 -0.0902359 -0.1662371 -0.09532404 -0.100536406 0.028118616 -0.06943057 0.018438622
-0.03399407 -0.0703703 -0.038315713 -0.023158774 0.037256055 -0.069770835 -0.09269988 -0.088804215
-0.08271341 -0.028378814 -0.1523341 -0.012011394 0.010127515 -0.11728411 -0.062167455 0.05489265
0.006590488 -0.14083473 -0.036153033 -0.015980614 -0.10787893 -0.022662625 -0.078147635 -0.11935508
-0.07780868 -0.0058373064 0.026655788 -0.13799149 -0.058867577 -0.056371674 -0.09605064 -0.04141675
-0.07476632 -0.10414413 -0.054792542 -0.016568128 -0.117551774 -0.029162569 -0.1225084 -0.085314766
-0.2524333 -0.19197227 0.67081803 0.024181578 -1.1967996 -1.6543005 0.27640647 0.653008
0.14187276 0.111943215 0.06493785 1.0257492 0.047541026 0.46395066 0.6902398 -0.6754955
0.26985332 1.2495761 0.21728401 -0.08687294 -1.1147244 0.059776936 -0.24312049 -0.008868574
0.7505721 -0.06787789 -0.04490233 -0.022508606 0.7025 1.5803366 0.4988453 0.2760868
-0.09445479 0.4114624 -0.29637975 -0.11740879 -0.06688307 -0.11317065 -0.7132126 1.0129942
0.6685267 0.3052325 1.0832802 -0.27835977 -0.2182889 -0.032433767 0.13635333 -0.9333832
0.96770316 -0.036919102 -1.3150716 -0.3782432 -0.5161307 -0.019744758 -0.17394637 0.30454043
0.54537916 0.6732564 0.06078667 0.008851591 -0.41645414 0.5556814 -1.5098907 -0.4387193
-0.040900573 -0.2043136 -0.18654811 0.10429934 0.02196208 0.07908133 -0.13205391 -0.039613217
-0.0023557544 0.09968862 -0.12378518 -0.07680125 0.118292496 0.027866356 -0.10904714 -0.03603026
-0.07891177 -0.01759876 -0.18254064 -0.033566188 0.024153883 0.033097673 -0.13291128 0.003980145
-0.12804878 -0.10673709 -0.17993914 0.051055685 -0.0752515 -0.09246405 -0.13656642 -0.13546042
0.06895691 -0.03719707 -0.09903687 -0.119159415 -0.0008556545 -0.01894699 -0.09982617 -0.07361737
-0.14266288 0.0092501575 -0.12787646 0.027923629 -0.102158986 -0.10547033 -0.044975687 0.032738473
-0.1203359 -0.04547982 -0.21204272 -0.024114667 0.019335805 0.091024935 -0.1166001 -0.1750587
-0.111353844 0.03641788 -0.10752324 -0.07167119 -0.122435085 -0.022976197 -0.06739625 -0.0063111093
00000000: bff9 e53e 168d 24bf e142 323e 0e42 0fbe
00000010: 5ffb 093f 0413 fabf df39 ee3e 9d77 193e
00000020: aa8d 643f 76d7 1e3d ddf5 08bd 40a5 b3bf
00000030: 0592 cabd cb5d d53e 2f7b 0340 ac92 02bc
00000040: 4a7d cbbc 2a62 f23e 63dd 573e e84e e7be
00000050: a17e a53e 88af 1bbf 6be7 2c3e 7226 b4bb
00000060: 8bdf eabe 46e1 9ebc 417a 30bf 3b3d f4bc
00000070: 5770 60be ab6e 12be 83e3 e63e 7b8b 6dbe
00000080: 9167 9b3d 6ca8 563f f9ac 35bf 6a73 a8bd
00000090: 4346 72bd 5029 f23e e33b 64bf 73ae a83e
000000a0: f316 1e3f f453 063f 9a54 fb3d b95d 4abf
000000b0: 1fa4 6c3f f773 8c3d 63ac ff3d 4c09 cf3e
000000c0: 34cd 7fbe 007c c4bd c192 4cbf 87f5 cf3e
000000d0: d24e 1e3f 9f10 d6bc 4976 3abf 9087 a6bc
000000e0: cec3 733e 3cbc 9a3e d87b c63e 1c2c 9f3e
000000f0: 57a6 0e3f 7194 ab3d 0f72 4bbf cc08 1bbf
00000100: aee9 f83c afd1 80bd 7e21 efbd 94e6 e0bd
00000110: bac5 24be dc43 7d3d 0d47 b2bd 78d8 923c
00000120: 905f 933d 98ca 5b3d 20f7 003d d452 c73d
00000130: 0079 dbba 950f 2a3c 7944 0cbd 353b c23c
00000140: 4491 0dbd 99cd b8bd 0f3a 2abe 4039 c3bd
00000150: 08e6 cdbd 0359 e63c 9d31 8ebd 980c 973c
00000160: 5e3d 0bbd 4e1e 90bd f0f0 1cbd 78b7 bdbc
00000170: ce99 183d 03e4 8ebd 6fd9 bdbd fcde b5bd
00000180: a665 a9bd b07a e8bc 78fd 1bbe 70cb 44bc
00000190: e0ed 253c a732 f0bd 4da3 7ebd 1ed7 603d
000001a0: 05f5 d73b fb36 10be 3415 14bd c7e9 82bc
000001b0: a1ef dcbd f8a6 b9bc de0b a0bd 7070 f4bd
000001c0: 285a 9fbd e046 bfbb 3d5d da3c a44d 0dbe
000001d0: 211f 71bd fce5 66bd 33b6 c4bd 9ca4 29bd
000001e0: 161f 99bd 8549 d5bd 256e 60bd e2b9 87bc
000001f0: fcbe f0bd 57e6 eebc afe5 fabd 82b9 aebd
00000200: f03e 81be 6194 44be bbba 2b3f 7218 c63c
00000210: bb30 99bf 1ec0 d3bf 2685 8d3e 882b 273f
00000220: 1847 113e 7c42 e53d 23fe 843d c04b 833f
00000230: 61ba 423d f18a ed3e 8eb3 303f 46ed 2cbf
00000240: 372a 8a3e 1cf2 9f3f b37f 5e3e 71ea b1bd
00000250: 4aaf 8ebf a9d8 743d 94f4 78be 7f4d 11bc
00000260: 7e25 403f 9003 8bbd 81eb 37bd f863 b8bc
00000270: 0ad7 333f 7848 ca3f a768 ff3e 405b 8d3e
00000280: 8371 c1bd 33ab d23e 16bf 97be 0574 f0bd
00000290: fef9 88bd 04c6 e7bd 1a95 36bf cba9 813f
000002a0: 9124 2b3f 6f47 9c3e eda8 8a3f 2c85 8ebe
000002b0: 2087 5fbe 45d9 04bd 35a0 0b3e 34f2 6ebf
000002c0: 65bb 773f 7c38 17bd 4454 a8bf 18a9 c1be
000002d0: 2421 04bf c2bf a1bc ff1e 32be b9ec 9b3e
000002e0: f89d 0b3f 885a 2c3f 71fb 783d 4306 113c
000002f0: 7a39 d5be 2341 0e3f 1944 c1bf d19f e0be
00000300: 5c87 27bd 9637 51be 7806 3fbe e49a d53d
00000310: d2e9 b33c 64f5 a13d 2439 07be 7841 22bd
00000320: 0063 1abb 8c29 cc3d 1683 fdbd f949 9dbd
00000330: 5643 f23d fc47 e43c 1b54 dfbd 7794 13bd
00000340: 7e9c a1bd 462b 90bc efeb 3abe b37c 09bd
00000350: 5dde c53c 6d91 073d e519 08be e06b 823b
00000360: 381f 03be fa98 dabd f741 38be c41f 513d
00000370: 751d 9abd cb5d bdbd 11d8 0bbe 23b6 0abe
00000380: 4839 8d3d f45b 18bd d8d3 cabd da09 f4bd
00000390: 004e 60ba b836 9bbc aa71 ccbd b4c4 96bd
000003a0: 3816 12be f98d 173c 0cf2 02be 18c0 e43c
000003b0: bb38 d1bd d400 d8bd 6d38 38bd c718 063d
000003c0: ab72 f6bd 0c49 3abd ba21 59be 1f8c c5bc
000003d0: 1f66 9e3c 486b ba3d 09cc eebd 9642 33be
000003e0: 7c0d e4bd ea2a 153d 2535 dcbd 58c8 92bd
000003f0: 3fbf fabd 9438 bcbc 0c07 8abd 6ccd cebb

fc3.bias f4 [64]
1.1316261 -0.16094014 0.6480842 -0.1822735 -0.2594188 -0.05028524 0.39083493 0.70873904
-0.4105029 -0.077149294 -0.10696019 0.21832053 0.15645728 0.46187353 0.7362412 0.7360658
-0.006323398 0.58033895 0.33694 0.010279386 0.3298275 1.2630905 0.62409335 1.1197485
0.30801365 -0.048832394 0.6253025 0.24098998 0.7013091 0.29688832 0.06865668 0.5964413
-0.024773 0.097732306 -0.1788445 -0.46980935 0.66429937 0.75090605 -0.10671005 0.8976409
-0.12589295 -0.51387453 0.075369634 -0.1992794 -0.33926877 -0.13100876 1.0484352 0.3279048
-0.08617067 0.010770788 0.14564507 0.4577021 -0.3462529 0.658515 0.84583396 -0.16322693
0.5632129 0.6319825 -0.5550798 0.43696025 0.04792786 -0.12034258 0.15976687 0.85226583
00000000: 20d9 903f 7ecd 24be d9e8 253f e8a5 3abe
00000010: 8ad2 84be e5f7 4dbd 841b c83e ec6f 353f
00000020: 702d d2be 7300 9ebd f20d dbbd 6b8f 5f3e
00000030: 5636 203e b07a ec3e 4e7a 3c3f cf6e 3c3f
00000040: 8234 cfbb 1891 143f 6683 ac3e df6a 283c
00000050: 26df a83e f3ac a13f 95c4 1f3f eb53 8f3f
00000060: f7b3 9d3e 7a04 48bd d313 203f 14c6 763e
00000070: fe88 333f bf01 983e e09b 8c3d 61b0 183f
00000080: bff0 cabc e027 c83d 0323 37be da8a f0be
00000090: 860f 2a3f 613b 403f cc8a dabd cbcb 653f
000000a0: 15ea 00be 488d 03bf 655b 9a3d e60f 4cbe
000000b0: a3b4 adbe 2927 06be 2033 863f 23e3 a73e
000000c0: 407a b0bd f677 303c fb23 153e ee57 ea3e
000000d0: 0f48 b1be 7094 283f 9388 583f f624 27be
000000e0: b82e 103f 9bc9 213f b619 0ebf 41b9 df3e
000000f0: 0150 443d 2c76 f6bd ed99 233e 182e 5a3f

fc4.weight f4 [10, 64]
0.100715294 -0.022261694 0.24832612 -0.06907861 0.8290521 -0.11090823 -0.14730433 0.14100002
-0.24120289 -0.12708418 0.017073028 -0.06313275 0.15285127 -0.07418478 0.1911862 0.035724275
0.010785158 0.72584033 0.38546 -0.30332533 0.01564748 1.0415311 0.4422583 -0.0843693
-0.15406437 -0.2720141 0.1822514 0.30393356 0.20185862 1.176232 -0.23324801 -3.5049944
0.09943677 -0.5879717 0.0789301 -0.31414586 -0.10344452 0.13115637 -0.019666947 0.2934504
0.09526556 2.416456 0.059576046 0.23244925 -0.2235596 -0.2997977 0.50191796 0.39594814
-0.093152136 0.08285143 -0.85085505 0.32712844 -0.1298808 0.44496062 0.37017918 0.06001263
-0.16760014 -0.22345926 0.7251253 2.102114 -0.13008286 -0.036736496 0.22498137 0.11520318
-0.13499062 -0.0047561973 0.4532341 0.036467124 2.0207818 -0.037201047 -0.15587364 -0.6957575
-0.058300473 -0.22157742 -0.036816802 0.86803824 0.20286813 -0.058823746 -0.33653295 -0.36681765
0.11395921 0.50594705 -0.16039395 -0.07422427 0.25482076 -1.2655113 -0.75234926 -1.7141585
0.3786142 -0.15479377 0.844929 -0.592557 -0.34909418 0.70097274 1.412658 -0.3134974
-0.13594137 -0.40104857 0.11232916 -0.048790373 -0.11253106 0.04922459 0.2799485 0.28269053
0.08147194 1.3576441 0.55020714 0.8043311 -0.3921353 -0.36536333 0.09911421 -0.6117593
0.06923696 0.07267612 0.042611174 0.43082127 -0.22844033 0.7161643 0.17401305 -0.082782075
-1.0447594 -0.54944646 0.069076456 -0.6658923 0.08905393 -0.07258871 -0.42918026 0.34264576
0.17155182 -0.110924274 -0.26979235 -0.21359023 3.286183 -0.04744382 0.2129688 0.23716785
-0.3436663 -0.1563894 -0.12616211 0.0830059 0.18483981 -0.09703143 0.3742005 0.6689243
0.06171863 1.4608253 -0.1671546 0.68360084 -0.44376057 0.21478197 -0.32731926 0.44668645
-1.9888011 -0.08738385 0.09936247 -0.049021535 -0.060520697 1.4448115 0.8720386 -0.12258896
0.017526435 0.10679492 -0.055226512 -0.34347585 -0.18261956 0.26900446 0.35757098 -0.18812975
-0.09372474 1.068633 -0.100401655 -0.99722844 -0.047096223 -0.18919592 0.8661 -0.4635531
0.098162025 0.044436835 -0.37687898 -0.6823601 -0.59442806 1.9848933 0.31106642 0.11071791
-1.4248768 0.5639564 1.46276 1.5472536 0.054238435 0.08282009 0.44568574 1.0135633
0.048824493 -0.025693046 -0.0764629 0.08452173 2.078663 0.07338277 0.33558652 0.5671802
-0.25729436 -0.18343371 -0.10021187 0.38041174 0.23020367 -0.02019061 0.47736052 -0.050285686
-0.02333339 0.6092986 -0.00093497784 -0.14054611 -0.09436533 0.093668275 0.33577612 0.14025502
-0.25729582 -0.13355274 0.6635009 -0.0087907305 -0.047622066 -0.27715522 -0.64879906 0.25278047
-0.00011074036 -0.59636134 0.036623355 0.37049344 -0.032434687 -0.03479301 0.9574419 -3.1600196
0.08765977 0.82013613 -0.83117557 1.2405417 -0.3422753 -0.50313836 0.5273495 -0.19382203
-0.0949547 0.09345815 -0.016331507 -0.5439913 -0.29759392 1.2733465 0.32271922 0.01190456
-0.5149496 -0.024884678 -0.89897454 1.1226401 -0.092969015 -0.0717088 1.1267452 0.1409236
00000000: d243 ce3d 285e b6bc 3449 7e3e 1679 8dbd
00000010: c23c 543f db23 e3bd f2d6 16be 4f62 103e
00000020: e4fd 76be 5b22 02be bcdc 8b3c be4b 81bd
00000030: 0b85 1c3e 31ee 97bd 51c6 433e 9e53 123d
00000040: 3bb4 303c acd0 393f 035b c53e 754d 9bbe
00000050: 252f 803c e450 853f ae6f e23e d0c9 acbd
00000060: 0dc3 1dbe 6f45 8bbe 1ca0 3a3e 2e9d 9b3e
00000070: 07b4 4e3e c58e 963f 91d8 6ebe d451 60c0
00000080: 81a5 cb3d 5085 16bf 1ba6 a13d bad7 a0be
00000090: b8da d3bd db4d 063e 941c a1bc 213f 963e
000000a0: 971a c33d 37a7 1a40 0306 743d 2d07 6e3e
000000b0: cfec 64be 167f 99be b27d 003f b7b9 ca3e
000000c0: 8cc6 bebd 03ae a93d a3d1 59bf 617d a73e
000000d0: 79ff 04be e1d1 e33e 2088 bd3e cecf 753d
000000e0: 5f9f 2bbe 81d2 64be d0a1 393f 0989 0640
000000f0: 7134 05be 0279 16bd 8461 663e a5ef eb3d
00000100: fb3a 0abe e0d9 9bbb 4d0e e83e 8d5e 153d
00000110: 7d54 0140 2060 18bd 579d 1fbe 2a1d 32bf
00000120: 7acc 6ebd 31e5 62be 37cd 16bd c137 5e3f
00000130: aabc 4f3e 2bf1 70bd 0c4e acbe 86cf bbbe
00000140: 7263 e93d bf85 013f 503e 24be e502 98bd
00000150: de77 823e 46fc a1bf f699 40bf 8c69 dbbf
00000160: b8d9 c13e 4282 1ebe 444d 583f d1b1 17bf
00000170: 79bc b2be f372 333f fad1 b43f bb82 a0be
00000180: 3734 0bbe 3d56 cdbe d50c e63d 6ad8 47bd
00000190: af76 e6bd b99f 493d 6955 8f3e d0bc 903e
000001a0: c3da a63d 48c7 ad3f 60da 0c3f a5e8 4d3f
000001b0: f5c5 c8be e710 bbbe 64fc ca3d 429c 1cbf
000001c0: 1bcc 8d3d 38d7 943d 0e89 2e3d 9b94 dc3e
000001d0: 43ec 69be 8b56 373f 7a30 323e a689 a9bd
000001e0: adba 85bf 86a8 0cbf f577 8d3d eb77 2abf
000001f0: e861 b63d 64a9 94bd 84bd dbbe 446f af3e
00000200: 48ab 2f3e 442c e3bd 3922 8abe 66b7 5abe
00000210: d350 5240 7354 42bd 7e14 5a3e 21dc 723e
00000220: 07f5 afbe 8b24 20be a430 01be fffe a93d
00000230: a646 3d3e 6ab8 c6bd 3597 bf3e 9f3e 2b3f
00000240: adcc 7c3d 53fc ba3f 932a 2bbe 7700 2f3f
00000250: 9634 e3be ceef 5b3e 6496 a7be 16b4 e43e
00000260: 0991 febf 4ef6 b2bd 8d7e cb3d ceca 48bd
00000270: 8de4 77bd 95ef b83f ec3d 5f3f ec0f fbbd
00000280: 9993 8f3c 4cb7 da3d 3235 62bd 11dc afbe
00000290: 9f00 3bbe f4ba 893e 8b13 b73e 16a5 40be
000002a0: c2f2 bfbd f7c8 883f 629f cdbd 5d4a 7fbf
000002b0: f8e7 40bd 93bc 41be bbb8 5d3f d556 edbe
000002c0: 2c09 c93d 6603 363d 48f6 c0be 27af 2ebf
000002d0: 702c 18bf fc10 fe3f 1944 9f3e 12c0 e23d
000002e0: 5d62 b6bf 725f 103f b83b bb3f 680c c63f
000002f0: 1f29 5e3d 949d a93d ec30 e43e 71bc 813f
00000300: 31fc 473d 397a d2bc 9598 9cbd bb19 ad3d
00000310: d108 0540 b549 963d ffd1 ab3e b932 113f
00000320: 16bc 83be 0cd6 3bbe e23b cdbd 54c5 c23e
00000330: 83ba 6b3e c766 a5bc 9968 f43e 5df8 4dbd
00000340: aa25 bfbc fefa 1b3f 4d19 75ba 52eb 0fbe
00000350: 9c42 c1bd 27d5 bf3d d9ea ab3e 039f 0f3e
00000360: 47bc 83be 0dc2 08be 32db 293f ff06 10bc
00000370: 5b0f 43bd 4ae7 8dbe b217 26bf 716c 813e
00000380: 473d e8b8 23ab 18bf 5f02 163d 51b1 bd3e
00000390: 3cda 04bd 1e83 0ebd ea1a 753f c33d 4ac0
000003a0: f786 b33d 71f4 513f ecc7 54bf 12ca 9e3f
000003b0: b53e afbe adcd 00bf 6000 073f 4879 46be
000003c0: 9c77 c2bd fd66 bf3d a7c9 85bc 0443 0bbf
000003d0: 3b5e 98be 05fd a23f 743b a53e 580b 433c
000003e0: bdd3 03bf f4da cbbc 3223 66bf acb2 8f3f
000003f0: 8a66 bebd 10dc 92bd 3039 903f 474e 103e

fc4.bias f4 [10]
0.37327626 -0.58761185 1.1317481 0.90179485 0.4938207 -0.014813992 0.32482818 -0.46042192
0.044166368 -0.02923779
00000000: 111e bf3e bb6d 16bf 1fdd 903f 07dc 663f
00000010: 11d6 fc3e 63b6 72bc e14f a63e 6cbc ebbe
00000020: cbe7 343d 1784 efbc
